fl_experiment_20260111_145926/central_nn.pth (torch, 20085 bytes, 9 tensors)

main.0.weight f4 [64, 23]
000000 58 4c 53 3f 6e 2a 3b 3e 7a 96 3a 3f 4d 57 91 3e
       0.82538366 0.18277904 0.7288586 0.28386918
000010 34 d4 dc be 63 7a f0 3d 62 c3 ac 3e 2e 95 b8 3e
       -0.43130648 0.117420934 0.33742815 0.36051315
000020 9a 2d af 3d a4 dc 8f bc 70 55 07 3c 07 b1 43 be
       0.0855362 -0.017561264 0.008260116 -0.191105
000030 d0 d6 3d bd af 3a 05 be c5 32 ff 3d 1f 2d b8 3c
       -0.04634744 -0.13010667 0.124608554 0.022482453
000040 0e 25 91 be ab 04 e2 3d fd c5 bd 3e f9 88 f3 3c
       -0.28348583 0.110360466 0.37065116 0.0297284
000050 f7 c2 bd be 90 5c 81 b9 e5 81 b6 bd e1 c2 32 3e
       -0.3706281 -0.00024673762 -0.08911494 0.17457153
000060 53 46 8a be 15 c5 88 bf ba b7 b7 3e 38 0b bb bd
       -0.27006778 -1.0685145 0.3588236 -0.09132999
000070 2d 9b b1 be 9f 76 01 3e d7 32 d6 be c0 ca 28 bd
       -0.34688702 0.12642907 -0.41835663 -0.041208982
000080 c9 a0 32 be dd bf 2e 3d 3a 54 96 3e da f4 53 3e
       -0.17444147 0.042663444 0.29361135 0.20698872
000090 62 83 f7 3d c6 ee 24 bc 79 62 a0 be 66 34 98 bd
       0.12085606 -0.010066694 -0.3132513 -0.07431869
0000a0 2b d2 2a 3e f9 33 e6 3d d3 07 eb 3d aa f3 86 be
       0.16681735 0.11240382 0.11476102 -0.26357776
0000b0 98 be ce bd 1e ba cf bd 47 dd 91 3d 1b 3f 9c be
       -0.100949466 -0.10142921 0.071222834 -0.30516896
0000c0 ca 3a 16 3f f7 1c 73 be d3 fc 89 3e 35 b4 01 bf
       0.58683455 -0.23741518 0.26950702 -0.506656
0000d0 1e b2 8e bd 23 90 96 be e6 f9 37 be 82 bd c2 3d
       -0.06967567 -0.29406843 -0.17966422 0.09508802
0000e0 85 52 c9 3d 7b 15 6e 3e 9e 67 9f 3e d9 d3 da 3d
       0.098301925 0.23250382 0.3113374 0.10684938
0000f0 d4 06 72 be 94 3c d2 3c 1e 61 19 3d 37 ec 0c 3f
       -0.23635417 0.025663652 0.037446134 0.55047935
000100 59 6d 15 be 15 84 46 bd 5e a4 55 3e 32 c3 9c 3e
       -0.14592494 -0.048465807 0.20863482 0.30617672
000110 bd 1d 69 3e 93 a5 26 3d 87 14 a6 3d f2 24 bf bd
       0.2276525 0.040685248 0.08109384 -0.09333219
000120 1a 79 cb 3d 6f fd 7d 3e 00 41 e1 3f d8 67 d2 bb
       0.09935208 0.24803708 1.7597961 -0.0064210705
000130 6d a2 40 3d 1a 01 b7 bd 54 89 13 be ad 84 35 3d
       0.0470299 -0.08935757 -0.14407855 0.044315983
000140 7d 04 9f bd 26 4e 80 bb 59 de 15 3e 00 43 23 3d
       -0.07764528 -0.003915566 0.146356 0.039858818
000150 83 71 9d bd c8 07 95 3d 3a 6c ca bd f3 be 40 3e
       -0.07687666 0.07276875 -0.09883924 0.18822841
000160 20 ef c1 bc 2f 32 09 bd ad 2b 5d bd e2 d5 5a bd
       -0.023673594 -0.033495124 -0.05399673 -0.05342663
000170 ff 49 bb bd 5f f7 ee 3a d8 3a 97 be 4b af 2b 3c
       -0.09144973 0.0018231681 -0.29537082 0.010478805
000180 b4 22 ef bd 13 b1 a4 3e 96 ff 1c bd ff e2 86 3e
       -0.11676541 0.32166347 -0.038329683 0.2634506
000190 2f 75 6d bf aa 55 41 3e 82 f7 76 3f 77 12 fd 3d
       -0.9275693 0.18880334 0.96471417 0.123570375
0001a0 e8 7a 0e 3e 2a 3f e5 bd b1 aa 6c 3e 63 4a 63 3d
       0.13914073 -0.11193688 0.23111989 0.055490863
0001b0 42 2a 2e 3d 58 58 0d 3e af 3d b8 be 8c 80 bf bc
       0.04252077 0.13803232 -0.3598456 -0.023376726
0001c0 61 60 b5 3d 0c ee 01 be bc 68 37 3e 8b 0b 23 bb
       0.088562734 -0.12688464 0.17911047 -0.0024878706
0001d0 9d cb 9d 3d 6d 51 94 bf 72 1c cc 3e bb 67 7c 3e
       0.07704852 -1.1587349 0.39865452 0.24648945
0001e0 2c a2 de be 4d 03 07 be 48 8f d8 bd 87 3c 6b be
       -0.43483102 -0.13184853 -0.10574204 -0.22972308
0001f0 6a 49 16 be fc fa a9 3c f4 6e a4 3e b4 a4 f2 bc
       -0.14676443 0.020749561 0.321159 -0.029619552
000200 26 d2 11 3d 0f 42 25 be 12 bc 30 3e e3 ff 8a 3e
       0.035600804 -0.1613848 0.17259243 0.2714835
000210 5c ee f4 3e 4e a3 c8 3d 2d 65 bc bd 7b 0a 5b 3e
       0.47838104 0.09796773 -0.09198985 0.21390717
000220 cf 69 23 3e ed 77 ca 3d 19 c9 e9 3d 81 9e f5 bc
       0.15958332 0.09886155 0.114153095 -0.029982807
000230 72 4e e2 be be f6 33 3f 94 df a4 be f0 92 54 be
       -0.44200474 0.70298374 -0.32201827 -0.20759177
000240 20 74 9c be 0a cc 8e be 32 df 36 3a cb 97 24 be
       -0.30557346 -0.27890044 0.0006976008 -0.1607353
000250 e0 f5 81 3d 61 d0 26 3e 94 24 4d bd 16 ed c4 bd
       0.06345725 0.16290428 -0.05008371 -0.09615533
000260 62 ad 27 3e 37 ba e4 bd 04 21 bb bd 19 22 ad bd
       0.16374734 -0.1116833 -0.091371566 -0.08453769
000270 26 a9 01 3e b7 98 ae 3d 3b 6e 69 3d 9d f7 5f 3e
       0.12662181 0.08525222 0.05698989 0.218718
000280 13 5e a2 3e 3f 24 f8 3d 6f 20 19 bd 83 21 74 bd
       0.31712398 0.121162884 -0.037384447 -0.05960227
000290 9b 0e 31 bd b8 35 82 3d 62 ef 8a 3f 7e fa 39 bd
       -0.04322682 0.06357902 1.0854304 -0.045404904
0002a0 2b c3 c6 be 19 ac 8c bd 79 f0 88 3d 33 b2 e0 3c
       -0.38820776 -0.068687625 0.066864915 0.027428722
0002b0 9e db 4b 3d 7d 06 c5 3d e8 4b dd 3c d9 ff 1a be
       0.04976999 0.09620378 0.027013734 -0.1513666
0002c0 90 b1 74 3e a0 18 8a 3e 1e 2a a9 be 02 b2 7a 3e
       0.2389586 0.26971912 -0.33039945 0.24481967
0002d0 c2 cb 24 bf 80 17 6a bb f7 31 18 bf 4e 32 e2 be
       -0.6437341 -0.0035719573 -0.5945124 -0.44179004
0002e0 2e 95 07 bf 36 07 d2 bd 48 fe 31 bb e7 33 35 bb
       -0.52962005 -0.102552816 -0.002715962 -0.0027649344
0002f0 67 a0 58 bc 04 67 99 3f 9e 50 26 be 43 23 f3 3e
       -0.013221837 1.1984563 -0.1624169 0.4748784
000300 e5 18 00 3f af fd 8b 3e 53 ce 5d 3e 46 95 a5 3d
       0.50037986 0.27341983 0.21660738 0.08085112
000310 1e 55 c0 3d b4 8c a5 3d a4 b6 e7 bd 31 fe 09 be
       0.09391235 0.080834776 -0.11314133 -0.13475873
000320 4e 01 5f bd ec 20 2c 3e c0 15 81 be 6f dd ab 3d
       -0.054444604 0.16809434 -0.25211906 0.083918445
000330 83 07 9b bd f0 77 06 3e ec a7 7c 3e 08 c8 b5 bd
       -0.07569792 0.1313169 0.24673432 -0.088760436
000340 06 1c b9 bd c5 c7 d2 3b 50 da 48 b9 bb ea db 3d
       -0.09038548 0.006432506 -0.00019154814 0.10738131
000350 fd 98 bc 3f d5 65 0a be 29 5b 76 3e 2d 46 08 bc
       1.4734188 -0.13515408 0.24058212 -0.008317512
000360 ea cf 1c be 1f 0a 08 be f2 ae 05 3e f8 35 4e 3c
       -0.15313688 -0.13285111 0.13055018 0.012586109
000370 4d 81 5c 3d 08 14 04 3e b3 af b2 bc aa b3 39 3d
       0.05383425 0.12898266 -0.021812296 0.045337357
000380 56 23 89 be 2f 37 f1 bd 41 99 2c 3d b6 09 1f 3b
       -0.26784772 -0.117781036 0.04213834 0.0024267263
000390 a6 ce 9d be 8e f6 98 bd 6f a0 c5 be 02 34 24 bd
       -0.30821723 -0.074689016 -0.38598964 -0.04008866
0003a0 84 4d 72 bb c2 4d 4c 3d 99 69 6e 3d 8e e1 b9 3f
       -0.0036972472 0.049878843 0.058206175 1.4521959
0003b0 76 3c 6d 3d d1 04 b2 3e 9f 21 a1 3e 0a 38 34 3e
       0.05791899 0.347693 0.31470963 0.17599502
0003c0 44 e4 b9 be a2 6e 02 3e 7d bd 66 3e c8 a4 43 3e
       -0.36306965 0.12737516 0.22533222 0.19105828
0003d0 8b 99 20 3d ad cd 13 3c 91 2e 72 3d 39 7a a0 bd
       0.03920893 0.009021205 0.05912644 -0.07835812
0003e0 af 67 c3 3d 1d 55 f0 3d a7 a3 b9 bd e1 f4 31 3c
       0.095412605 0.11734984 -0.09064417 0.010861606
0003f0 26 ab 22 be f0 40 2b 3f c6 39 f8 3d e1 74 3b be
       -0.158856 0.6689596 0.121203944 -0.18306305

main.0.bias f4 [64]
000000 2f d1 a1 bc 31 9c e3 3d cb 6e f7 3d f1 29 08 3e
       -0.019753067 0.111137755 0.12081679 0.1329725
000010 e3 f7 1f 3e f2 61 26 3e f3 6e 72 bc bc 73 c2 3c
       0.15621905 0.162483 -0.01479696 0.023736827
000020 b0 79 1a 3c 43 e9 aa 3d 6d b3 f8 3b 72 fe 95 3d
       0.009428427 0.083452724 0.0075897486 0.07323922
000030 1a 1f 0b 3c cc 4a 25 bb 43 e2 4b 3e af e2 97 bd
       0.008491302 -0.0025221584 0.19910531 -0.07416283
000040 23 32 ad 3d 7b 40 01 bc 18 49 6f bd 07 b7 39 3d
       0.084568284 -0.0078889085 -0.058419317 0.045340564
000050 61 32 13 3e 23 aa 4e 3e a8 88 f5 3d 50 9f 11 3d
       0.14374687 0.2018209 0.11988956 0.035552323
000060 b3 1a e1 bb 3b c3 c9 bd 48 e6 42 be a4 72 29 be
       -0.006869638 -0.098516904 -0.19033158 -0.16547638
000070 49 00 12 be 11 50 7e 3d 13 a2 9c bd 22 0c e1 3d
       -0.14257921 0.062088076 -0.07648101 0.10988642
000080 d5 59 51 3d 0a 0c c4 bd f2 7c ce 3d c1 ba 30 3e
       0.05111106 -0.09572609 0.10082425 0.17258741
000090 14 00 48 be 48 1a 24 be e0 7d b7 bc 2e dd 14 3e
       -0.1953128 -0.1602565 -0.022398889 0.14537498
0000a0 53 a0 33 bd e1 c8 36 be 42 9c 30 be 93 f4 2a be
       -0.04385407 -0.17850067 -0.17247108 -0.1669486
0000b0 33 b8 ad bd 0f 0a ef bd 32 4b e2 3d b5 5e 58 3e
       -0.08482399 -0.116718404 0.110494986 0.21129878
0000c0 a7 75 59 3d e1 95 f3 3d bb 8e 21 3e a9 e7 eb bd
       0.053090718 0.118938215 0.15777104 -0.11518795
0000d0 01 f3 71 3d 64 41 1e bc ea b8 ce bd 74 d6 08 3e
       0.059069637 -0.009659145 -0.10093863 0.13363057
0000e0 72 eb 48 3e 2f b6 c4 3d 50 37 79 3d 91 7a 19 3e
       0.19621065 0.09605061 0.060843766 0.14988162
0000f0 3b 71 33 3e 26 38 47 3d 77 a0 43 be 71 72 82 3d
       0.17523663 0.04863753 -0.19104181 0.06369484

main.1.weight f4 [64]
000000 7b 6e 05 3f 3f 9d 17 3f de fa 21 3f 19 98 6b 3f
       0.52121705 0.59224313 0.6327342 0.9202896
000010 e3 82 57 3f 07 18 f7 3e 75 03 a1 3e 7b 02 52 3f
       0.8418409 0.4826052 0.3144795 0.82035035
000020 eb 87 5d 3f 31 5f 75 3f d2 78 4e 3f 29 f8 b5 3e
       0.8653552 0.95848376 0.8065311 0.35540894
000030 a8 d3 e2 3e 51 e4 63 3f 6d 44 4f 3f 5e bc fe 3e
       0.44302106 0.8902026 0.80963784 0.49753088
000040 7d 45 be 3e 70 fe b4 3e 57 89 01 3f b9 0f f3 3d
       0.3716239 0.3535037 0.5060019 0.11868233
000050 0f 6c 88 3f 97 3e a3 3e 89 43 bf 3e 50 b8 04 3f
       1.0657977 0.3188369 0.37356213 0.5184374
000060 8e e9 31 3f 09 dc 0e 3f d4 5d 7f 3f a8 26 43 3f
       0.69497 0.55804497 0.99752545 0.7623086
000070 b8 0e 4c 3f e6 c6 9f 3e c0 79 4d 3f 2e cf 55 3f
       0.7970996 0.31206435 0.802639 0.83519256
000080 f5 1a 19 3f 51 dd b4 3e b0 14 d8 3e 73 ae 71 3e
       0.5980676 0.353251 0.42203283 0.23601703
000090 14 43 43 3f 6d ee 3f 3f 9c 6d 6c 3f 45 7b b3 3e
       0.7627423 0.74973184 0.9235475 0.35054985
0000a0 d4 18 21 3e ef 0e 34 3f a4 83 33 3f c6 cd 55 3f
       0.15732127 0.70335287 0.7012274 0.8351711
0000b0 ad 1d 0b 3f 84 6a 10 3f da e4 1d 3f 07 1a 0c 3f
       0.54342157 0.5641253 0.61677325 0.54727215
0000c0 e3 aa 6a 3f 71 02 c3 3e 3c 27 03 3f a0 2e d6 3e
       0.91667 0.380878 0.5123174 0.41832447
0000d0 7d 71 df 3e 14 42 da 3e cf a5 3d 3f 40 9c fd 3e
       0.43641272 0.4262854 0.7408113 0.49533272
0000e0 cc a7 38 3e ad 61 b8 3e 42 35 be 3e 6c 1b 21 3f
       0.1803276 0.3601202 0.37150007 0.6293247
0000f0 41 9d 69 3f eb 49 99 3e ab 56 96 3e 8d d0 43 3f
       0.91255575 0.29939207 0.29362997 0.764901

main.1.bias f4 [64]
000000 44 1b c7 be 97 36 29 bd f8 e6 ef 3d 0a 31 4f be
       -0.3888799 -0.041311827 0.11713976 -0.2023355
000010 84 f7 a3 be fd 89 1a bd 56 c1 e5 bd e0 2e a3 be
       -0.32024777 -0.037729252 -0.112185165 -0.318717
000020 58 cb c8 bd 72 91 04 be cb f0 11 be 65 51 b1 3e
       -0.0980441 -0.12946108 -0.14252011 0.34632412
000030 53 f9 d5 be 06 8b 80 be 3c 80 a1 be ae 8e 38 bb
       -0.41791782 -0.25106066 -0.31543148 -0.0028161216
000040 e9 a2 c2 3c 9b 73 54 3e d1 84 a8 3e b6 97 b1 bd
       0.023759322 0.20747225 0.3291383 -0.08671515
000050 d1 d2 d1 be b3 be af 3e e7 50 ae be 4d 62 43 3e
       -0.40981153 0.3432518 -0.340461 0.19080468
000060 e6 55 04 bf 89 9e c3 be 47 6b c2 be 1c d7 0a bf
       -0.5169357 -0.3820689 -0.3797247 -0.5423448
000070 03 c7 26 bf ae da b6 3e 56 db c8 bd bb c3 18 bf
       -0.6514742 0.35713714 -0.0980746 -0.5967366
000080 26 29 86 be b9 83 9c 3e 8f 77 df 3e f0 27 95 3d
       -0.2620327 0.30569246 0.43645903 0.07283008
000090 d8 94 dd bd e4 49 e3 be 50 79 c4 be 61 05 22 3e
       -0.10819405 -0.44392312 -0.38373804 0.15822364
0000a0 62 cc 3e be bd 21 fe be 5d c8 06 bf 98 67 b6 be
       -0.18632653 -0.49635115 -0.5264948 -0.3562591
0000b0 fb a4 95 bd 00 ee 14 bf e7 6f d6 3c fd 7a ca be
       -0.07306858 -0.5817566 0.026176406 -0.39546958
0000c0 2f 33 d4 be 75 5e 8e 3e af 2b f7 3d 5b fc 32 be
       -0.414453 0.2780644 0.12068879 -0.17479078
0000d0 55 eb 68 3e 3b bc 05 be df 83 d8 bd 42 ad e4 be
       0.22746022 -0.13060085 -0.105720274 -0.44663435
0000e0 7a 9e 6b be 12 50 1c be b9 20 89 3e 7f e9 a2 be
       -0.23009673 -0.1526492 0.26782778 -0.31818768
0000f0 8a 08 e5 be 76 84 58 3e 6d 11 80 3e b2 43 66 be
       -0.44733077 0.2114428 0.25013295 -0.22486761

main.1.running_mean f4 [64]
000000 f6 22 6b 3b 6d 16 34 3e 80 d9 e1 3d 12 f9 3d 3e
       0.0035878993 0.1758668 0.11027813 0.18552044
000010 a0 83 29 3e 01 b0 69 3e 29 2e e8 3c aa 68 92 3d
       0.16554117 0.22821046 0.028342323 0.07148869
000020 e1 80 0a 3d 6e a5 ce 3d 78 24 af 3d 48 75 89 3d
       0.033814315 0.10090147 0.08551878 0.06711823
000030 e2 df 11 bd f6 35 64 3d 6a d8 cc 3d 50 87 55 bd
       -0.035613902 0.055715524 0.10002215 -0.052130997
000040 9e c6 ac 3d 3b 17 45 3d 12 2e eb bc 4b ae 01 3c
       0.08436321 0.048117857 -0.028708491 0.00791509
000050 cd 0f 58 3d ff a0 3d 3e 3b bf eb 3d fe fe d7 3d
       0.052749444 0.18518446 0.11511084 0.10546683
000060 b7 43 75 3d 23 9a 19 be 46 76 58 be 87 21 13 be
       0.05987903 -0.15000205 -0.21138868 -0.14368258
000070 02 7e c9 bc 6c be 54 3d ae d6 c4 bb 3d 98 b9 3d
       -0.024596218 0.051939413 -0.006007037 0.0906224
000080 b3 1b 73 3d 4b 83 cb bd 86 32 cd 3d e6 e9 47 3e
       0.059352588 -0.099371515 0.10019402 0.19522819
000090 47 f9 5d be e5 ec 8c be 46 82 b6 bd 22 ca 4e 3e
       -0.21677123 -0.27524486 -0.089115664 0.20194295
0000a0 bb aa e7 bc df 91 29 bd e0 3a 6c bd 9d 56 0b be
       -0.028279653 -0.04139888 -0.057673335 -0.13607259
0000b0 f2 0f 92 bd 63 42 d9 bd 70 b1 3e 3e bb 95 6d 3e
       -0.071319476 -0.106083654 0.18622375 0.23201649
0000c0 5e 87 91 bd 1c 4a 2a 3e ec 52 74 3e 69 d3 b7 bd
       -0.07105897 0.16629833 0.23859757 -0.0897587
0000d0 d6 1f b6 3d 31 b0 8c bc 09 ef 36 bd c2 dd c3 3d
       0.08892791 -0.017173858 -0.044661555 0.09563781
0000e0 df de 5d 3e b5 bc 8f 3d 8a 4b 83 3d b2 79 ed 3d
       0.2166705 0.07018415 0.06410892 0.11595477
0000f0 b6 55 f8 3c c1 68 95 3d e1 ce 3a be fb 0a 92 3d
       0.030314308 0.07295371 -0.1824298 0.071310006

main.1.running_var f4 [64]
000000 a0 0e b7 3f 78 78 1a 40 33 40 1d 40 04 ac 2b 40
       1.4301338 2.4136028 2.4570434 2.682374
000010 5e c9 b4 3f 39 0f 77 40 9c 9a 01 40 62 2e 31 40
       1.4123952 3.860304 2.0250616 2.768456
000020 e8 48 a7 40 b2 8a 2b 40 0c d1 8f 40 db 85 7f 40
       5.2276497 2.6803403 4.4942684 3.992545
000030 1c 41 13 40 93 c3 64 40 2d 10 5c 40 0d a7 db 3f
       2.300849 3.574437 3.4384873 1.7160355
000040 0f 6f 36 40 2d 4d 33 40 cb f0 88 40 97 6a c6 3f
       2.8505285 2.8015854 4.2793937 1.5501279
000050 8e b5 00 41 65 1f 81 40 31 a9 98 3f 48 aa 1d 40
       8.044325 4.0350823 1.1926633 2.4635181
000060 a2 70 c9 3f 5c c5 e8 3f ba 5b 83 40 7e 9f 77 40
       1.5737498 1.8185229 4.104947 3.8691096
000070 41 83 0c 40 d1 b8 57 40 c1 91 a1 40 ca 12 b3 40
       2.195511 3.3706553 5.049042 5.5960436
000080 dd b4 d3 3f 2a 0d 70 40 45 3a f0 3f d4 06 1b 40
       1.653957 3.7508035 1.8767782 2.4222918
000090 0e cf 5d 40 b4 c4 bf 40 22 6c a8 40 dd 26 21 40
       3.4657626 5.9927616 5.2632 2.517997
0000a0 bc 1a 24 3f 4b 6b 7a 40 b0 7e 5a 40 10 5b cd 3f
       0.64103293 3.9127986 3.4139824 1.6043415
0000b0 73 bc f9 3f 73 59 1a 40 1b 08 f1 3f 9b 83 33 40
       1.9510635 2.4117095 1.8830599 2.8049076
0000c0 29 f7 46 41 b6 3a d0 40 5e 21 78 40 2a 78 7e 3f
       12.435342 6.507167 3.8770366 0.99402106
0000d0 31 74 11 40 6e 23 e5 3f 07 5d 7b 40 0f 85 18 40
       2.2727168 1.7901437 3.927553 2.3831213
0000e0 2b b8 1e 3f 64 91 5d 3f 11 71 e3 3f db d1 2c 40
       0.6199977 0.86549973 1.776888 2.7003086
0000f0 3f 9c 2b 41 7d c0 04 40 c5 bd 33 40 01 ff 04 40
       10.725646 2.0742486 2.8084576 2.0780642

main.4.weight f4 [32, 64]
000000 99 27 dc bd e8 99 90 3d 34 f8 80 bc 28 78 be bd
       -0.1074974 0.07060605 -0.015743352 -0.09300262
000010 c7 eb 6f 3d a2 81 ab be 66 d0 92 bc 71 b2 82 bc
       0.058574464 -0.3349734 -0.017921638 -0.015954228
000020 7a 5f 82 3c 1a cb 6f 3b 11 57 41 3e b7 ae b0 3d
       0.015914667 0.0036589564 0.1888087 0.08627074
000030 40 67 30 3d ff 07 d2 3d 09 17 13 3e 5f f3 17 be
       0.043067217 0.102554314 0.14364256 -0.14838932
000040 a3 a9 8d bc ad 27 d0 3d 88 82 f8 bd 19 34 59 3d
       -0.017292803 0.101638176 -0.12134272 0.0530282
000050 6e 7c 54 3e 12 0e 9a ba ad f3 21 3d 30 80 b0 bd
       0.20750591 -0.0011753461 0.039539028 -0.086182
000060 76 50 82 3d e5 f3 37 3e f4 47 37 3d 4f 96 03 3e
       0.06363003 0.17964132 0.044746354 0.12850307
000070 e5 0d 1d 3e f5 34 cc bd 92 0d 0a bd df a2 2a 3e
       0.15337332 -0.09971038 -0.033704348 0.16663693
000080 05 ef 69 be 84 79 ea 3c bb 95 85 3d d0 86 80 bd
       -0.22845085 0.028622396 0.065226994 -0.062757134
000090 ed 67 11 3c fb 65 fc 3d c4 bc e9 3d 9d c0 0e bd
       0.0088748755 0.12324139 0.11412957 -0.03485166
0000a0 7c 99 55 bd b9 ad 38 3e 5d af 90 3d 38 44 34 3d
       -0.052148327 0.1803502 0.07064698 0.04401037
0000b0 01 47 9e bd ac f3 bd 3c 3c c6 58 3d b0 40 b6 3d
       -0.07728387 0.02318748 0.052923426 0.08899057
0000c0 0d c4 84 3b e8 b9 d4 bd e7 b2 4e 3d 60 05 36 be
       0.0040516914 -0.10387021 0.050463583 -0.17775488
0000d0 bd da 25 3d fd b9 9c bd 3e 9f 6e bc c3 3b 41 3e
       0.04049181 -0.07652662 -0.0145643335 0.18870454
0000e0 fa 2b 0a be 8d 9f 98 bd da ae 79 3b a6 ce 18 be
       -0.13493338 -0.07452307 0.0038098604 -0.1492258
0000f0 6a 53 1e 3e 55 41 23 3e fd 71 be 3d 2d c0 86 3d
       0.15461507 0.15942891 0.09299085 0.06579623
000100 e9 82 ba bc d3 bd 26 be 40 62 16 be 70 cf 08 3d
       -0.022767501 -0.1628335 -0.14685917 0.033400953
000110 eb 92 0b 3d 30 b5 2a 3d a1 82 0d be 78 1a cd bb
       0.03407566 0.0416767 -0.13819362 -0.006259259
000120 1b c4 26 3e 6a 96 92 3e 70 18 cb 3d 19 16 ec bd
       0.16285746 0.28630382 0.099167705 -0.11527652
000130 03 fd 23 3e d2 f4 3e 3e d9 68 a3 3d 9e 7b b4 bc
       0.16014485 0.18648079 0.079789825 -0.022031602
000140 f4 e6 05 be 78 76 a3 bd ef 48 41 3d 80 3f e4 bc
       -0.13076383 -0.079815805 0.047188696 -0.02786231
000150 c6 e7 9b 3e 63 1e 92 bc 1c d5 0a 3e c4 a8 10 be
       0.30450267 -0.017836755 0.13557857 -0.14126879
000160 6e fc 12 bd df 20 d5 bd ba 14 81 3e 85 e5 9e 3e
       -0.035885267 -0.1040666 0.25211126 0.31034485
000170 13 0e 15 3e 2b fb cd bc 1d 73 a3 3d d0 de be 3d
       0.1455615 -0.02514418 0.079809405 0.09319842
000180 d0 5b 39 3d 08 d1 79 bd d5 6c a4 bb 34 11 aa bd
       0.045253575 -0.060990363 -0.0050178566 -0.083040625
000190 d3 41 2c 3d 40 c4 44 3e 62 ad 40 3e 20 4e 42 bd
       0.042054962 0.19215488 0.1881614 -0.047437787
0001a0 f4 d7 d5 3d 67 06 86 3d 82 c6 06 3e 49 a3 4b 3e
       0.104415804 0.0654419 0.13161662 0.19886507
0001b0 91 be c3 bc 19 23 e2 3c db 79 a1 bd 3f 02 e7 bc
       -0.02389458 0.027604626 -0.0788457 -0.028199313
0001c0 42 31 23 3e 2e fe 20 3e a7 7a 6a bd 66 70 da bd
       0.15936759 0.15721962 -0.057245877 -0.106659696
0001d0 ba 18 04 be a0 d5 f6 3d b9 b2 f0 3d 55 a1 a3 3d
       -0.12900057 0.120524645 0.11752839 0.07989756
0001e0 3b 87 c2 bc 98 7d d5 3c 5d a6 46 bd 00 3b 11 3e
       -0.023746124 0.026060864 -0.0484985 0.14182663
0001f0 ab ea 78 3e 5c 76 82 3d 20 b7 15 be 42 02 a2 3d
       0.24308269 0.063702315 -0.14620638 0.07910587
000200 76 3a d8 be ec 24 56 bd 9a 6a 30 3e d2 5b 85 bd
       -0.42232102 -0.052281305 0.17228165 -0.06511654
000210 bd 45 dc 3d 94 02 23 3e b5 b6 a1 bc 8a dd 0d 3d
       0.10755489 0.15918952 -0.019740442 0.034635104
000220 37 93 2a 3e 92 15 0d 3e 18 9c 71 bd b2 74 bd bd
       0.1665772 0.1377776 -0.058986753 -0.092507735
000230 e6 e4 d2 3d 43 da 21 bc 92 c2 b0 3d ca 3f 9e bc
       0.10297565 -0.009878698 0.08630861 -0.019317526
000240 1b 46 a0 bd 18 3d bb 3c b9 ae 75 bc 85 b7 2c 3d
       -0.078258716 0.02285628 -0.01499527 0.042167205
000250 87 a0 72 bc 3c 47 6f bd 21 1b eb 3c 18 69 07 be
       -0.0148087805 -0.058417544 0.02869946 -0.13223684
000260 fa 77 a9 3d c5 54 59 bc 8e 9d 0a 3e 96 2d 15 3e
       0.08274837 -0.01326484 0.13536665 0.14568171
000270 59 65 87 3e b9 7a 17 3e b4 b0 ab 3d dc 22 37 3e
       0.2644451 0.14792909 0.08383313 0.17884392
000280 a0 f8 28 3d ad 2c 42 be 8a b6 c3 3d 34 77 93 3c
       0.041252732 -0.18962355 0.09556301 0.018001176
000290 3c 13 c5 3c 5b 88 b2 3e b7 bf 0e 3e ba 1a 16 3e
       0.024057023 0.34869656 0.13940321 0.14658633
0002a0 ff 71 01 3e ec d1 15 3e 59 65 25 3e f9 d8 fd 3b
       0.12641142 0.1463086 0.16151942 0.0077468124
0002b0 d6 42 d4 3c bc 16 6b 3e 16 e6 94 3c 23 0b 92 3d
       0.025910776 0.22957891 0.01817612 0.071310304
0002c0 57 b7 3a 3c 99 6b 01 bd 4a 77 b0 3c b4 3b b9 bd
       0.011396251 -0.031596754 0.021541256 -0.090445906
0002d0 f7 8c f9 3d d0 3a 9d bd d1 36 11 bc 76 c2 a8 3d
       0.1218509 -0.07677233 -0.008863167 0.082402155
0002e0 7b 8d 21 3e 62 d8 b3 bd 2f d2 fd 3c 89 12 b5 3d
       0.15776627 -0.08781506 0.030984012 0.08841426
0002f0 8e 07 86 3e 56 3f a5 bc 87 9a 94 bd d5 6b ce 3c
       0.2617764 -0.020171802 -0.07256036 0.025197903
000300 23 b1 54 3d ce f3 00 3d 25 ae a8 3d ca c5 2e 3d
       0.051926743 0.03148251 0.082363404 0.042669095
000310 ee e7 5a bd 42 37 0d 3a 32 85 f2 3d a8 93 0f be
       -0.05344384 0.0005386957 0.11841811 -0.1402117
000320 cc c0 35 3d 2d 00 38 be 4b 7b 32 3e 9e 14 c5 3d
       0.04437332 -0.17968817 0.17429845 0.09623073
000330 1d 01 b1 bc f2 52 db 3c a6 03 c1 bd 35 bf 2b bd
       -0.021606976 0.02677295 -0.09424524 -0.041930396
000340 ff a1 29 bc 19 d4 a2 bd 6b 70 53 bd 5c 4b 71 be
       -0.010353564 -0.07950611 -0.051620882 -0.23563904
000350 0a 90 8d 3c eb 75 0d be 5f b7 2e 3b 1f 64 59 bd
       0.017280597 -0.13814513 0.002665959 -0.053074
000360 ef 17 37 be 90 bb 05 bd f8 b2 88 bd b5 85 1b 3e
       -0.17880224 -0.032649577 -0.066747606 0.15187724
000370 0a a7 73 3d a1 7c 00 3d 45 35 79 be ab fa fc bd
       0.059485473 0.031368855 -0.24336727 -0.123524986
000380 e3 fe 27 bd 75 73 4c 3e ed 90 fc bd 89 f7 73 bd
       -0.041014563 0.19965918 -0.1233233 -0.05956224
000390 54 8b 90 3d 7f 74 68 3e 19 32 9f 3d be 4d 37 be
       0.07057825 0.2270069 0.07773227 -0.1790075
0003a0 db 99 92 bd 26 b9 15 3e b3 94 dc bc b5 7d 82 bd
       -0.07158252 0.1462141 -0.026926374 -0.06371633
0003b0 bb 6d cb bd f7 d1 b3 bd df 9d 20 be b6 5d 57 3e
       -0.09933039 -0.08780282 -0.15685223 0.21031842
0003c0 71 ae 39 be 26 74 fe bd 68 86 07 be 05 79 f1 3d
       -0.1813295 -0.12424497 -0.13234866 0.11790661
0003d0 68 dd 91 bd 6c 36 42 bd fb 74 4e be a8 8b 4d be
       -0.07122308 -0.047415182 -0.20161812 -0.20072806
0003e0 bd 2d b0 bc cb ca 27 3e 30 16 9f bd 73 36 9f 3d
       -0.021506185 0.16385953 -0.07767904 0.07774057
0003f0 3f df 08 3e b1 65 db bd 06 1b 90 bd d4 b2 12 3e
       0.13366412 -0.107127555 -0.07036404 0.1432603

main.4.bias f4 [32]
000000 97 15 a2 be e1 c5 05 bf b7 a6 e1 be c0 14 8f 3d
       -0.31657097 -0.52255064 -0.44072506 0.069863796
000010 c1 e4 df 3e 54 f0 ea bc 5e 62 db 3b 3a db 13 3f
       0.43729213 -0.02867905 0.006695076 0.5775639
000020 64 5a 33 3e 06 53 14 3f d5 0c ce be 24 ed b8 3e
       0.1751495 0.57939184 -0.40244165 0.36118424
000030 c4 70 02 3f 09 59 fd be 6e 11 a8 bd 3b 2e 0e bf
       0.50953317 -0.4948199 -0.082064494 -0.5553929
000040 73 ee d2 3e 0c d7 0e bf 31 cc e4 3e d9 ec 86 be
       0.41197547 -0.55796885 0.44687036 -0.26352575
000050 1e 56 1f 3f 7c de 1f 3f ea 78 05 bf b3 ec 50 3e
       0.6224078 0.6244886 -0.52137625 0.20402794
000060 32 13 80 3e 35 31 df 3e c7 d1 21 bf 43 8a 0c 3e
       0.25014645 0.4359223 -0.6321072 0.13724618
000070 36 43 42 3e 46 78 f5 3e 9a ac 12 3f 9c 78 8d 3e
       0.18970951 0.47943324 0.5729462 0.2763108

main.6.weight f4 [1, 32]
000000 e7 d6 9e bb 54 17 cf 3c 40 5c 4c 37 48 4d 59 3c
       -0.0048473957 0.025279678 1.2180826e-05 0.013263054
000010 9c 83 97 ba a5 f9 0e 3d e9 a4 98 bc 90 a7 81 bd
       -0.0011559608 0.03490605 -0.018633323 -0.06330788
000020 5f b3 ca bc 74 66 6a bd 78 db 37 3d 6d 91 41 bd
       -0.024743734 -0.057226613 0.044887036 -0.04725783
000030 bb d6 63 bd eb 1d 42 3d a0 c4 e3 bc 6c 8c f8 3c
       -0.055624705 0.047391813 -0.027803719 0.030340396
000040 db 04 80 bc a5 e6 9a 3c 38 b5 ba 3b dc 98 17 3b
       -0.015627315 0.018908808 0.0056978725 0.0023131883
000050 6a 70 4f bd aa e7 38 bd b0 e9 93 3c f5 73 a2 39
       -0.050644316 -0.045142807 0.018055767 0.00030985443
000060 01 f9 df bd d1 a2 8b bd 6a bb 9c 3d ae dd fc 3b
       -0.109361656 -0.06818164 0.07652934 0.007716856
000070 10 06 b2 3c 81 02 41 bd 5f 2b 3e bd bb 19 a5 bc
       0.021731406 -0.04712153 -0.04642808 -0.02015387
