fl_experiment_20260111_145926/lstm_model.pth (torch, 157045 bytes, 29 tensors)

static_fc.0.weight f4 [32, 5]
00000000: de92 ce3d 52bc 60be ab27 a2bd db75 2abd
00000010: 6ff1 0b3f 42fa 23be b604 82be adaf 56be
00000020: 2f06 14be 7e29 32bd 6d3c 2bbc dc7b 3d3e
00000030: 0a52 0fbf 66fc c73d 2be1 2bbe d13a 8b3d
00000040: 5e48 d03e ac61 c2be 2031 22bd 2c4e abbb
00000050: 5810 833e b95b 0d3e 701f 523c 2a42 82be
00000060: cefd 9bbd bbc7 c83d 0505 003f a5b9 1bbe
00000070: 0a4e 683e 8bc3 eb3d 8ba0 b3bd 5296 99be
00000080: c1f9 103e e090 5dbe edf3 32be 8f14 4dbe
00000090: 501c 20be 5e5c 25be e2cf 15bc 8b88 a13e
000000a0: 0b71 a2bd 528c f53d e9ec a53c e281 90bd
000000b0: 468d e9bd c132 4d3e e675 f9bd 2a4a efbd
000000c0: c2af 0f3d d858 35bd c475 83be 5ee3 563e
000000d0: e666 f0bd be48 963d da62 313e 4cbb c53e
000000e0: 72a3 fabd b83d c43d 3b97 6cbd 521e 8c3d
000000f0: 3aeb 43be e016 013e b686 35be c28c cd3d
00000100: 1d8c 97bd 3d91 1e3e b700 60be 5033 debe
00000110: dbc5 88bd f78b c13c 0b12 25be 6af7 a63d
00000120: 02a3 be3c 9059 aabd 0689 313e ebb8 ebbe
00000130: 6c4c 4a3e 805e 983e fdac 263e bef8 65bd
00000140: 4c15 cabd 3aa8 cfbe c3a3 64be 8a17 d7bd
00000150: d8f1 8f3e ebda cbbe e5bd 393e 76d3 443e
00000160: 6cf2 84be 5918 d5bd 86c7 77be 8ea1 08be
00000170: c0c1 81be d406 72be b0f7 aebd 2fc6 293e
00000180: 097d b4be e952 e9bd 1c7a ac3d 95aa 1d3e
00000190: a47c e5bc bbfd f33d d297 aa3d d2f1 f23e
000001a0: 16d9 bebe d02c 103f dcf6 eebe a390 4cbe
000001b0: cfb2 72be cba9 bbbd 1291 e43c 78b9 6cbd
000001c0: c5d7 81bd 177a 633e 6312 533e 3a25 1bbe
000001d0: 666b 5c3d 0fa3 3abe 07d3 a6bc 8120 843e
000001e0: 065d e23c 0eac 26be 2d41 aa3e 7d2f 543e
000001f0: 5e38 3abd b0ca 25bd e17c 9ebd 2c86 633e
00000200: 3612 e4bd 6e36 93bc 3608 95be a292 c53c
00000210: 133c b73e 2830 83be d7ac 18be eb6f 703d
00000220: a328 893e b99e 943e 6981 883d 8f9e 093d
00000230: c475 8cbe 838b 0c3e 7aa7 62be 88a5 4e3e
00000240: c22c a93e 586c 983e 247c 7f3e 943c 7c3d
00000250: 2213 9dbe 26c8 323e ef95 16be 344c fa3e
00000260: bd26 39be a2dc 8f3e de13 c83e 57ab 70bc
00000270: 1027 863e 315c c7bd 5ce8 aa3e c3ba 3cbe
0.100866064 -0.21946838 -0.07917722 -0.041616302 0.54665273 -0.16013435 -0.2539422 -0.20965452
-0.14455484 -0.0434966 -0.010451418 0.1850428 -0.55984557 0.09764938 -0.16785114 0.06798328
0.40680212 -0.37965143 -0.03959763 -0.0052278247 0.25598407 0.1380452 0.012824878 -0.25441104
-0.07616769 0.098037206 0.5000766 -0.15207537 0.2268602 0.11511906 -0.087708555 -0.29997498
0.14157774 -0.21637297 -0.17475863 -0.20027374 -0.156358 -0.16148517 -0.009143801 0.31549487
-0.079317175 0.119896546 0.02025457 -0.07056023 -0.11403899 0.20038892 -0.121806905 -0.116840675
0.035079725 -0.04427418 -0.25675786 0.20985171 -0.11738376 0.07338093 0.17322865 0.3861946
-0.12238206 0.095820844 -0.057761412 0.06841721 -0.191327 0.12606382 -0.1772717 0.10036613
-0.07399771 0.15485092 -0.21875273 -0.43398523 -0.06678363 0.02362631 -0.16120164 0.08152659
0.023271088 -0.08317864 0.17337427 -0.4603952 0.19755715 0.29759598 0.16276927 -0.056145422
-0.09867343 -0.40558034 -0.22328095 -0.105025366 0.281142 -0.3981546 0.18138845 0.19221291
-0.25966203 -0.104050346 -0.24197206 -0.13342878 -0.25343132 -0.23635417 -0.085433364 0.16579507
-0.35251644 -0.11392767 0.08421728 0.15397103 -0.028013535 0.119136296 0.08329739 0.4745012
-0.37274998 0.5631838 -0.46672714 -0.1997705 -0.23701023 -0.09163245 0.027901206 -0.057794064
-0.06339983 0.22214542 0.20612483 -0.1515092 0.05381336 -0.18226264 -0.020364298 0.2580605
0.027632248 -0.16276571 0.3325285 0.2072124 -0.045463912 -0.0404765 -0.077386625 0.22219151
-0.11136286 -0.01797029 -0.29107827 0.024117772 0.3578802 -0.25622678 -0.14909683 0.058700483
0.26788816 0.29027346 0.06665308 0.03359848 -0.27433598 0.13725094 -0.221342 0.20180333
0.3304196 0.2977016 0.249497 0.06158121 -0.3067866 0.17459163 -0.14705633 0.48886263
-0.18081184 0.28098017 0.39077657 -0.014689288 0.26201677 -0.09734381 0.333804 -0.18430619

static_fc.0.bias f4 [32]
00000000: 8c7a f3bb 06da 023c 1e26 fe3b e6f8 fcbc
00000010: 9342 de3b 00ac 16bd 386e 323c 9e4a ceba
00000020: a9a9 313c 5901 b7bb ece3 d33c c678 69bc
00000030: 276c 6a3c 000e 003c 1d97 aabb 0551 673b
00000040: 0e37 cb3b ab80 8c3a d1a4 043c 7b82 f7bc
00000050: e6ea 2e3c 7864 ebb9 ea80 943c 32ec 443c
00000060: 8065 94bc d833 9ebc 0e41 603c a94f 8bbb
00000070: 12d0 eeba 6a90 0e3c ace7 13ba 612d 04ba
-0.00743038 0.007986551 0.0077560088 -0.030880403 0.0067828386 -0.036785126 0.010890536 -0.001573879
0.010843673 -0.0055848775 0.025865518 -0.014249986 0.014308012 0.007815838 -0.0052060024 0.0035296094
0.0062016314 0.0010719498 0.008095936 -0.030213585 0.010676121 -0.00044897548 0.018127877 0.012019204
-0.018114805 -0.01931183 0.013687385 -0.0042514396 -0.0018219969 0.008701423 -0.0005642127 -0.00050421624

static_fc.1.weight f4 [32]
00000000: 49aa 7c3f ef38 803f 9cb1 7f3f 8089 763f
00000010: fccd 803f 8272 763f aa30 803f 002f 7d3f
00000020: e5ea 803f 4634 7d3f 6f79 823f a93d 7b3f
00000030: 5947 803f 980b 7e3f 3898 7d3f b091 7f3f
00000040: 8f88 7f3f 6143 7e3f 8388 803f f49c 773f
00000050: efda 803f 85ac 7d3f 501c 803f 80ef 803f
00000060: 3cfb 783f ac7b 793f aa72 803f 4d21 7e3f
00000070: 1470 7d3f e8af 813f a441 7e3f a977 7e3f
0.98697335 1.0017375 0.99880385 0.9630356 1.0062861 0.96268475 1.0014851 0.9889984
1.0071684 0.9890789 1.0193309 0.9814096 1.0021774 0.9923644 0.9906039 0.99831676
0.99817747 0.9932156 1.004166 0.96723866 1.0066813 0.9909137 1.000864 1.007309
0.97258353 0.97454333 1.0034993 0.9926956 0.9899914 1.0131807 0.9931891 0.99401337

static_fc.1.bias f4 [32]
00000000: 5ace 44bc 93bb 973b ded5 533b bc55 0bbd
00000010: 86c9 a03a 7ac2 21bd a3bd b23b c580 9bbb
00000020: 0646 013c 9d6b 16bc f220 b73c 86d9 8ebc
00000030: 6dea 163c c2e2 2d3b b097 debb 2329 4eba
00000040: bb25 7a3b d030 a3ba 9570 f13b 4e51 11bd
00000050: ab42 d23b 6477 c1bb 37ea 7e3c 4ebc 273c
00000060: c7f1 b0bc 939e c5bc 9bf3 213c 8faf cdbb
00000070: 7fc0 bdbb 2a4a 973b ca70 94bb e93b d7bb
-0.012012089 0.004630515 0.003232352 -0.03401731 0.001226709 -0.039492108 0.0054547354 -0.004745575
0.00789023 -0.00918093 0.022354577 -0.017437708 0.009211165 0.0026532863 -0.006792985 -0.0007864406
0.0038169462 -0.001245046 0.007368157 -0.03547793 0.006416639 -0.005904125 0.015558771 0.010237766
-0.021599663 -0.024123466 0.00988474 -0.0062770317 -0.0057907696 0.0046169953 -0.004530047 -0.006568421

lstm.weight_ih_l0 f4 [128, 3]
00000000: 0bd1 fb3d 7d3b e4bd 460e b33b 7212 01be
00000010: 530b 5d3e 87d9 35be 8168 7ebd 58de 513e
00000020: 3e80 813d 0953 d8bc 9216 0abd 86f8 adbd
00000030: ddb5 30be 4ce5 0c3e 9a74 30be fb43 023e
00000040: 83f9 69be 6f75 c13c b1c9 d03d 3553 16be
00000050: 71bb 103e 3533 173e 7cf5 4a3e 41dc 6fbb
00000060: 1158 f7bd 2843 463e 7904 333d 724a 613e
00000070: 40d4 b83c 528e e0bd cde0 14be 318f 983d
00000080: 2e08 58be af35 d2bd a6bc c53d ee09 0cbe
00000090: 5dc5 59be 78ea 2c3d e26f 33be 766b 0cbe
000000a0: 9454 543e f161 d33b 79ec 103e d908 ec3c
000000b0: 0afa efbd ea40 4b3e 8409 0c3e d6ab 5ebe
000000c0: 71bf 24be e8ed 4fbc 5e52 3fbd 4779 ac3d
000000d0: c519 9e3c ce8b 3b3e f0cc 1d3c 80b0 5d3d
000000e0: 0d96 1f3e 9c2d ac3d 022b 12be d8ee 4d3e
000000f0: 7843 f2bd 1ce5 12bd 1067 833d c8a2 6abd
00000100: 1673 373e 5422 b9bd 9d6d 88bd 0a61 e6bd
00000110: 69a5 013e 3242 313e b330 483e caa4 2d3d
00000120: 4978 74bd 0fc6 b4bc 54fc f2bd 83c1 c7bc
00000130: d26a 453e 5342 f9bc feb3 fabc 155b ed3c
00000140: 9dfb 403e 35ed 0a3e 6d99 36be 046a 223d
00000150: 77ca 1cbe 3fb7 56be b88a 1abe 11be d7bd
00000160: 1f11 1fbe c2a2 83bd 05b3 4a3d d98a 373e
00000170: d20d 5d3e 939c 1abe a032 b0bc 6b3b 5d3e
00000180: d010 0abe c47d 263e e250 683e d966 3f3e
00000190: 4e75 103e d83d b83b 7870 1f3e 6362 8f3d
000001a0: 8725 cd3d 73ab 47bd 955e 57be e8cd ffbd
000001b0: 0b06 febc 713d fabc 80eb 663d 94e9 cbbd
000001c0: b4ae 1a3e 673e adbc 02ef f1bd 40d7 283c
000001d0: 89f7 5bbe 120a acbd 1ed9 ff3d 335e cbbc
000001e0: 43de f33d 56c6 99bd 9a05 fa3c 3d8a 893d
000001f0: 089a 033e 8f36 de3c 6fed e3bd 570b babd
00000200: d6d3 32bb 8be0 2ebe cec5 67be ff04 6c3d
00000210: 01e4 5c3d a378 583d 3c16 56bd 6fa9 03be
00000220: 42d1 a93c 1285 49be 243c 983d 1e13 50be
00000230: 5fc8 0cbe 0915 d5bd 8393 10be 5412 ef3d
00000240: c1e0 92bd 2087 16be d81a b83d 6680 01bd
00000250: d6c2 323e 788c 233e b91b 46be f620 493e
00000260: ecfb 06be 5348 dcbd fbfe 04be fa4e 7c3d
00000270: 0842 a43d d16b 1c3e 19be 5d3e b72c c5bd
00000280: 080f d83c 9b4d 953d e639 03bb 68fc 97bc
00000290: a5e6 3a3d f257 06bd 5024 08be 1ad2 c63d
000002a0: 7e7e ee3d 593a 26be 7316 623d a767 853c
000002b0: aeb6 22be 5cd7 06be 4f7b 1b3e 8b32 fb3d
000002c0: 16e7 aa3d 9c7d 16be 73bd 22be c5d3 57be
000002d0: 4a9f 813d 17b5 293e 16f2 073c f164 bdbd
000002e0: 1922 64bc 82f7 46be 1b58 1f3e 4ead 1dbe
000002f0: 3502 143e 07e9 16be c9e2 023e de19 5a3e
00000300: a445 603c 864b 153e b507 74be 2348 64be
00000310: 88df 8dbc b895 2c3d 244b 78be cc7a 1e3e
00000320: e87d 88bc be84 edbd 26a1 2e3e c8f8 613e
00000330: 611e 5e3e 7fe0 40be 43e9 12be 9663 56bd
00000340: 3201 533e 7116 893d 995a 09bd 0a51 243e
00000350: ec6e 3c3e e790 bd3d 69df 3abe 392e bc3c
00000360: 3b04 53be 7369 16be f84e bf3c d4e7 563e
00000370: b84e c9bd 685d 36bc a09c 32be b837 333e
00000380: 5f48 b9bd aceb 433e a807 813d 30d6 5cbe
00000390: a0ab d63d c814 5d3d d174 733d 2e98 20be
000003a0: c644 7a3c 2a11 953d 3c76 29be 45e2 14bc
000003b0: c2c4 183e 7a04 6abe 6b52 533e 3118 37bd
000003c0: 99e5 d5bd 83a3 28be 4ccc a23d a7fa c8bd
000003d0: 46a2 cbbd b807 943d 139a fbbd ccc8 293e
000003e0: 80f5 32be fc81 81be 737d 063e 8248 943d
000003f0: 6b02 50be 5ba9 353d 8abf 513e 262e 57be
0.12295731 -0.11144159 0.005464348 -0.12604693 0.21586351 -0.17758761 -0.06211138 0.20494974
0.063232884 -0.026406782 -0.03371293 -0.08494668 -0.17256875 0.13759345 -0.1723198 0.12721245
-0.22849087 0.023615567 0.101947196 -0.14680178 0.14134003 0.14765628 0.19820207 -0.0036599787
-0.12077344 0.19361556 0.043705437 0.22001055 0.022562146 -0.109646454 -0.1453888 0.074491866
-0.2109687 -0.102641456 0.096551225 -0.13675663 -0.21266694 0.042215794 -0.17523149 -0.13712868
0.20735389 0.0064508845 0.14152707 0.028812813 -0.11717613 0.19848981 0.13675505 -0.21745238
-0.16088654 -0.012690999 -0.04670941 0.08421569 0.019299397 0.1831505 0.00963138 0.0541234
0.15584584 0.08407137 -0.14274219 0.20110643 -0.11829275 -0.035863027 0.06416142 -0.057284147
0.17914996 -0.09039751 -0.06661532 -0.112489775 0.12660755 0.17310408 0.19549827 0.042393483
-0.059685025 -0.022067098 -0.11864534 -0.024384266 0.1927903 -0.030427134 -0.030603405 0.028974095
0.18845983 0.1356705 -0.17831965 0.039651886 -0.15311609 -0.2096834 -0.1509198 -0.10534299
-0.15533875 -0.06427528 0.049487133 0.1792406 0.21587303 -0.15098791 -0.021508515 0.21604697
-0.13482976 0.16258913 0.22687104 0.18691577 0.14107248 0.0056226067 0.15570247 0.07001188
0.100169234 -0.04874749 -0.21032174 -0.124904454 -0.03100874 -0.030546876 0.056376934 -0.09956661
0.15105706 -0.02114792 -0.11813165 0.010305226 -0.21481146 -0.08400358 0.12492584 -0.024825191
0.119076274 -0.07508533 0.03052025 0.0671582 0.12851727 0.027125625 -0.11129271 -0.09084194
-0.0027286909 -0.17077844 -0.2263405 0.057621952 0.05392838 0.052849423 -0.052267298 -0.12857603
0.020729665 -0.19679669 0.07433346 -0.20319793 -0.1374831 -0.10404403 -0.14118771 0.11673418
-0.07171775 -0.14699984 0.08989495 -0.03161659 0.17457137 0.15971553 -0.19346513 0.1964148
-0.13182038 -0.10755982 -0.12987892 0.061598755 0.08020407 0.15275504 0.21654548 -0.09627669
0.026374355 0.07290193 -0.0020023524 -0.018552974 0.045630116 -0.032798715 -0.13295102 0.097080424
0.1164522 -0.16233195 0.05519719 0.016284777 -0.1589 -0.1316809 0.15183757 0.122655
0.083448574 -0.14696354 -0.15892582 -0.21076877 0.0632921 0.16572987 0.008297464 -0.09247769
-0.013924145 -0.19430354 0.15560953 -0.15398142 0.14453967 -0.1473733 0.12781824 0.2129893
0.013688479 0.14579591 -0.23831065 -0.22293143 -0.017318502 0.04213497 -0.24247414 0.15476531
-0.0166616 -0.11597584 0.17053661 0.22067559 0.21691276 -0.18835638 -0.14346795 -0.052341066
0.20605925 0.066937335 -0.033533666 0.16046539 0.18401688 0.092561536 -0.18249287 0.02297126
-0.20607083 -0.14688663 0.023353085 0.20986873 -0.098294675 -0.011130668 -0.1744256 0.17501724
-0.09047007 0.1913287 0.063002884 -0.21566081 0.104819536 0.053974897 0.059437577 -0.15683052
0.015275186 0.072786644 -0.16549009 -0.00908715 0.14918807 -0.2285327 0.20636909 -0.044700805
-0.10444183 -0.16468625 0.07949123 -0.09813433 -0.099430606 0.07228035 -0.12285247 0.16580504
-0.17476463 -0.25294483 0.13133793 0.07240392 -0.20313422 0.044350963 0.20483223 -0.21013698

lstm.weight_hh_l0 f4 [128, 32]
00000000: 1dc0 c43d f91e d7bc 1973 ee3d a105 df3d
00000010: 28e2 293e 080a 33bd c6ad 373e 4de9 ef3d
00000020: 2ddc 2d3e 32f9 0fbe c815 2cbe db37 b23d
00000030: 322c 0abe 0302 39be 6e66 35bc 35f3 4b3e
00000040: c7d2 283e c34b 93bb 08cd fe3d 5e68 eb3d
00000050: e08b 283e 7781 2d3e ed05 dd3d 1402 49be
00000060: 3a98 14be 1e7a 2cbe 4db1 c3bd 1ef2 bebd
00000070: de30 1c3e f68e 333e 33d4 9e3d bef4 e9bd
00000080: bf7a 2a3e 1595 e8bd 4f08 32be c81e fe3d
00000090: 0fd8 ea3d 9db7 a0bd 3eb2 173e bb5d e0bd
000000a0: 38b8 eabd 6f3a 07be 8a07 f93d 656b a73d
000000b0: 5277 5e3e 10b0 d63d 14f9 eb3c 58c9 303e
000000c0: 4ca4 1bbe a5c9 1c3d 3cc5 2fbe 9079 263d
000000d0: 35a9 3bbe 2153 43be e1da 063e 3942 76bc
000000e0: eec8 64bc f0d2 473d 2ead 86bd f049 45be
000000f0: b229 cfbd ca84 0c3e 708a 44bd 871b 16be
00000100: 0393 d5bc cb55 273e cbbe c83d 97a3 01be
00000110: 3df3 f03d 6503 7c3d 99e8 cfbd aa97 afbd
00000120: 8238 273e 91a9 d0bd 307c 18be 588d 1e3e
00000130: af27 353e 5c17 18bd c89e e93d 7e8c d0bb
00000140: 37b2 e23d 45a7 063d 2efe cdbc 231e e6bd
00000150: 2b15 143e 221f 3ebe 760d bf3d ecdf 26be
00000160: 7840 18be 0583 f43d e35a 11be 9770 1ebe
00000170: 04e4 373e b973 9bbd 1a81 51bd ec04 163e
00000180: 4e65 c2bd 1c0f 0a3d 0a99 07be a8b0 db3c
00000190: 506f c43d 3eac 753d ce74 05be 5b2b 343e
000001a0: df4b e43d 4fad 0c3e 846f c03d 7d13 17be
000001b0: 66a9 153e ea51 15be e02a 20be 9903 42be
000001c0: 7109 a53d 04da 3b3e 1f0c 1b3d 5079 a63d
000001d0: 4673 1fbe 60ff 2dbd 0244 9ebc 22ad b73c
000001e0: 6aab 1b3e 4a3c 0c3e c521 363d ae6d 293e
000001f0: 3602 b2bd af2a fb3d 8bf3 933d 7e2f cbbd
00000200: 4798 593d d078 d8bc 3c15 d63d 4935 2f3e
00000210: 2f79 f3bd b8e6 c23d 9d68 b63d 9adc 95bd
00000220: 5d4a df3c 8676 293e 4ab2 05be 1907 62bd
00000230: ac72 c0ba 001d 863d 8259 c43d a3c1 683c
00000240: f19b 6bbd e880 093d 5fdf e5bd cdda 49be
00000250: 9e3e c73d 93cd 38be ecb8 5d3d 262d 5fbd
00000260: 77f1 31be 5c1f 29bd 0642 0e3e df98 b3bd
00000270: 8a91 083e 7cbd 8ebd eeb5 40be 1fc5 ea3d
00000280: b287 2e3e 63de c13d fe11 78bc dc3e 393d
00000290: 2dab 403e f557 a93d 6d0b d9bd 22fd c4bd
000002a0: 0f64 103e 6250 983c 911d 473e 026d 073d
000002b0: 6915 c43d 5a35 c23c 71c9 1b3e e1b5 f53d
000002c0: af96 d33c 6a4e 24bd 3e55 5dbc 382c 8e3c
000002d0: 496f 2e3d a8e8 563e 16ce 363e c08f c8bd
000002e0: 1730 873d cc5f 723d 9c72 393e 3fcf cb3c
000002f0: ca47 4f3b 42bd a73d 906e 903d 9362 223d
00000300: 5edc 243e 0e75 953d a9fd 4e3c c83c 3d3e
00000310: 609b 97bd a725 35be 08f1 b2bd 451e 823d
00000320: a153 47bd bc3b 2bbd d8d9 9d3d 3d26 dfbd
00000330: 1823 493e 14c8 11be 717a 08be cb82 39be
00000340: a8a3 bd3d c8a7 303e 39f9 2dbd b237 c73d
00000350: 8a1c 8abd 6f6a 44be 5c25 7abd 79e6 44bc
00000360: 8df7 083e 51e6 183e 172a e3bc dd59 183e
00000370: 48ee 1fbe 877a 9dbc b0c9 39be d1c5 233e
00000380: 7571 1e3e 7b3f 32be 317c 343d 7279 6bbc
00000390: a440 133e b17c fb3d 0cec 93bd b65e de39
000003a0: de5e 18be e45d 0dba 09fe 3cbe e63a 1cbd
000003b0: 802f dd3d d2e8 1dbe 1ddd 993d 4dc2 99bd
000003c0: 0e20 573d 1c8f e2bd 3e68 c9bd 4489 d63d
000003d0: 25db c4bd b228 8f3d 0d4d e93d ceb9 1f3d
000003e0: 395d 53be 0497 7c3d 9cf2 863d bf6e 44be
000003f0: de55 c93d bdc3 2d3e 7ce2 f8bc 3e57 033e
0.09606955 -0.026259886 0.11643047 0.108897455 0.16590178 -0.04371074 0.17937383 0.117144205
0.16978522 -0.14059904 -0.16805184 0.0870206 -0.13493422 -0.18067174 -0.011071784 0.19916995
0.16486655 -0.0044951155 0.1244145 0.11494516 0.16459608 0.16943918 0.10792146 -0.19629699
-0.14511195 -0.16843459 -0.09555302 -0.09323524 0.15253016 0.17535004 0.077553175 -0.11423634
0.16648386 -0.1135656 -0.17385982 0.12408215 0.11466991 -0.078475215 0.14814088 -0.10955378
-0.11460918 -0.13205884 0.12159641 0.08174781 0.21725205 0.104828 0.028805293 0.17264307
-0.15199393 0.03827824 -0.17165083 0.040643275 -0.18326266 -0.1907468 0.13169433 -0.015030437
-0.013963921 0.04878515 -0.06576 -0.19266486 -0.101153746 0.1372253 -0.047983587 -0.14658938
-0.026071077 0.16341321 0.09802016 -0.12660061 0.11765144 0.061526675 -0.10151786 -0.085738495
0.1633015 -0.10188592 -0.14891124 0.15483606 0.1769092 -0.037131652 0.11407238 -0.006364404
0.11069148 0.032874364 -0.025145616 -0.11236217 0.144612 -0.18566564 0.09328739 -0.16296357
-0.14868343 0.119390525 -0.14194827 -0.15472637 0.17958075 -0.07590432 -0.05114851 0.14650315
-0.094919786 0.033705816 -0.13241974 0.026817635 0.09591544 0.059978716 -0.13032839 0.17594664
0.11147284 0.13737987 0.0939627 -0.14753528 0.14615402 -0.14582029 -0.15641356 -0.18946685
0.080584414 0.18344885 0.037853356 0.08128607 -0.15571317 -0.042479873 -0.019319538 0.022421423
0.15202108 0.13694873 0.0444658 0.16545746 -0.08691828 0.122640006 0.072241865 -0.09921168
0.05312374 -0.026424795 0.10453269 0.1711017 -0.11888348 0.09516662 0.08906672 -0.07317467
0.027257139 0.1654912 -0.13056293 -0.05518255 -0.0014682612 0.065485 0.09587385 0.014206323
-0.057521764 0.0335702 -0.11224245 -0.19712372 0.0972874 -0.1804717 0.054131433 -0.054486416
-0.17377268 -0.041289672 0.13892373 -0.08769392 0.13336769 -0.06969735 -0.188194 0.11463379
0.17043951 0.09466245 -0.015141008 0.045225963 0.18815298 0.082687296 -0.105978824 -0.09618594
0.1410067 0.018593017 0.19444872 0.033062942 0.09574396 0.02370708 0.15213563 0.11997581
0.025828687 -0.040113844 -0.013509093 0.01735507 0.0425866 0.20987189 0.17852053 -0.09793043
0.06600969 0.05917339 0.18110126 0.024879096 0.0031628483 0.08190395 0.07052338 0.03964479
0.16099688 0.07297717 0.0126337195 0.18480217 -0.07402682 -0.17690144 -0.08737379 0.0635343
-0.04866374 -0.041805014 0.07707566 -0.10895965 0.19642293 -0.1423648 -0.13327958 -0.181163
0.092597306 0.17251503 -0.042474005 0.0972742 -0.06743725 -0.19181226 -0.061070785 -0.01201784
0.13375683 0.14931609 -0.027730031 0.1487803 -0.15618241 -0.019223465 -0.18143344 0.1599343
0.15472968 -0.17407028 0.04406375 -0.014372217 0.14380127 0.122796424 -0.07222757 0.00042413705
-0.14879939 -0.0005392714 -0.18456282 -0.038142107 0.108000755 -0.15420845 0.07512877 -0.07507763
0.052520804 -0.11062452 -0.09834336 0.104754 -0.09612111 0.06990184 0.113916494 0.038995557
-0.2064103 0.061667457 0.06589243 -0.19182871 0.09830831 0.169692 -0.030381434 0.12826249

lstm.bias_ih_l0 f4 [128]
00000000: 0a02 e33a 303a 953c 62af a33d 36f8 083d
00000010: 8d29 2c3d b593 443c 84eb c73b b9da 6e3d
00000020: 92e1 423d c0b9 8c3d 02e8 6c3d dc90 a83d
00000030: 16ce 133d e38d a33d 3626 7e3d d71a 203d
00000040: ec6e 2d3d 79c0 ee3c 81be da3c 8daf 9c3d
00000050: 1ced 9b3d 628b e33c 713b 3e3d 223b 9c3d
00000060: 3839 983c 1e04 973d 5923 c73b 5b41 6c3d
00000070: 41b1 503d 8e8a b83d b572 723d 2852 303d
00000080: bfd2 b53b b158 c53c d925 a53d 5735 153d
00000090: 938f 3f3d dc6c c93b cf22 4c3c 85dd 563d
000000a0: b9f2 363d d7d0 923d c657 883d 9d78 ab3d
000000b0: 4fbd be3c 6781 a73d 09f8 843d 1cd3 023d
000000c0: 8879 233d 6d28 a03c 2925 d63c fa3f 9f3d
000000d0: eb99 a13d d99c c43c 6522 0d3d a257 9d3d
000000e0: d8a7 ae3c 4bdc 9c3d ddd7 5c3a 596d 803d
000000f0: da0a 4f3d e570 b93d 8a52 803d 1699 2d3d
00000100: b56e 29bc f1ad 1bbd 24b3 293d d54d e23c
00000110: 4490 37bc 3864 50bd f115 073c aa29 dabc
00000120: f6af b83c b296 2dbd f914 123d c9c3 39bd
00000130: 793d 793d 35e7 313d 7272 c43c b861 fa3c
00000140: 2602 603c 715b 42bd 1766 de3c 0248 133d
00000150: 864b 383d 95b0 9f3c cdf0 833d d896 25bd
00000160: 6fbf ed3a bc41 2cbd f0bc 4dbd c945 f23c
00000170: 9769 a2bc 0b2b 30bd 33f1 c93c 57a5 3d3d
00000180: 4478 703b 7775 a63c 782b a33d af76 033d
00000190: 1445 283d 4edc 603c 5e19 c93b e925 533d
000001a0: 34e2 323d 79c6 873d 8e99 643d 09b1 a33d
000001b0: 2860 173d d0b8 a23d 896b 803d e285 173d
000001c0: c840 1d3d 7aa5 de3c 5453 ba3c a186 9a3d
000001d0: d77a 9d3d 7075 e93c d886 463d 4f25 983d
000001e0: 694a 923c bb0f 943d 1bb9 963b 5afd 6c3d
000001f0: 13da 4b3d e407 ad3d 2ac3 773d 398c 393d
0.0017319333 0.018216223 0.07992436 0.033439837 0.042031813 0.011998107 0.0061010737 0.05831406
0.047578402 0.068713665 0.057838447 0.08230755 0.03608521 0.07986047 0.06204816 0.039088096
0.04234211 0.029144512 0.026702167 0.07650671 0.076135844 0.027776424 0.046443406 0.07628466
0.018581972 0.07373832 0.006077212 0.057679515 0.050950292 0.09010802 0.059191424 0.0430471
0.0055488045 0.024090143 0.080638595 0.036427822 0.046767782 0.0061470103 0.012459471 0.05245735
0.044665072 0.07168739 0.066573665 0.083726145 0.023283629 0.081789784 0.064926215 0.03193961
0.039910823 0.019550527 0.026140766 0.077758744 0.07890686 0.024000572 0.03445663 0.0768273
0.021320269 0.07659205 0.00084245 0.062708564 0.05054746 0.09054736 0.06265743 0.042382322
-0.010341336 -0.03800768 0.041430607 0.027625004 -0.011203829 -0.050876826 0.008244977 -0.026631195
0.022544842 -0.042380042 0.035664532 -0.04535273 0.06084964 0.043433387 0.023980353 0.030564174
0.013672387 -0.047450487 0.02714829 0.035957344 0.0449939 0.01949338 0.064424135 -0.04042706
0.0018138717 -0.042054877 -0.050229013 0.029574292 -0.01982574 -0.0430098 0.024651146 0.04630026
0.0036692778 0.020319683 0.079672754 0.032095607 0.041081503 0.0137244 0.006137057 0.051549826
0.043672755 0.066296525 0.055810504 0.07992751 0.036956936 0.079454064 0.06270511 0.036992915
0.03839186 0.027178515 0.022744812 0.0754521 0.076894455 0.028498381 0.04846844 0.07428991
0.017857747 0.07229563 0.004599703 0.057858802 0.04976852 0.08448771 0.060488857 0.045299742

lstm.bias_hh_l0 f4 [128]
00000000: 1002 e33a 313a 953c 62af a33d 36f8 083d
00000010: 8d29 2c3d b193 443c 85eb c73b bbda 6e3d
00000020: 92e1 423d c0b9 8c3d fee7 6c3d dd90 a83d
00000030: 16ce 133d e08d a33d 3426 7e3d d71a 203d
00000040: ef6e 2d3d 79c0 ee3c 81be da3c 8daf 9c3d
00000050: 1eed 9b3d 628b e33c 713b 3e3d 213b 9c3d
00000060: 3939 983c 1b04 973d 5923 c73b 5b41 6c3d
00000070: 41b1 503d 8e8a b83d b572 723d 2852 303d
00000080: c4d2 b53b af58 c53c db25 a53d 5635 153d
00000090: 938f 3f3d e16c c93b ce22 4c3c 85dd 563d
000000a0: b9f2 363d d7d0 923d c757 883d 9d78 ab3d
000000b0: 4fbd be3c 6781 a73d 09f8 843d 1cd3 023d
000000c0: 8879 233d 6b28 a03c 2925 d63c fa3f 9f3d
000000d0: eb99 a13d d99c c43c 6522 0d3d a257 9d3d
000000e0: dda7 ae3c 4bdc 9c3d c6d7 5c3a 566d 803d
000000f0: da0a 4f3d e870 b93d 8c52 803d 1899 2d3d
00000100: b56e 29bc f2ad 1bbd 2ab3 293d d54d e23c
00000110: 4490 37bc 3864 50bd f215 073c a929 dabc
00000120: f6af b83c b696 2dbd fa14 123d cac3 39bd
00000130: 793d 793d 30e7 313d 6f72 c43c b861 fa3c
00000140: 2602 603c 715b 42bd 1a66 de3c 0248 133d
00000150: 864b 383d 96b0 9f3c cdf0 833d da96 25bd
00000160: 61bf ed3a bc41 2cbd f0bc 4dbd cb45 f23c
00000170: 9669 a2bc 0b2b 30bd 33f1 c93c 57a5 3d3d
00000180: 4878 703b 7775 a63c 792b a33d af76 033d
00000190: 1445 283d 4edc 603c 6119 c93b e925 533d
000001a0: 34e2 323d 79c6 873d 8e99 643d 09b1 a33d
000001b0: 2860 173d d2b8 a23d 896b 803d e485 173d
000001c0: c840 1d3d 78a5 de3c 5453 ba3c a186 9a3d
000001d0: d87a 9d3d 6f75 e93c d886 463d 4f25 983d
000001e0: 694a 923c bb0f 943d 17b9 963b 5afd 6c3d
000001f0: 12da 4b3d e407 ad3d 2ac3 773d 398c 393d
0.001731934 0.018216224 0.07992436 0.033439837 0.042031813 0.011998103 0.006101074 0.058314066
0.047578402 0.068713665 0.057838432 0.082307555 0.03608521 0.07986045 0.062048152 0.039088096
0.042342123 0.029144512 0.026702167 0.07650671 0.07613586 0.027776424 0.046443406 0.076284654
0.018581973 0.0737383 0.006077212 0.057679515 0.050950292 0.09010802 0.059191424 0.0430471
0.005548807 0.02409014 0.08063861 0.03642782 0.046767782 0.0061470126 0.01245947 0.05245735
0.044665072 0.07168739 0.06657367 0.083726145 0.023283629 0.081789784 0.064926215 0.03193961
0.039910823 0.019550523 0.026140766 0.077758744 0.07890686 0.024000572 0.03445663 0.0768273
0.021320278 0.07659205 0.0008424487 0.06270854 0.05054746 0.09054738 0.062657446 0.04238233
-0.010341336 -0.038007684 0.04143063 0.027625004 -0.011203829 -0.050876826 0.008244978 -0.026631193
0.022544842 -0.042380057 0.035664536 -0.045352735 0.06084964 0.04343337 0.023980347 0.030564174
0.013672387 -0.047450487 0.027148295 0.035957344 0.0449939 0.019493382 0.064424135 -0.040427066
0.00181387 -0.042054877 -0.050229013 0.029574296 -0.019825738 -0.0430098 0.024651146 0.04630026
0.0036692787 0.020319683 0.07967276 0.032095607 0.041081503 0.0137244 0.0061370586 0.051549826
0.043672755 0.066296525 0.055810504 0.07992751 0.036956936 0.07945408 0.06270511 0.036992922
0.03839186 0.027178511 0.022744812 0.0754521 0.07689446 0.02849838 0.04846844 0.07428991
0.017857747 0.07229563 0.004599701 0.057858802 0.049768515 0.08448771 0.060488857 0.045299742

lstm.weight_ih_l1 f4 [128, 32]
00000000: b439 a43d b3a5 203e 04e4 92bd be7a 4b3e
00000010: c6c8 d13d b708 4fbb 5315 a5bd 1480 2cbe
00000020: a7b0 ba3d 7f08 163e 0b1e 083e c98f fa3b
00000030: dd0c c53d 911f d83d 698a 1a3d 2c53 173e
00000040: 0f2d 1f3e a660 a43d 10df bc3d 78bd 213e
00000050: c8df a3bc 9631 e23d 9f59 d63c 2707 04be
00000060: 893b ad3d e2b8 f2bd c975 27be c624 983d
00000070: cb7b 16be 402f bf3d 824f 683e 2369 c3bd
00000080: 81ff 163d 8fb9 3fbe 81e2 db3d 90d9 05be
00000090: 993b bebc c9c3 48be 60b9 f03d 4c80 98bd
000000a0: b698 51be 910f 15be d724 05be f21b 39bd
000000b0: f643 003e 457c d3bd 999b d03d 72ed f13c
000000c0: 7320 cabd d994 e9bd c403 35be fc3a 79bd
000000d0: a8d7 0bbe ee32 663d 259e 313e 7eba f63c
000000e0: fa2c f53d b826 b1bd 6db2 c3bd f71d e93c
000000f0: 8950 fc3c 94d7 be39 6d2e 46be fbfc bfbd
00000100: a37b bfbc 478e 81bb b687 023e 27df 4c3e
00000110: 0ab8 fe3d 8b61 a13d 1973 eebc 3c3b 0b3e
00000120: dfa6 203e 6c22 03bd 8a52 7a3d 98f1 233c
00000130: d96a 02bc b833 403e a7b8 2e3e 8b00 0c3d
00000140: ec2b 18be 03ab c93d ce2b 2e3e 0527 7a3d
00000150: 03d7 72bd 0f8e 1ebe 9723 d7bd 6181 063e
00000160: b899 9e3d 0bd2 2c3c cb2b 143e aed3 4c3e
00000170: f0f1 1e3e bce3 833d 2fc6 36be c297 a5bd
00000180: bd3e 233d adb9 ccbd b298 4b3e 069f d73d
00000190: 3fd1 07be 2af4 abbd de81 97bc b349 3c3e
000001a0: 27a5 34be d243 f4bd 6971 fcbc 20d6 783d
000001b0: 6fff 2f3e ce69 0dbe d3a0 163e f065 293d
000001c0: 20ea 323e 8013 01be b221 793c 8168 21bd
000001d0: bed2 da3d 735d 03be 3e52 eb3c 220b b23c
000001e0: 1b18 3d3e 24ad cfbc 5647 c1bc 7827 31be
000001f0: 3980 4d3b 4e31 5abe e7ab 2d3e be52 293e
00000200: d28b 34be 461c cbbd 9cd3 03be 7801 183e
00000210: 8475 e3bd 3ddc 283e 870b 00be 8b68 fd3c
00000220: 6203 d1bc 2521 72be 1251 ba3c 087d fa3d
00000230: 0f83 363e bb9e 313d e47f c5bd 1596 853d
00000240: d0cf 1dbe 0391 9fbb a872 473e 1548 ed3d
00000250: d52e 2e3e 8ca9 a93d 4502 113b 5eb3 f4bc
00000260: b7f8 213e 55d1 40be 5ee2 5fbe c3ce ddbd
00000270: 18ee 4bbe 3f16 5abe d9b4 f6bd e378 553e
00000280: 6571 3c3e d818 2cbe a9ce 293e c875 16be
00000290: ee34 d63c 8236 023d 615a 693d 2b16 48be
000002a0: 44fe 80bd 6209 b7bd e615 c1bd fb54 983d
000002b0: e096 cdbc 0a3a ac3d bea6 f9bd fe12 8bbd
000002c0: d6c3 873c 2cf8 a9bd 5b7a eb3d 72a4 253b
000002d0: eb34 11bd c242 6ebc e89c cbbc 3424 6d3d
000002e0: 584a 30be 9789 03be 5de4 21be 11b8 533d
000002f0: 2c9a 45be ed12 02bd 35ed b1bd ab73 62bd
00000300: 6a7d 1dbe 987e 1bbe fd4a 1bbc 8feb f2bd
00000310: 53d7 5cbd 576b 38be 9e8a 83bc fdb7 24be
00000320: c231 f4bd 9978 12be 6b0f cc3d e043 703c
00000330: bb1b 64bd d28d 22be a0b5 343e c2d5 a93d
00000340: 820d 443e fa9b a63d 3f01 92b9 67c5 a7bd
00000350: db53 bdbd e191 10be 3723 05be 6c3f 37bc
00000360: f4f4 f33d 064f 1bbe e7db 12be 6f85 b53d
00000370: ca5f 8a3d ac97 b4bd 9e0f 993d 4212 373e
00000380: 5089 b6bd 9388 69bc 155b 123e 3a92 973d
00000390: 8f88 f53d 6a94 c53d d4e7 853d 48ef 303e
000003a0: 7dc8 ae3d 641b 0fbe 93c5 21be 7b2b bbbd
000003b0: 244e 373e 762e e63d 7c85 1cbe da93 01be
000003c0: fbda aabd 6ede e1bd 30a5 5bbd e0e9 763d
000003d0: 0665 853d e7aa cc3d 8cae 263e 1b0f 113e
000003e0: d0a1 243d 001f e2bd 139f ce3d 479a e83c
000003f0: 8a15 4b3e e42c b0bd 0512 0c3e 46aa 8cbd
0.080188185 0.15688209 -0.07172397 0.19871041 0.102433726 -0.0031590888 -0.08060708 -0.16845733
0.09115725 0.14651679 0.1329271 0.007646535 0.09621594 0.10552896 0.037729654 0.14777821
0.15544532 0.08026247 0.09222233 0.15794933 -0.020004168 0.11044614 0.026165782 -0.12893353
0.08458621 -0.1185167 -0.16353525 0.07428889 -0.14695661 0.09335184 0.2268658 -0.095415376
0.03686476 -0.18723129 0.107365616 -0.13071275 -0.023221778 -0.19605936 0.117541075 -0.07446346
-0.20468411 -0.1455672 -0.13002335 -0.045192666 0.12525925 -0.10326437 0.10185928 0.029532168
-0.098694704 -0.114053436 -0.17677218 -0.060847268 -0.13656485 0.056200914 0.17345484 0.030118223
0.11971469 -0.08649963 -0.095555164 0.028456671 0.03080012 0.00036400242 -0.19353648 -0.09374424
-0.023374384 -0.0039537284 0.12747082 0.20007001 0.124374464 0.07879933 -0.029107617 0.13596815
0.15688656 -0.03201525 0.06111387 0.010006331 -0.007960045 0.18769729 0.17062627 0.034180205
-0.14860505 0.09847071 0.17008898 0.06107237 -0.059287082 -0.15483879 -0.10504835 0.13135292
0.07744163 0.010548125 0.1446983 0.20002624 0.1552198 0.06439921 -0.17849039 -0.08085586
0.039854754 -0.09996352 0.19882467 0.10528378 -0.13263415 -0.0839618 -0.018494543 0.18387489
-0.17641126 -0.11926998 -0.030815797 0.06075108 0.17187284 -0.13809893 0.14709787 0.04135698
0.17472124 -0.12605095 0.0152057875 -0.039406303 0.10684727 -0.12828617 0.02872574 0.021733824
0.18466227 -0.025351115 -0.023593586 -0.17300212 0.0031356944 -0.21307871 0.16960107 0.1653547
-0.17631462 -0.09917502 -0.12873691 0.1484431 -0.11106399 0.16490264 -0.12504397 0.030933639
-0.025514308 -0.23645456 0.022743735 0.12230879 0.17823432 0.043364268 -0.09643534 0.065227665
-0.15411305 -0.0048695817 0.19477332 0.11586014 0.17010053 0.082842916 0.0022126597 -0.029870685
0.15817533 -0.18829854 -0.21863696 -0.10830452 -0.19915044 -0.21297549 -0.12046213 0.20846896
0.18402632 -0.16806352 0.16582741 -0.14693367 0.026148286 0.031790264 0.056970958 -0.19539706
-0.06298497 -0.089373365 -0.09428005 0.07438084 -0.025096357 0.084095076 -0.12190007 -0.06790732
0.016572874 -0.08299288 0.11497947 0.002527502 -0.035450857 -0.0145422835 -0.024855092 0.057895854
-0.1721586 -0.12845455 -0.1580977 0.05168921 -0.19297093 -0.03175633 -0.08687822 -0.05528609
-0.15379873 -0.1518501 -0.009478328 -0.118613355 -0.053916287 -0.18009697 -0.016057309 -0.16085811
-0.11923553 -0.14303817 0.09963878 0.01466462 -0.05569051 -0.15874413 0.1764741 0.08292724
0.19145778 0.08135219 -0.00027848218 -0.081919484 -0.0924451 -0.14118148 -0.13001715 -0.011184555
0.119119555 -0.15166864 -0.14341699 0.08863341 0.067565516 -0.088179916 0.07473682 0.17878059
-0.08912909 -0.014253753 0.14292558 0.074009374 0.11988937 0.09647448 0.06538358 0.17278779
0.08534334 -0.13975292 -0.15798025 -0.091391526 0.17900902 0.112393305 -0.15285295 -0.12654057
-0.083425485 -0.11028753 -0.053624332 0.060281634 0.06513409 0.099935345 0.16277522 0.14165919
0.04019338 -0.11041069 0.10088935 0.028393878 0.19832435 -0.08602312 0.13678749 -0.068684146

lstm.weight_hh_l1 f4 [128, 32]
00000000: e809 a1bc 3da8 dc3d 6a54 0cbe d21f 2e3e
00000010: def3 06be 94da 3f3e b4e8 47be 3f9e 153e
00000020: 1222 863c 3a53 6abe 04fa 8e3d 59cb 5a3c
00000030: e988 1bbe 9900 dd3d 7969 4bbd be80 76be
00000040: 3c4f ecbc 7493 03be ff2b 7abe c955 ee3d
00000050: 3c1e 40be 6ced a23a 9865 453e e44b edbd
00000060: 0662 823d dc63 13bd 8ed0 43be 821b 223e
00000070: 09dd 73be d7ee 1fbe aace 853d 6713 17bd
00000080: 60b4 01be 58db adbd 3ee4 c43d 4e0b c3bd
00000090: e6cd e1bd faea 11be 6af2 343e 09fb 4fbe
000000a0: aab8 083e 2be9 4dbe 5f31 e53c 52ff 53bd
000000b0: e4de 4f3e b264 de3d 1409 2c3e 8202 adbd
000000c0: 93a1 eebd 6b73 9abd 430b 2dbd 101c 2cbe
000000d0: c088 3c3e 8cd2 10be e439 173e c3ce 12be
000000e0: 0480 27be 5257 bc3d afb3 0e3d b3ad 1c3e
000000f0: faed 0dbc 3523 c0bc f574 b3bd ca04 133e
00000100: 3b87 0abc 6fb0 f8bd 51a0 143e 46b8 073e
00000110: 3ea5 fe3d c18d 103e ad6c 88bd fd6d 59bd
00000120: 8538 fa3d 9d51 2cbe 403b 853d e681 3dbe
00000130: e234 833d 267a 1c3e f780 6dbc e1bb ad3d
00000140: 5633 78bd 7645 363d 756b 223e aab7 17be
00000150: c475 083e 5bd1 9ebd 91cb 243e 0e7f fabd
00000160: bd02 373d 46cd 023d 5d93 d53d c0ba 17be
00000170: 5e7d b6bd 2b70 dbbc 585f 79bd 3d11 edbc
00000180: 37ae d1bd 3b26 d9bd eb31 49bd dc46 1e3e
00000190: 5b56 f7bb 49cb 02be 9387 74be c734 03be
000001a0: 7f38 2fbd c3af 8dbd 3971 3c3e 81e5 bb3c
000001b0: 5631 1a3e 674e 22be 1772 643d 2845 6e3d
000001c0: 866f bebd c767 a93c a3f7 523d d8bb 40be
000001d0: a5b3 31be fde2 b43d 8172 5a3b 9271 083e
000001e0: a136 bb3d 56e5 14be da57 c0bd bbda e03b
000001f0: de4a 323d 91f9 b1bd 1627 b7bc 6a36 ccbd
00000200: 4b28 133e cd63 fc3d 7d17 34be cee5 cd3d
00000210: d5e9 87bd 2fc5 71bd 9054 0d3e 5ae1 003e
00000220: cbc6 bd3d 41a1 e7bd 502c 723d bef8 fdbd
00000230: 15b9 c5bd 4f9a 1cbe 9ad2 973c f76f 0c3d
00000240: 244b 143e eabc edbd 167c cebd 2e33 a23d
00000250: 76e8 39be 1a36 09be efe1 053e 1d3b 3dbd
00000260: 16a1 f1bb a4ca 1cbe a422 0c3e 20e7 653e
00000270: 2424 ba3c 80f3 38be 4f98 8f3c af08 23be
00000280: 5345 81bc 5a28 483e d0c4 9f3d bb3f 403d
00000290: 9cb4 653e 4239 213e a9e7 d7bd 8d2b 43bc
000002a0: 3253 a73d 9805 fabd caec 12be 149d 2d3d
000002b0: 9291 ba3d fc83 7bbe 2bad 893d de87 dfbd
000002c0: e72c 74bd 7dc7 d13d 91ba 35bd 1da0 22bd
000002d0: afc4 5e3d bc03 773d 14c5 53bd 595b a4bd
000002e0: 5ab8 d9bc bbd6 59be 79ff 073e 202c 37be
000002f0: 1180 3dbd bda0 343d b8e5 62bd 9fa6 9d3d
00000300: 5382 083e 8508 9e3d 9051 29bd 50eb 663e
00000310: af0f b13b 2745 483e 77d1 acbd 10b2 ec3b
00000320: f61e ee3c d805 c63d 4edf 2b3e 3d21 f43b
00000330: fd38 92bd eb30 c43d 7abc f1bd 9738 4d3a
00000340: ac2a 0abe 122e 6e3e 6c41 a83d e40d 623c
00000350: 1d96 093e 45a4 2abd 0cf4 a03d ce8b 89bd
00000360: e0ec a93d b8c9 8aba cfc2 f3bc 8343 ba3c
00000370: e29f 0bbd b2b1 6d3a 3258 693d c110 703d
00000380: 4da1 11be 8a51 4dbd e6ce 09be a7af 353e
00000390: 5668 25be cc55 f43d 9cea 33be 45f5 1bbe
000003a0: b443 3e3e e80f 01be 0e5f f2bd 2e6f 4dbd
000003b0: b2ad 613e 32e0 1cbe 9612 073c 56b6 14bd
000003c0: e779 2e3e 45bf b73d 9fa5 84bd 4da0 8ebc
000003d0: 7f6b 8f3d 6efc 1fbe 1e3b 0fbe 732e 7abd
000003e0: 4023 04bd 69ab 603d 6090 f9bc 9bf3 de3c
000003f0: 4187 703d 82ad 843d 4efc 40be 97d3 013d
-0.019658044 0.107742764 -0.13704076 0.17004326 -0.13178965 0.18735725 -0.19522363 0.14611147
0.016373668 -0.22883311 0.069812804 0.013354146 -0.15188946 0.107911296 -0.049661133 -0.24072549
-0.028846376 -0.12849218 -0.24430846 0.11637456 -0.18761533 0.0012430376 0.19277036 -0.115867406
0.06366353 -0.035983905 -0.19122526 0.15830806 -0.23814787 -0.15618454 0.06533559 -0.036883738
-0.12666464 -0.08489102 0.09613846 -0.095236406 -0.110256 -0.14249793 0.17670599 -0.20310606
0.13351694 -0.20108478 0.027977644 -0.051757164 0.2029987 0.1085905 0.16800338 -0.08447744
-0.116519116 -0.075415455 -0.042247068 -0.1680758 0.18411541 -0.14142817 0.14768177 -0.14336686
-0.16357428 0.091963425 0.03483933 0.15300636 -0.008662695 -0.023454288 -0.08762542 0.14357296
-0.008455093 -0.12143027 0.14514281 0.13253888 0.12433861 0.14116575 -0.06661353 -0.05308341
0.122178115 -0.16828008 0.06505442 -0.18506584 0.06406571 0.15280971 -0.01449608 0.08483101
-0.060595833 0.044499837 0.15861304 -0.14816156 0.13326174 -0.07754775 0.1609328 -0.12231265
0.044680346 0.031934045 0.10428498 -0.14817333 -0.08910631 -0.026786884 -0.060881943 -0.028938884
-0.10238307 -0.10602995 -0.04911987 0.15456718 -0.007548136 -0.1277286 -0.23879842 -0.12813102
-0.04277849 -0.069182895 0.18402566 0.022936584 0.15057883 -0.1585022 0.055772867 0.05817142
-0.09298615 0.020679368 0.051505696 -0.18821657 -0.17353685 0.08832357 0.003333241 0.13324574
0.09141279 -0.1454061 -0.09391756 0.006862012 0.04352843 -0.08690179 -0.022357505 -0.09971316
0.1437084 0.12323723 -0.17587085 0.100535974 -0.06636397 -0.05902594 0.1380179 0.12585965
0.092664324 -0.113100536 0.05912429 -0.124009594 -0.09654442 -0.15293239 0.01853304 0.034286465
0.14481789 -0.11608298 -0.10082261 0.07919918 -0.18155083 -0.13399544 0.13074468 -0.046198953
-0.0073739393 -0.15311676 0.1368509 0.22451448 0.022722311 -0.18061638 0.017528681 -0.15921281
-0.015780127 0.19546643 0.07801211 0.046935778 0.22432178 0.15744498 -0.105422325 -0.011912239
0.08170165 -0.12208098 -0.1434814 0.04238613 0.091097966 -0.24562067 0.06722482 -0.109145865
-0.059613135 0.102431275 -0.044367377 -0.039703477 0.05438679 0.060306296 -0.05170162 -0.08025236
-0.026577163 -0.2127332 0.13281049 -0.17887926 -0.04626471 0.044098604 -0.055394858 0.07697796
0.13330965 0.07716469 -0.04133755 0.22550702 0.005403481 0.1955763 -0.0843839 0.007223375
0.029067498 0.09669083 0.16784403 0.0074502514 -0.07139776 0.09579643 -0.11803527 0.0007828562
-0.1349284 0.23259762 0.08215603 0.013797257 0.1343617 -0.041660566 0.07859048 -0.06716119
0.082971334 -0.0010588681 -0.029755978 0.02273727 -0.034088023 0.0009067311 0.056968875 0.058609728
-0.14221688 -0.05012659 -0.13457832 0.17742787 -0.16153082 0.11930427 -0.17569965 -0.15230282
0.18580514 -0.12603724 -0.118345365 -0.050154857 0.22038916 -0.15319899 0.008244177 -0.0363067
0.1703869 0.08972029 -0.06476902 -0.017410422 0.07002925 -0.15623638 -0.13987395 -0.061079454
-0.03226018 0.05485097 -0.030464351 0.02721577 0.05872274 0.064784065 -0.18846247 0.03169593

lstm.bias_ih_l1 f4 [128]
00000000: 51ab 573d 9c08 8d3d 95da 303d a28a 973d
00000010: 5064 723d 46da 8b3d 643d 923d 0214 1a3d
00000020: 8a6a 9d3d 5abb 933d 170a 9a3d 4a8e ab3d
00000030: 4d71 413d 9be9 083d baba 613d 45b1 963d
00000040: b3f1 3c3d 302a 753d ea76 783d 982f 723d
00000050: 2a0f 333d 21c0 9f3d 5400 8f3d 03f6 a43d
00000060: 5f62 843d e8f0 923c ab45 853d b9b2 663d
00000070: 2b52 8a3d 1cee a33d 657f 933d f1e1 7d3d
00000080: 6d27 383d 92e2 953d 3cc7 163d 5b24 933d
00000090: 1e67 6e3d a9a6 893d fd81 8e3d a27d 183d
000000a0: 269d 993d 2c4f 943d e2e2 963d 3095 b03d
000000b0: c899 433d 95d0 e73c 1549 4d3d 02bc 963d
000000c0: 1575 253d 3038 833d c3e8 613d 7a58 6a3d
000000d0: 543b 333d b1ca 9f3d e90d 8e3d e3b9 9f3d
000000e0: db0a 823d 0bfa 323c 4d1d 843d dc34 673d
000000f0: 3b73 803d f4c7 9f3d 726f 8e3d a855 6b3d
00000100: 4892 173d 8b53 473c 4358 22bd d065 223d
00000110: b000 2a3d 96a3 f73c 7ff0 0bbd 2d9b 26bc
00000120: 74ec 9cbc c4ec 4bbd 9212 ee3c 8b0f 09bd
00000130: 32c7 0c3c 4fb5 21bd 9ef9 0cbd 1b7c c5bc
00000140: 7b45 373d 083d 903c 78d9 69bc 25c1 45bd
00000150: 8fae 0fbd ce85 0fbd 6057 dc3c bac5 243d
00000160: 57fa 673c 7ec2 a5bc a83a 24bd e2e3 823c
00000170: 768e 9fbc 55cd 15bd 24b5 e53c 8435 ccbc
00000180: 1bec 5a3d 331e 8d3d c8a2 2c3d a307 973d
00000190: 44ed 723d d6a6 8a3d 550f 913d bc5b 163d
000001a0: ce53 9a3d 7015 953d 01d5 993d 8033 a93d
000001b0: 9edf 403d 6baf 113d 3ad3 613d 7a41 953d
000001c0: 9180 423d b809 753d eae8 763d 2cd3 6e3d
000001d0: 9af5 323d 9622 9d3d 05cf 8e3d d0c6 a43d
000001e0: f1ab 833d 035f 973c d3e8 853d e97e 5c3d
000001f0: 1c90 883d 3029 a23d 0f9b 933d f8b9 743d
0.052653614 0.06886408 0.043177206 0.07399489 0.059177697 0.06828742 0.071406156 0.037616737
0.07686336 0.07213469 0.07521456 0.08376749 0.047227193 0.03342591 0.055109717 0.0735803
0.04612894 0.059854686 0.06066028 0.05912742 0.043715633 0.078003176 0.069824845 0.080547355
0.06464075 0.017937139 0.06507429 0.056322787 0.067539535 0.080044 0.07202033 0.061983053
0.044959474 0.073186055 0.0368111 0.07184669 0.05820381 0.06721241 0.06958387 0.037229188
0.07500677 0.07241663 0.07367493 0.08622205 0.04775408 0.028297702 0.050118525 0.073600784
0.04039486 0.06407201 0.05515362 0.057213284 0.04375775 0.07802332 0.06936247 0.07799127
0.06349727 0.010923873 0.06450901 0.056446895 0.062719785 0.0780181 0.0695485 0.057454735
0.03700474 0.012165914 -0.039634954 0.039647877 0.041504562 0.030229371 -0.0341649 -0.010168833
-0.019155718 -0.049786344 0.02906159 -0.03346209 0.008592414 -0.03947955 -0.03441774 -0.02410703
0.044743996 0.017607227 -0.01427304 -0.0482799 -0.03507858 -0.035039715 0.026897132 0.04022763
0.014158807 -0.020234343 -0.040095 0.015977804 -0.01947711 -0.036572773 0.028040476 -0.024927862
0.053447824 0.06890526 0.042147428 0.073745035 0.059308305 0.06770103 0.070830025 0.03670858
0.07535516 0.072794795 0.075113304 0.08261776 0.047088258 0.035567682 0.055133082 0.07287879
0.04748589 0.05982372 0.060280718 0.058306858 0.043691255 0.07672612 0.069730796 0.08045733
0.064292796 0.018477922 0.06538548 0.05383197 0.06668112 0.07918012 0.072073095 0.059747666

lstm.bias_hh_l1 f4 [128]
00000000: 51ab 573d 9c08 8d3d 91da 303d a48a 973d
00000010: 5064 723d 46da 8b3d 643d 923d 0214 1a3d
00000020: 8a6a 9d3d 59bb 933d 170a 9a3d 4a8e ab3d
00000030: 4d71 413d 9be9 083d baba 613d 45b1 963d
00000040: b2f1 3c3d 302a 753d e276 783d 982f 723d
00000050: 2c0f 333d 21c0 9f3d 5400 8f3d 03f6 a43d
00000060: 5f62 843d e8f0 923c ab45 853d b9b2 663d
00000070: 2b52 8a3d 1cee a33d 657f 933d eee1 7d3d
00000080: 6d27 383d 92e2 953d 3cc7 163d 5b24 933d
00000090: 1e67 6e3d a9a6 893d fc81 8e3d a27d 183d
000000a0: 269d 993d 2c4f 943d e2e2 963d 3095 b03d
000000b0: c699 433d 90d0 e73c 1749 4d3d 02bc 963d
000000c0: 1575 253d 2e38 833d c3e8 613d 7a58 6a3d
000000d0: 543b 333d b1ca 9f3d e90d 8e3d e3b9 9f3d
000000e0: db0a 823d 0ffa 323c 4e1d 843d dc34 673d
000000f0: 3b73 803d f9c7 9f3d 726f 8e3d a655 6b3d
00000100: 4892 173d 8b53 473c 4358 22bd d065 223d
00000110: b000 2a3d 96a3 f73c 7ff0 0bbd 2e9b 26bc
00000120: 77ec 9cbc c5ec 4bbd 9512 ee3c 8a0f 09bd
00000130: 30c7 0c3c 4fb5 21bd 9ef9 0cbd 1a7c c5bc
00000140: 7b45 373d 083d 903c 7ad9 69bc 29c1 45bd
00000150: 8fae 0fbd ce85 0fbd 6357 dc3c b8c5 243d
00000160: 57fa 673c 80c2 a5bc a83a 24bd e2e3 823c
00000170: 768e 9fbc 55cd 15bd 23b5 e53c 7e35 ccbc
00000180: 18ec 5a3d 331e 8d3d cba2 2c3d a307 973d
00000190: 44ed 723d d5a6 8a3d 550f 913d bb5b 163d
000001a0: ce53 9a3d 7015 953d 01d5 993d 8033 a93d
000001b0: a2df 403d 6baf 113d 36d3 613d 7a41 953d
000001c0: 9180 423d b809 753d eae8 763d 2cd3 6e3d
000001d0: 9af5 323d 9622 9d3d 05cf 8e3d d0c6 a43d
000001e0: f1ab 833d 035f 973c d5e8 853d e87e 5c3d
000001f0: 1c90 883d 3029 a23d 0f9b 933d f8b9 743d
0.052653614 0.06886408 0.04317719 0.073994905 0.059177697 0.06828742 0.071406156 0.037616737
0.07686336 0.07213468 0.07521456 0.08376749 0.047227193 0.03342591 0.055109717 0.0735803
0.046128936 0.059854686 0.06066025 0.05912742 0.04371564 0.078003176 0.069824845 0.080547355
0.06464075 0.017937139 0.06507429 0.056322787 0.067539535 0.080044 0.07202033 0.06198304
0.044959474 0.073186055 0.0368111 0.07184669 0.05820381 0.06721241 0.06958386 0.037229188
0.07500677 0.07241663 0.07367493 0.08622205 0.04775407 0.028297693 0.050118532 0.073600784
0.04039486 0.064072 0.05515362 0.057213284 0.04375775 0.07802332 0.06936247 0.07799127
0.06349727 0.010923876 0.06450902 0.056446895 0.062719785 0.07801814 0.0695485 0.057454728
0.03700474 0.012165914 -0.039634954 0.039647877 0.041504562 0.030229371 -0.0341649 -0.010168834
-0.019155724 -0.049786348 0.029061595 -0.033462085 0.008592412 -0.03947955 -0.03441774 -0.024107028
0.044743996 0.017607227 -0.014273042 -0.048279915 -0.03507858 -0.035039715 0.026897138 0.04022762
0.014158807 -0.020234346 -0.040095 0.015977804 -0.01947711 -0.036572773 0.028040474 -0.02492785
0.053447813 0.06890526 0.04214744 0.073745035 0.059308305 0.06770102 0.070830025 0.036708575
0.07535516 0.072794795 0.075113304 0.08261776 0.047088273 0.035567682 0.055133067 0.07287879
0.04748589 0.05982372 0.060280718 0.058306858 0.043691255 0.07672612 0.069730796 0.08045733
0.064292796 0.018477922 0.0653855 0.053831965 0.06668112 0.07918012 0.072073095 0.059747666

lstm.weight_ih_l2 f4 [128, 32]
00000000: 634a a43d 1bb1 363e 65ec b43d 9c45 89bd
00000010: 9b1f c1bd 1c44 e33c 0190 a33d 32fa a8bc
00000020: de04 66bd 2dd7 093b 81d8 17bc e134 d23d
00000030: 5ea2 11be 2827 1bbe 75af 74bd 80fe e5bd
00000040: 1ca7 4f3e 42d2 443e b351 15be a5c7 a53d
00000050: 8cc5 c1bc 1877 2bbe 4dc0 11be 8b3d db3d
00000060: b4bd 9ebd 66a8 0a3e be73 40bd b8d9 cebd
00000070: 0f5d 60bd 366f 25be c04f 353d 913f fcbc
00000080: 4123 cb3d c339 68ba 09db bbbd 70e6 04be
00000090: 4d0e 71bc bc22 abbd 44ea 393d 38d5 a13c
000000a0: 84d3 823d 30ed 783d e4b0 bcbd f205 2cbe
000000b0: d99a 2abe 4773 d3bd c463 bdbc a0f0 a03d
000000c0: b387 1dbe 2b9b fbbc 29ff 13bc 8146 efbd
000000d0: 48ee 90bd 0a02 ff3d f9c1 88bc b364 303e
000000e0: 2667 c13a e23e 8cbd ae6d 5fbe 36b3 bc3d
000000f0: 1003 4ebd 019c 423d bf57 18be 3712 fbbd
00000100: dffe ff3d 87e0 8c3d e3cf a0bd 66f9 b13d
00000110: db3a 0a3e 688e 13be 6afd 893d b47c 453e
00000120: 1a61 3ebe 8836 19be b805 1d3e 7757 b63d
00000130: 79ce ccbd ef43 af3d 9f85 963d 6237 1dbd
00000140: 2aec 4f3d 5615 e63b 26e1 eb3c b1e6 ad3c
00000150: 0b30 bcbd 9cf0 0ebd f09d e4bd 35e5 bdbc
00000160: 764b 79bd 7119 fa3c 1893 66bd a3e4 3b3d
00000170: 7941 233d 9921 61be feed 1d3e 0062 d73d
00000180: f096 2f3d 9e11 1bbe 6a13 95bd 756a f4bd
00000190: e075 973d cad5 cf3d f166 49be a937 823c
000001a0: d913 32bd 2da3 60be f868 48bc 0a86 31bc
000001b0: f093 01be 7875 263e dc1a cfbd 06bf 183d
000001c0: fcc6 333e 8615 bcbd a2a1 1e3e ee8e 193e
000001d0: 7e62 683d d6c2 cfbc 4b12 78ba d4ef 363e
000001e0: bde3 15be dfae 68bd 4993 07be 44e3 04be
000001f0: 4f9a 1ebe dc11 5a3d 4aa4 cb3d 8b3e 08be
00000200: 3598 1c3e 158e 393e b6d7 213e f4c3 b93d
00000210: 985d 1fbd cdb5 3dbd 9746 06be 79ab 173d
00000220: 5a81 3bbe a95b 36be 8c61 103e 66fc 13bd
00000230: 582a e93d ad8d 57be 3fb3 e838 9fdb 26be
00000240: 1f49 003e 2eab 033d f64c bc3d bcea 33be
00000250: 1965 e83d 5c56 6ebe 2ab7 94bd 8b34 a2bc
00000260: 25ac 0b3d d247 f6bc 67b9 213e 124e e93d
00000270: 66fe fabd 02b5 71bc 6cf9 25be 37c4 6f3d
00000280: a6e8 213e 044c b23c 7611 713d e93d e3ba
00000290: 62c3 e53d 9de7 0f3e e0f7 7dbd 84d7 913d
000002a0: ca98 01be 52da 4dbe 7861 a63c d28d 0fbe
000002b0: d2d8 1ebe 660f 123e d06e 12be d948 9abd
000002c0: a07d 013e b1c1 8f3d c72b 46be c27f e3bd
000002d0: 15f2 e73d b052 1fbe fc47 a8bc c144 16bd
000002e0: cf73 9ebb 5d09 41be 6c68 8dbd 006a 023e
000002f0: aef5 b6bd b66f cc3d 7e92 973d dd3d 8ebd
00000300: 66ba bebd 05b1 d23d e1db 49be 5102 403e
00000310: 4415 663e efec 4e3d 05bc f0bd addc d5bd
00000320: 5fc8 52bd b624 fbbb 288c 503e bff1 a1bd
00000330: 5fa0 20be 5690 713d c508 56be ec9d 973d
00000340: 4a2d 783e ebd6 f4ba 073e 47be a10f 31be
00000350: 43f0 f9bd 2f25 07be 98d7 01bd e978 043e
00000360: 7cea 4a3e d4d4 3bbe 1c35 0cbe 1c06 16be
00000370: 982d 5fbe 540f 3bbe 0867 3c3d a30a bcbd
00000380: 7e1d 313e 2a98 c5bd 3886 c43d da83 433e
00000390: f319 403e a807 693e fafb 7dbd b33b e73d
000003a0: 8495 f73d 8861 793d 882b 4c3e 50ad d83d
000003b0: de9a 503d f1f2 a7bd 70ed 20be 4889 993d
000003c0: 06e1 343e f4b5 e4bd 01b3 1bbe 3e29 94bd
000003d0: 0e56 75be 4283 3dbc f4d9 ef3d f4e4 9dbd
000003e0: 1400 893d 313d 993d aaa0 063e 895c 5d3c
000003f0: 1c53 ecbc 4c43 163e 1a79 693d f580 04be
0.08022001 0.17840998 0.08834151 -0.0670273 -0.094298564 0.027742438 0.07986451 -0.020627115
-0.056156985 0.0021032796 -0.009267927 0.10263992 -0.14222094 -0.15151656 -0.05973764 -0.11230183
0.20278591 0.19220832 -0.14581947 0.0809472 -0.023653768 -0.1674465 -0.14233513 0.10705098
-0.07751027 0.13540801 -0.04698538 -0.1010012 -0.054776248 -0.16155705 0.04426551 -0.03079203
0.099188335 -0.0008858705 -0.09172637 -0.1297853 -0.014712882 -0.083562344 0.04538943 0.019754991
0.06388 0.060773075 -0.09213427 -0.16799143 -0.16660632 -0.10324722 -0.023118861 0.078583956
-0.15383796 -0.030713638 -0.009033003 -0.116833694 -0.070766985 0.12451561 -0.016694056 0.17225914
0.0014755472 -0.068479314 -0.21819183 0.09213869 -0.05029589 0.04751206 -0.14877222 -0.122593336
0.12499785 0.06878763 -0.07852151 0.08690147 0.13499014 -0.14409792 0.06737788 0.19285852
-0.18591729 -0.14962208 0.15334213 0.08903401 -0.10000319 0.08557879 0.07349705 -0.038382895
0.050762333 0.0070215864 0.028793883 0.021228166 -0.09188851 -0.03489743 -0.11162937 -0.023180583
-0.06086298 0.03052971 -0.056292623 0.04587234 0.03985736 -0.21985473 0.15422818 0.10516739
0.042868555 -0.15143439 -0.072790936 -0.119343676 0.0739553 0.10148199 -0.19668175 0.015895681
-0.04347596 -0.21937247 -0.012232058 -0.01083518 -0.1265409 0.16255748 -0.10112545 0.03729155
0.17556375 -0.09183793 0.15491346 0.1499593 0.056734554 -0.02536146 -0.0009463175 0.17864925
-0.14637657 -0.056807395 -0.13239779 -0.1297732 -0.15488552 0.05323969 0.09943445 -0.13305108
0.15292437 0.18120606 0.15804943 0.09070578 -0.038907617 -0.046315957 -0.13112865 0.037028763
-0.18311062 -0.17808403 0.14099711 -0.036129378 0.113850296 -0.21050139 0.00011096009 -0.16294716
0.12527893 0.03214567 0.09194367 -0.17570013 0.11347408 -0.23275131 -0.07261498 -0.019800445
0.034099717 -0.030063543 0.15793382 0.11391844 -0.12255554 -0.014752628 -0.16208428 0.058536734
0.15811405 0.021764763 0.058854543 -0.0017337176 0.11218907 0.14053197 -0.06200397 0.071211845
-0.1265594 -0.20102814 0.020310149 -0.14018944 -0.15512398 0.14263687 -0.14300084 -0.07533426
0.12645578 0.070193656 -0.19352637 -0.11108352 0.1132547 -0.15558887 -0.020542137 -0.036686663
-0.004835583 -0.18851228 -0.069046825 0.12735748 -0.089335784 0.09982245 0.07400988 -0.06945393
-0.093128964 0.1028767 -0.19712783 0.18750884 0.2246905 0.050518926 -0.11754612 -0.10442481
-0.05146062 -0.0076642884 0.20365965 -0.079074375 -0.15686177 0.05897554 -0.20901783 0.07403168
0.24236026 -0.0018679773 -0.19457255 -0.17291118 -0.122040294 -0.13197778 -0.031699747 0.12936749
0.19816011 -0.18342906 -0.13692135 -0.14650768 -0.21794736 -0.18267566 0.045996696 -0.09181716
0.17296407 -0.096481636 0.09595913 0.19093266 0.18759899 0.22756827 -0.06200788 0.112906836
0.12089065 0.06088403 0.19938481 0.10579932 0.050928943 -0.08200634 -0.15715575 0.074968874
0.17663965 -0.11167517 -0.15205003 -0.07234429 -0.23958609 -0.011566939 0.11711493 -0.07709685
0.06689468 0.074823745 0.13147226 0.013510832 -0.028848223 0.14674109 0.057000257 -0.12939818
