fl_experiment_20260111_145926/mlp_model.pth (torch, 132260 bytes, 9 tensors)

main.0.weight f4 [256, 23]
0.14228468 0.027390312 -0.24899408 0.15481423 -0.0796949 -0.008114161 0.11275729 -0.025977336
0.10307658 -0.1877146 0.06630773 0.10069832 0.13776088 -0.008559649 -0.021755839 -0.2117964
0.039682914 0.15634507 -0.03419942 -0.13974491 -0.16533445 0.14782846 0.028771695 0.15806459
-0.18880299 0.20902999 0.068537734 -0.24618499 -0.030797187 0.020271465 0.11506586 0.13709278
0.049679 -0.087449536 -0.10775203 -0.10708608 -0.064464726 0.16164888 0.051016048 -0.11191791
0.07412476 0.2806425 0.040018648 -0.12536015 -0.13310164 0.04249268 0.053761672 0.02399757
-0.01694169 0.033890568 0.0011780874 -0.32746425 0.047585435 -0.061611604 -0.13669288 0.06514148
-0.18012089 -0.07627066 0.101185024 -0.12886478 -0.043471735 0.1810058 0.057511505 -0.23451889
0.09456939 -0.24253006 -0.25391507 -0.088441655 -0.028884225 0.070608936 -0.09791345 -0.21326691
-0.023662312 -0.11687304 0.028290741 -0.12609278 0.13244638 -0.14247239 0.10626175 -0.15555315
-0.056322746 -0.28167868 -0.031488787 -0.31848177 0.02009644 0.06348318 -0.22805694 -0.059891365
0.082743734 0.1729851 0.1734336 -0.037765633 -0.21898818 0.24020511 -0.07809187 0.03908023
-0.078736834 -0.19283551 0.013424552 -0.21519776 0.048059255 0.06283285 0.17100757 0.16584834
-0.16204327 -0.05777903 0.13964303 -0.00094819703 0.013516028 -0.038739365 0.02353027 0.12668106
-0.0855038 0.033020526 -0.089877814 0.16110313 -0.06002772 0.28861856 0.015355228 0.15295741
-0.18214293 -0.0029892125 -0.10063472 0.14474063 0.16522275 -0.011496937 -0.05078508 0.15410893
0.05523479 -0.10855087 -0.08827478 0.03966968 0.30153492 -0.10053095 0.24119796 0.23506346
0.040384512 0.11181318 0.030795839 0.040152885 0.12802424 0.21621968 -0.19961073 0.16897112
0.12776464 -0.1363359 0.10240404 -0.076180324 0.061119113 -0.17835265 -0.10137638 0.1482551
-0.057054237 -0.0760058 -0.21765836 -0.16305831 0.19803981 0.04164741 0.2153439 0.17629223
0.13044246 -0.005429942 -0.064645 0.07041169 -0.10801602 -0.16017288 -0.23997349 0.08714033
-0.04820866 0.15532269 0.07392289 -0.11336218 -0.12809263 -0.04578566 -0.19974269 0.17331743
-0.056217168 -0.20007013 0.009563468 -0.15586588 0.13372679 0.046904158 -0.09796888 0.11661887
0.15708841 -0.1193589 0.04190191 -0.026952514 -0.09594916 -0.03307503 -0.0014321393 0.12303195
0.069078855 -0.11169863 0.007944291 0.007272773 -0.004260118 0.20162444 0.013814693 0.13676305
-0.08245364 0.15381908 0.045547288 0.15563893 0.21979754 0.11220701 0.21134938 -0.0997118
0.00860695 -0.08584424 -0.013518236 -0.034392826 0.23639768 -0.1942293 0.10894115 0.11579542
0.057563704 0.22668657 -0.13161646 -0.06802864 0.13263646 0.07639233 0.1599246 0.12013411
0.19014332 -0.1571196 -0.041922126 -0.03061165 0.04363598 0.08940979 0.1423067 0.13043706
0.14202052 -0.08945373 -0.10020734 0.039171696 0.09975988 0.0865248 0.029605996 0.04285878
0.119085014 0.10158001 -0.09127834 -0.12895153 0.046119645 -0.07009189 0.031829562 0.031047348
0.26212656 0.06608789 -0.04149753 0.16792881 -0.24553716 -0.04215126 -0.046857566 0.22458205
00000000: 13b3 113e a661 e03c 4ef8 7ebe 9f87 1e3e
00000010: 1437 a3bd 42f1 04bc 4bed e63d 6cce d4bc
00000020: d019 d33d 4238 40be 59cc 873d ec3a ce3d
00000030: 3011 0d3e c53d 0cbc 4d39 b2bc 28e1 58be
00000040: 8d8a 223d ec18 203e b114 0cbd 4a19 0fbe
00000050: 6f4d 29be 5860 173e 9eb2 eb3c afdb 213e
00000060: 9255 41be f50b 563e 835d 8c3d eb17 7cbe
00000070: 624a fcbc 5810 a63c a6a7 eb3d 0d62 0c3e
00000080: 357c 4b3d be18 b3bd 19ad dcbd f24f dbbd
00000090: 1506 84bd 4987 253e 34f6 503d 3835 e5bd
000000a0: b9ce 973d 60b0 8f3e 98ea 233d 695e 00be
000000b0: cc4b 08be ce0c 2e3d 3335 5c3d 8d96 c43c
000000c0: 4dc9 8abc d6d0 0a3d 0e6a 9a3a 65a9 a7be
000000d0: f2e8 423d 735c 7cbd 38f9 0bbe e568 853d
000000e0: 9c71 38be cb33 9cbd 183a cf3d 21f5 03be
000000f0: 6b0f 32bd 9659 393e 2f91 6b3d b825 70be
00000100: 99ad c13d cd59 78be 2801 82be e620 b5bd
00000110: 9c9e ecbc 6b9b 903d d986 c8bd a462 5abe
00000120: 77d7 c1bc 225b efbd fcc1 e73c 771e 01be
00000130: 06a0 073e 48e4 11be c39f d93d 5349 1fbe
00000140: aeb2 66bd 3038 90be 63fa 00bd 0b10 a3be
00000150: 4aa1 a43c 7803 823d c287 69be a650 75bd
00000160: 8c75 a93d 0223 313e 9498 313e 23b0 1abd
00000170: 703e 60be 54f8 753e a1ee 9fbd 9712 203d
00000180: c740 a1bd ac76 45be a7f2 5b3c cd5c 5cbe
00000190: c8d9 443d 82ae 803d 9c1c 2f3e 26d4 293e
000001a0: acee 25be b4a9 6cbd 95fe 0e3e 6d90 78ba
000001b0: 5572 5d3c 2bad 1ebd 8ec2 c03c aeb8 013e
000001c0: 9e1c afbd 8840 073d dc11 b8bd 38f8 243e
000001d0: a0df 75bd d0c5 933e 7f94 7b3c dea0 1c3e
000001e0: ad83 3abe aae6 43bb 9319 cebd e336 143e
000001f0: 2730 293e a65d 3cbc 0404 50bd bbce 1d3e
00000200: e03d 623d eb4f debd 68c9 b4bd ad7c 223d
00000210: c962 9a3e 2ce3 cdbd 99fc 763e 7ab4 703e
00000220: 3b6a 253d 4ffe e43d 8e47 fc3c 5a77 243d
00000230: c918 033e b168 5d3e c166 4cbe c406 2d3e
00000240: bcd4 023e a39b 0bbe 36b9 d13d 6e04 9cbd
00000250: 0958 7a3d 14a2 36be 6b9e cfbd 2fd0 173e
00000260: b4b1 69bd eea8 9bbd d5e1 5ebe c2f8 26be
00000270: f3ca 4a3e 7996 2a3d 1c83 5c3e f385 343e
00000280: b592 053e a8ed b1bb 9964 84bd 0134 903d
00000290: 8137 ddbd 5c04 24be 9cbb 75be a176 b23d
000002a0: 7276 45bd e90c 1f3e e264 973d 6e2a e8bd
000002b0: b72a 03be bf89 3bbd 5989 4cbe 207a 313e
000002c0: f943 66bd 2fdf 4cbe 18b0 1c3c 4e9b 1fbe
000002d0: adef 083e 931e 403d e8a3 c8bd e0d5 ee3d
000002e0: c9db 203e 7072 f4bd 56a1 2b3d 85cb dcbc
000002f0: fe80 c4bd af79 07bd 9fb6 bbba 2df8 fb3d
00000300: 3779 8d3d 40c2 e4bd c628 023c 7150 ee3b
00000310: 7698 8bbb a376 4e3e 0657 623c 9d0b 0c3e
00000320: 74dd a8bd c082 1d3e cb8f 3a3d d05f 1f3e
00000330: 9b12 613e cacc e53d f96b 583e b335 ccbd
00000340: 2a04 0d3c 1bcf afbd 977b 5dbc 7edf 0cbd
00000350: 3c12 723e 0ce4 46be 8a1c df3d 2626 ed3d
00000360: ebc7 6b3d 8620 683e 77c6 06be 9952 8bbd
00000370: dad1 073e 9573 9c3d 46c3 233e df08 f63d
00000380: eeb4 423e f6e3 20be 89b6 2bbd 48c5 fabc
00000390: a4bb 323d 7b1c b73d d9b8 113e 4b91 053e
000003a0: d46d 113e 8433 b7bd 8239 cdbd 8072 203d
000003b0: e84e cc3d ea33 b13d 4688 f23c b08c 2f3d
000003c0: d8e2 f33d 2e09 d03d 23f0 babd df0b 04be
000003d0: f4e7 3c3d 568c 8fbd b75f 023d 0257 fe3c
000003e0: 7435 863e 1659 873d 50f9 29bd 88f5 2b3e
000003f0: 186e 7bbe cda6 2cbd b8ed 3fbd d6f8 653e

main.0.bias f4 [256]
-0.048100237 -0.026420377 0.09795524 0.041613992 0.057544906 -0.107678995 0.20665447 0.19364166
-0.12487441 -0.06617404 -0.1880854 0.0028920018 0.1665309 0.062285 0.12268904 -0.14547119
0.103963874 0.07251603 -0.019280832 -0.19018932 -0.031447627 0.17383546 -0.12468327 -0.05535701
0.18729216 0.01863354 0.17538868 -0.15497978 -0.13103947 0.07544684 -0.14338118 -0.16345717
-0.023097388 -0.072100796 0.112165794 -0.17893064 -0.17874143 -0.056520235 -0.12456596 -0.09704167
-0.09825415 0.14465323 0.08511575 -0.16656272 0.20765734 0.114664994 -0.045342788 0.09351676
0.090259686 0.12768275 -0.11835176 -0.018713878 -0.0768441 -0.09281202 -0.09371137 -0.1840126
-0.019800628 0.055485047 -0.14680028 -0.044120006 -0.047888793 0.08032838 -0.12897763 0.11699173
0.16877101 -0.033542056 0.17127852 0.13724978 -0.18887435 -0.19230223 0.0526319 0.1048943
-0.086904705 -0.1241529 -0.15867643 -0.13881445 -0.1683299 -0.21212828 -0.02215648 0.019747015
-0.07578228 0.038234856 0.19181938 0.054986812 0.110823095 0.107383214 0.18299067 -0.04841549
-0.0549231 0.03177793 0.043282226 -0.014678146 -0.052242767 0.08249655 0.0908116 -0.06009921
-0.08820352 -0.055440757 -0.04687002 0.123824745 -0.11879229 0.11059966 -0.20077151 -0.07114592
0.16739452 -0.19823614 0.0627321 0.07907944 -0.025163798 0.16098593 -0.20415129 -0.13511646
-0.19858423 -0.15411381 0.07985431 -0.07681438 -0.056722634 0.12471026 -0.03810482 -0.13780867
0.10666925 0.0045820386 -0.17245384 -0.10770969 0.12567997 0.07560665 -0.047784306 0.0292117
-0.0001389882 0.08511599 0.12584381 0.11262477 0.0708589 -0.20871538 0.16862309 0.15775605
0.16587864 0.19167794 -0.05827757 0.013021751 0.10650435 -0.20299122 0.09532167 -0.06326609
-0.15308851 -0.1303351 0.16296282 0.12532124 0.034535594 0.20496398 0.008829832 -0.011207201
-0.18042563 -0.009888269 -0.0913224 -0.13896498 -0.20842184 0.08106362 0.06134683 0.10972831
0.10969264 -0.04290576 0.13454705 0.031367533 0.083930776 -0.07665948 0.16064626 -0.19110112
-0.010751085 0.09121255 -0.19406529 -0.10768003 -0.18169875 -0.18830924 -0.11800577 0.06492156
0.120608516 0.09483525 -0.11229195 -0.0012489967 -0.15703836 -0.16941996 0.017936362 -0.014588188
-0.15143041 -0.16569404 -0.096626796 0.030669363 -0.14228116 0.13274577 -0.08805973 0.08044115
0.07390309 0.18517046 -0.07357976 0.09616211 0.030147633 -0.11137702 0.12134413 -0.16367614
-0.20952621 0.0883916 0.047126725 4.436989e-05 -0.07594221 -0.19902568 0.070463 0.1975339
-0.14299493 -0.009805799 0.020285036 -0.119054005 -0.19800666 -0.06619342 -0.18406372 -0.101947054
-0.13217378 0.17107315 0.1338404 0.18602262 -0.19456324 0.0978725 0.122633524 0.18967602
-0.026548253 0.14740545 0.037708163 0.060102433 0.09069985 0.010964249 0.048796374 0.19023433
0.023727043 -0.14762594 -0.094972715 -0.20479676 -0.12800072 -0.21316428 -0.17296244 -0.041624025
-0.1453079 -0.19300494 -0.116121344 0.147038 -0.0838893 -0.09383428 0.12145651 0.00023529619
-0.06341913 0.074617684 0.12198006 0.09568799 0.013478479 -0.1601373 0.15978178 0.03577157
00000000: c104 45bd 8c6f d8bc c29c c83d 6f73 2a3d
00000010: 35b4 6b3d ce86 dcbd 3b9d 533e 004a 463e
00000020: 28be ffbd 4186 87bd 7699 40be bd87 3d3b
00000030: 1487 2a3e 8e1e 7f3d 6444 fb3d 66f6 14be
00000040: 03eb d43d 4983 943d d6f2 9dbc fdc0 42be
00000050: 3acf 00bd ec01 323e f159 ffbd 08be 62bd
00000060: 84c9 3f3e 5ea5 983c 1799 333e 05b3 1ebe
00000070: 362f 06be df83 9a3d 84d2 12be 5161 27be
00000080: bc36 bdbc 95a9 93bd 2eb7 e53d 9839 37be
00000090: fe07 37be c381 67bd 701c ffbd c8bd c6bd
000000a0: 7939 c9bd fa1f 143e 2b51 ae3d 6b8f 2abe
000000b0: 20a4 543e 7bd5 ea3d 5cb9 39bd b785 bf3d
000000c0: 12da b83d 44bf 023e 6862 f2bd d94d 99bc
000000d0: 7160 9dbd 3a14 bebd bfeb bfbd cd6d 3cbe
000000e0: ed34 a2bc 4a44 633d d052 16be 2eb7 34bd
000000f0: 0a27 44bd 3583 a43d b612 04be 5c99 ef3d
00000100: 4fd2 2c3e 6563 09bd a363 2f3e 358b 0c3e
00000110: 4768 41be e0ea 44be 8c94 573d d3d2 d63d
00000120: 18fb b1bd e043 febd 137c 22be 6025 0ebe
00000130: ac5e 2cbe 2838 59be 8281 b5bc 7ec4 a13c
00000140: bd33 9bbd 279c 1c3d 4d6c 443e da39 613d
00000150: 38f7 e23d bbeb db3d e861 3b3e 524f 46bd
00000160: 0bf7 60bd 9329 023d b448 313d 9b7c 70bc
00000170: 83fc 55bd f4f3 a83d 6ffb b93d 972a 76bd
00000180: 0ca4 b4bd d915 63bd c7fa 3fbd d497 fd3d
00000190: 5f49 f3bd 1382 e23d 0c97 4dbe f4b4 91bd
000001a0: 7869 2b3e 6afe 4abe b079 803d 67f4 a13d
000001b0: 4f24 cebc 7fd9 243e 090d 51be f85b 0abe
000001c0: aa59 4bbe 03d0 1dbe a88a a33d dc50 9dbd
000001d0: fe55 68bd 1868 ff3d cd13 1cbd b71d 0dbe
000001e0: 6875 da3d ed24 963b bd97 30be e696 dcbd
000001f0: 40b2 003e a9d7 9a3d 7ab9 43bd 604d ef3c
00000200: 5cbd 11b9 4b51 ae3d 33dd 003e d1a7 e63d
00000210: 791e 913d 7cb9 55be 88ab 2c3e cd8a 213e
00000220: 17dc 293e 3947 443e 76b4 6ebd 2f59 553c
00000230: f41e da3d eedc 4fbe 0238 c33d a791 81bd
00000240: 3cc3 1cbe 9176 05be badf 263e 3654 003e
00000250: 3275 0d3d 14e2 513e 00ab 103c 689e 37bc
00000260: 7fc1 38be 6802 22bc 3d07 bbbd d64c 0ebe
00000270: 896c 55be af04 a63d d046 7b3d 3cb9 e03d
00000280: 89a6 e03d f3bd 2fbd b4c6 093e 3e7b 003d
00000290: e6e3 ab3d a5ff 9cbd 7480 243e 03b0 43be
000002a0: 5225 30bc a5cd ba3d 0db9 46be 5987 dcbd
000002b0: 3d0f 3abe 23d4 40be 02ad f1bd 98f5 843d
000002c0: 9901 f73d fc38 c23d 52f9 e5bd 60b5 a3ba
000002d0: aace 20be 6d7c 2dbe 47ef 923c 4c03 6fbc
000002e0: 9310 1bbe b3ab 29be 45e4 c5bd 513e fb3c
000002f0: 27b2 11be 82ee 073e a958 b4bd 54be a43d
00000300: 815a 973d 539d 3d3e fcb0 96bd a4f0 c43d
00000310: 2bf8 f63c a319 e4bd 4583 f83d b89a 27be
00000320: 0a8e 56be a806 b53d f407 413d ce19 3a38
00000330: 9787 9bbd 63cd 4bbe e84e 903d 5446 4a3e
00000340: 436d 12be 81a8 20bc ce2c a63c 96d2 f3bd
00000350: 42c2 4abe 6a90 87bd 337b 3cbe 9ec9 d0bd
00000360: 9058 07be cd2d 2f3e 750d 093e b77c 3e3e
00000370: 963b 47be 6171 c83d 4927 fb3d 6e3a 423e
00000380: b97b d9bc 74f1 163e e073 1a3d f82d 763d
00000390: d8c0 b93d 65a3 333c b5de 473d cacc 423e
000003a0: 375f c23c 412b 17be 0e81 c2bd 3eb6 51be
000003b0: 9f12 03be bd47 5abe 111d 31be f47d 2abd
000003c0: 98cb 14be 16a3 45be 07d1 edbd 2191 163e
000003d0: 27ce abbd 302c c0bd 31be f83d d7b9 7639
000003e0: e4e1 81bd 28d1 983d afd0 f93d 11f8 c33d
000003f0: d7d4 5c3c 08fb 23be d69d 233e 3685 123d

main.1.weight f4 [256]
0.8526612 0.9936362 0.95719033 0.8631428 0.9278184 0.955716 0.95393485 0.8704349
0.8717271 1.0338936 0.84067994 0.869884 0.83668005 0.96646583 0.8973043 0.81175256
0.95158994 0.9698691 0.94952106 0.97602314 0.9730003 0.9837778 0.9074558 0.9376267
0.98102975 0.9713702 0.9848922 0.922071 0.96809864 0.92995894 0.89031565 0.8829692
0.9519621 0.9729452 0.88107467 0.98656416 0.90748274 0.8580274 0.97591645 0.8712163
0.9396232 0.917076 1.0387143 1.0023706 0.9125409 0.9725139 1.0242668 0.9453926
0.9752824 1.0369328 0.990166 0.92516136 0.84728014 0.9625073 1.019447 1.0092131
0.99187326 1.0298426 0.9482607 0.9416313 0.97561413 0.95139146 1.0098948 0.9210592
0.9129369 0.8876592 0.94813114 0.93231773 0.7907076 0.89656276 0.93169665 0.9072086
0.9783495 0.9533452 0.9195145 0.85853785 0.9428786 0.99126464 0.969645 0.99075884
1.0308563 0.9076561 0.8717085 0.9961614 0.83420545 0.8943132 0.90174544 0.90056926
0.9661519 1.0474554 0.8871856 0.88583785 1.0348837 0.92334473 0.9202519 0.8983904
0.8593062 1.0406365 0.9044328 0.945642 0.824296 0.88433033 0.970324 0.8883281
1.0074506 0.9256862 0.9600975 0.84595615 0.893052 1.0400585 0.9909783 1.0226892
0.8718807 0.99472743 0.9819398 0.9821032 0.99736035 1.0456125 0.9098987 0.9558469
0.7742204 0.95687675 0.9098485 0.9865877 0.9788929 1.0050435 1.0059651 0.97548866
1.0347787 0.8300976 0.98203105 1.0327609 0.9925304 1.0167084 1.0236276 0.9286947
0.9802208 0.8852913 1.0002776 0.9911827 1.0417954 0.88124996 0.97781575 0.96313083
0.9415192 0.9314472 0.91890883 0.9381461 0.94068897 0.9614767 0.8395988 1.0230802
0.88474274 1.0177879 0.75682825 0.94767785 0.8281471 0.88205516 0.89097106 0.9519286
0.96055555 0.9660325 0.86837476 0.942519 0.9561082 1.0062712 0.9959319 0.91059715
0.9834309 1.03753 0.91514456 0.97056794 0.971616 0.89407873 0.78389275 0.95869243
0.85261047 0.9558237 0.85590446 0.84491277 0.97398055 0.9084196 0.8858607 0.9732417
0.87007827 0.91521347 0.980376 0.9664671 0.9520622 0.914707 1.051202 0.8756239
0.9777889 1.0388008 0.8800257 0.9941932 0.937856 0.98454916 1.0122083 0.92492086
1.0148296 0.8574767 0.84038675 0.90532386 0.8990451 0.988135 0.8228763 0.912105
0.89531803 0.9850277 0.94658154 0.93653363 0.99410254 0.8583709 1.0337533 0.85468066
0.90492624 0.98280907 0.9807668 0.94028383 0.873947 0.8364077 0.7933491 0.98937666
0.95459276 0.9411726 0.8148867 0.9294335 0.9591354 0.99430835 0.881538 0.83624685
0.9531528 0.8398517 1.0266587 0.98346233 1.0527896 1.0150447 0.8283562 0.82143605
0.90950257 0.9051335 0.93462455 0.87714446 0.8771362 0.96032524 1.0251155 0.85694665
0.9389051 1.0295904 0.87064517 0.97104454 1.0350652 0.8521858 0.88627225 0.8440131
00000000: 0148 5a3f f15e 7e3f 6d0a 753f edf6 5c3f
00000010: 8285 6d3f cea9 743f 1335 743f d2d4 5e3f
00000020: 8229 5f3f a056 843f cd36 573f b8b0 5e3f
00000030: aa30 563f 4e6a 773f bcb5 653f 04cf 4f3f
00000040: 669b 733f 5749 783f d013 733f a7dc 793f
00000050: 8c16 793f ddd8 7b3f 064f 683f 4e08 703f
00000060: c424 7b3f b8ab 783f e521 7c3f d80c 6c3f
00000070: 50d5 773f ca11 6e3f baeb 633f 450a 623f
00000080: cab3 733f f012 793f 1c8e 613f 788f 7c3f
00000090: ca50 683f afa7 5b3f a9d5 793f 0808 5f3f
000000a0: 258b 703f 7ec5 6a3f 97f4 843f ae4d 803f
000000b0: 489c 693f acf6 783f 2d1b 833f 4005 723f
000000c0: 1bac 793f 37ba 843f 857b 7d3f 60d7 6c3f
000000d0: 5ae7 583f e166 763f 3d7d 823f e52d 813f
000000e0: 68eb 7d3f e2d1 833f 37c1 723f c00e 713f
000000f0: d9c1 793f 648e 733f 3c44 813f 89ca 6b3f
00000100: 3cb6 693f a23d 633f b9b8 723f 60ac 6e3f
00000110: d06b 4a3f 2385 653f ac83 6e3f d33e 683f
00000120: 1d75 7a3f 6e0e 743f 4d65 6b3f 23c9 5b3f
00000130: 7e60 713f 85c3 7d3f a83a 783f 5fa2 7d3f
00000140: 19f3 833f 265c 683f 4a28 5f3f 6f04 7f3f
00000150: 7d8e 553f b6f1 643f cad8 663f b58b 663f
00000160: bb55 773f 0513 863f 981e 633f 45c6 623f
00000170: 1277 843f 5260 6c3f a195 6b3f eafc 653f
00000180: 7efb 5b3f 9433 853f e888 673f 9815 723f
00000190: 1005 533f 7963 623f 2767 783f 7869 633f
000001a0: 24f4 803f c5f9 6c3f f3c8 753f 9590 583f
000001b0: 0e9f 643f a320 853f c1b0 7d3f 7be7 823f
000001c0: 9333 5f3f 75a6 7e3f 6860 7b3f 1e6b 7b3f
000001d0: 0253 7f3f a1d6 853f 1fef 683f 62b2 743f
000001e0: 4f33 463f e0f5 743f d5eb 683f 0391 7c3f
000001f0: ba98 7a3f 44a5 803f 77c3 803f a0b9 793f
00000200: a173 843f 4781 543f 6366 7b3f 8231 843f
00000210: 7916 7e3f 8023 823f 3b06 833f f0be 6d3f
00000220: c0ef 7a3f 73a2 623f 1909 803f 26be 7d3f
00000230: 8d59 853f 9999 613f 2252 7a3f be8f 763f
00000240: 6707 713f 5373 6e3f 9c3d 6b3f 582a 703f
00000250: fed0 703f 5623 763f f2ef 563f 4bf4 823f
00000260: 807e 623f e046 823f 7fbf 413f 049b 723f
00000270: 7301 543f 5ece 613f ae16 643f 98b1 733f
00000280: f8e6 753f e84d 773f cf4d 5e3f ed48 713f
00000290: 82c3 743f 7fcd 803f 65f5 7e3f e51c 693f
000002a0: 21c2 7b3f c8cd 843f ea46 6a3f 2477 783f
000002b0: d4bb 783f 58e2 643f 32ad 483f de6c 753f
000002c0: ae44 5a3f ddb0 743f 8e1c 5b3f 344c 583f
000002d0: ca56 793f 308e 683f c4c7 623f 5e26 793f
000002e0: 73bd 5e3f 6e4b 6a3f ecf9 7a3f 636a 773f
000002f0: 59ba 733f 3d2a 6a3f ca8d 863f e328 603f
00000300: 6050 7a3f 6df7 843f 5d49 613f 7283 7e3f
00000310: 5517 703f 6a0b 7c3f 0b90 813f 9dc7 6c3f
00000320: f0e5 813f 9883 5b3f 9623 573f 4ec3 673f
00000330: d227 663f 6af6 7c3f 05a8 523f b77f 693f
00000340: 9033 653f c62a 7c3f 2b53 723f abc0 6f3f
00000350: 817d 7e3f 32be 5b3f 0752 843f 5acc 5a3f
00000360: 3fa9 673f 6099 7b3f 8813 7b3f 71b6 703f
00000370: feba 5f3f d11e 563f ed18 4b3f ca47 7d3f
00000380: 3160 743f b0f0 703f 6a9c 503f 5bef 6d3f
00000390: e689 753f fe8a 7e3f 79ac 613f 4614 563f
000003a0: d201 743f 8500 573f 8d69 833f 30c4 7b3f
000003b0: cfc1 863f fcec 813f 270f 543f a249 523f
000003c0: 29d5 683f d4b6 673f 8e43 6f3f 8a8c 603f
000003d0: ff8b 603f e0d7 753f fc36 833f db60 5b3f
000003e0: 165c 703f 9ec9 833f 9ae2 5e3f 6096 783f
000003f0: 047d 843f d928 5a3f bde2 623f 3e11 583f

main.1.bias f4 [256]
-0.010995746 0.016533135 -0.14271007 -0.06633804 0.06452231 0.06865639 0.08625465 -0.1590873
-0.026802236 -0.13141435 -0.15710998 -0.03497051 -0.17123653 0.0016513488 -0.08448983 -0.18077746
-0.009652219 -0.15839453 -0.13405025 0.019857965 -0.19771492 0.05322849 -0.14729019 -0.08422769
-0.036661565 -0.13405907 -0.17718264 -0.04275031 0.026413688 -0.1255885 -0.060625345 -0.1586051
-0.09466813 0.105110474 -0.077006064 -0.21150906 -0.15085377 -0.017498998 -0.154425 -0.004360506
0.08940651 -0.17217894 -0.15626241 0.096352175 -0.0034987368 0.014236847 0.06940348 -0.16014421
0.090363465 0.07670755 0.103744194 0.070815526 -0.111932635 0.08641441 0.12135926 -0.12604691
0.068460174 0.059115693 0.07046679 0.036109682 0.05408406 0.1085478 -0.12787957 0.0025910167
0.009754408 -0.14241675 -0.24949418 -0.09417116 -0.0824279 0.001498641 0.011331229 -0.11089285
0.180648 0.03616288 -0.05699457 -0.120785505 -0.064754196 -0.19998708 -0.15067744 0.026828771
-0.22696075 -0.19497666 -0.1827032 -0.07440081 -0.15574296 -0.12748967 -0.013099506 -0.19853768
-0.19461936 -0.13764302 -0.13167155 -0.1760495 -0.1904072 0.035079915 -0.11915314 -0.13244283
-0.03243362 0.109122016 -0.17548469 -0.22966826 -0.14368543 -0.19368757 0.035376742 -0.08019152
0.08664392 -0.18130909 -0.1787395 -0.1680388 -0.04371603 0.04822657 -0.20169735 -0.1244974
-0.0444635 -0.17655039 0.039530244 -0.07918839 -0.260598 -0.1414424 -0.042973816 -0.022423446
-0.20591144 -0.13917094 -0.12259652 -0.09279233 0.039149024 -0.15514545 0.06455107 -0.20374069
-0.16637835 -0.0017816325 -0.19905545 -0.11698468 0.035085857 0.1529393 -0.08653503 0.029571556
0.0357553 -0.14254422 -0.07793241 0.020817092 0.093361855 -0.08343223 0.04988023 0.14349066
-0.07479477 -0.15520482 0.022307137 0.06588724 0.050558835 0.10873174 -0.20874046 -0.15937345
-0.10265865 0.074793115 -0.20790946 0.076725915 -0.23683453 -0.20590632 -0.042458303 0.0011123341
0.05627412 0.077754125 -0.08601277 0.088078916 -0.18540989 0.036110733 -0.17612283 0.038425762
-0.10061433 -0.15806894 -0.004686053 0.040745165 0.037253756 -0.17508973 -0.1974631 -0.106692486
-0.14127254 -0.11103625 0.0114812115 0.0012806437 0.098754935 -0.19553275 -0.17127252 -0.20316102
-0.11776114 -0.16345327 0.010159165 -0.14508817 0.11450738 -0.01901192 0.042123657 -0.21235542
-0.004341199 -0.08658889 -0.14137755 -0.09381313 0.051186223 0.09995424 -0.109132774 0.033678956
-0.15690055 -0.0179102 -0.056579333 -0.022645464 -0.0340375 0.014621653 -0.24351336 -0.16610564
-0.0075157117 0.07670881 -0.16120914 0.10970725 0.086942814 -0.1193416 0.03697558 -0.0587653
-0.12546968 -0.08688645 -0.20126188 -0.02727676 -0.0057852697 -0.20234857 -0.15355669 0.052861486
-0.13661751 0.07349825 -0.1789604 -0.0051607676 0.17594512 0.024150101 -0.03510945 -0.11132259
-0.13279106 -0.13887374 0.07187286 -0.12909497 -0.14626156 -0.1498724 -0.0633567 -0.18945923
-0.1013598 -0.037957836 0.051798437 -0.032895844 -0.10781682 -0.22728756 -0.13157703 -0.10103051
-0.1304241 -0.1364419 -0.1584434 0.02397775 -0.21100083 -0.10743059 -0.1324169 -0.16283178
00000000: 8027 34bc 7f70 873c 9722 12be 3ddc 87bd
00000010: 4624 843d b99b 8c3d 47a6 b03d c8e7 22be
00000020: 5d90 dbbc 7c91 06be 70e1 20be 3d3d 0fbd
00000030: a158 2fbe 1272 d83a 0109 adbd ba1d 39be
00000040: 5724 1ebc 2d32 22be 7844 09be 2cad a23c
00000050: c875 4abe 1e06 5a3d 3dd3 16be 917f acbd
00000060: 702a 16bd c846 09be 5e6f 35be f31a 2fbd
00000070: 8561 d83c 469a 00be 4852 78bd 6069 22be
00000080: 5de1 c1bd 2944 d73d 5bb5 9dbd d595 58be
00000090: 6979 1abe 0f5a 8fbc 9621 1ebe 93e2 8ebb
000000a0: c31a b73d ad4f 30be 4103 20be 4a54 c53d
000000b0: 104b 65bb aa41 693c 6923 8e3d d8fc 23be
000000c0: 7b10 b93d d918 9d3d d677 d43d bb07 913d
000000d0: f03c e5bd 0afa b03d 348b f83d 7112 01be
000000e0: d934 8c3d 4c23 723d e450 903d bfe7 133d
000000f0: 3f87 5d3d 4f4e de3d ddf2 02be 0cce 293b
00000100: f4d0 1f3c b2d5 11be 677b 7fbe cfdc c0bd
00000110: f5cf a8bd 0c6e c43a 9ea6 393c ca1b e3bd
00000120: cafb 383e 871f 143d 2373 69bd 645e f7bd
00000130: d99d 84bd 6ac9 4cbe 304b 1abe 03c8 db3c
00000140: 6668 68be f6a7 47be 8c16 3bbe 745f 98bd
00000150: 157b 1fbe a78c 02be 4f9f 56bc 764d 4bbe
00000160: 4c4a 47be 4bf2 0cbe e8d4 06be 5246 34be
00000170: 1bfa 42be f5af 0f3d 9006 f4bd 189f 07be
00000180: 1ed9 04bd 5d7b df3d 42b2 33be 282e 6bbe
00000190: 4622 13be 0956 46be 34e7 103d 743b a4bd
000001a0: 5e72 b13d 17a9 39be 7d07 37be 5d12 2cbe
000001b0: 940f 33bd 3989 453d c089 4ebe 7ef8 febd
000001c0: 5c1f 36bd a0c9 34be 77ea 213d 862d a2bd
000001d0: 1a6d 85be 47d6 10be 5005 30bd 60b1 b7bc
000001e0: 73da 52be d482 0ebe e213 fbbd e809 bebd
000001f0: ba5a 203d 73de 1ebe 5a33 843d 66a1 50be
00000200: 165f 2abe ab85 e9ba 31d5 4bbe aa95 efbd
00000210: 30b6 0f3d 1f9c 1c3e 4739 b1bd 0c40 f23c
00000220: 2674 123d 1df7 11be 079b 9fbd 9b88 aa3c
00000230: 8034 bf3d 84de aabd 364f 4c3d 37ef 123e
00000240: 002e 99bd 03ee 1ebe 75bd b63c e4ef 863d
00000250: c816 4f3d bfae de3d 0fc0 55be cb32 23be
00000260: b33e d2bd 222d 993d 38e6 54be 7a22 9d3d
00000270: c084 72be 1bd9 52be c2e8 2dbd bdcb 913a
00000280: b17f 663d 8e3d 9f3d 7727 b0bd b862 b43d
00000290: 17dc 3dbe d9e8 133d 8b59 34be 5564 1d3d
000002a0: e30e cebd d3dc 21be 768d 99bb 67e4 263d
000002b0: 6597 183d b94a 33be c433 4abe 9781 dabd
000002c0: c0a9 10be f966 e3bd b11b 3c3c 46db a73a
000002d0: 0740 ca3d bd39 48be 1062 2fbe 7109 50be
000002e0: c12c f1bd 4b60 27be a072 263c fe91 14be
000002f0: d882 ea3d e3be 9bbc db89 2c3d b373 59be
00000300: 9e40 8ebb 8455 b1bd 47c5 10be 1921 c0bd
00000310: a5a8 513d cfb4 cc3d 0181 dfbd f2f2 093d
00000320: 8aaa 20be 69b8 92bc bbbf 67bd fb82 b9bc
00000330: e86a 0bbd a88f 6f3c 915b 79be 9917 2abe
00000340: 5c46 f6bb 8219 9d3d 0214 25be 32ae e03d
00000350: 130f b23d 5e69 f4bd b573 173d e2b3 70bd
00000360: 207b 00be 86f1 b1bd 9817 4ebe 8373 dfbc
00000370: 5c92 bdbb 7734 4fbe f73d 1dbe 4985 583d
00000380: 76e5 0bbe 4086 963d 6541 37be a81b a9bb
00000390: f52a 343e 6fd6 c53c edce 0fbd 19fd e3bd
000003a0: 61fa 07be eb34 0ebe 1432 933d 7931 04be
000003b0: 97c5 15be 2778 19be 28c1 81bd 9a01 42be
000003c0: ba95 cfbd ad79 1bbd 992a 543d cbbd 06bd
000003d0: 11cf dcbd 12be 68be 21bc 06be 16e9 cebd
000003e0: e58d 05be 6db7 0bbe fd3e 22be fd6c c43c
000003f0: 9a10 58be 9204 dcbd 4c98 07be 60bd 26be

main.1.running_mean f4 [256]
-0.037031155 -0.032644004 0.09388083 0.061253093 0.062293094 -0.1121776 0.2247262 0.19226943
-0.11155822 -0.06531888 -0.19736955 0.009167196 0.18764126 0.066275194 0.12640521 -0.17209974
0.1036224 0.07198268 -0.028292228 -0.16662826 -0.033613794 0.1739286 -0.12924132 -0.042971373
0.2049975 0.015092211 0.16080113 -0.12720475 -0.11206296 0.07435712 -0.1347701 -0.17286898
-0.031617064 -0.06753415 0.10612873 -0.18386394 -0.17547747 -0.06544536 -0.115509726 -0.10524399
-0.07732946 0.13712575 0.06532501 -0.15831536 0.22333305 0.11956887 -0.032298557 0.09057398
0.08449538 0.13977331 -0.11209349 -0.022158831 -0.061633892 -0.08008376 -0.087357424 -0.19951063
-0.011317158 0.06215445 -0.14613959 -0.0576298 -0.054838758 0.09259982 -0.12610927 0.13783665
0.17565936 -0.03250815 0.16873898 0.13219255 -0.19091673 -0.2132381 0.06234253 0.107842624
-0.10255967 -0.10779633 -0.15632018 -0.12989105 -0.17506424 -0.21688363 -0.01614884 0.040477313
-0.08032949 0.021254027 0.2109336 0.058009714 0.121601716 0.10721751 0.19344474 -0.062375627
-0.058528252 0.020439852 0.031280827 -0.016051702 -0.06481026 0.09475773 0.05921617 -0.05757085
-0.08926413 -0.056571852 -0.046599306 0.12729785 -0.11472969 0.103498 -0.2072596 -0.07063065
0.1699522 -0.21107917 0.06802444 0.0535222 -0.02195616 0.1875627 -0.21778911 -0.13926171
-0.20932804 -0.15276732 0.09744564 -0.068671666 -0.070098884 0.128044 -0.015283141 -0.12808491
0.10366895 0.010769159 -0.17887816 -0.11582696 0.14079675 0.068345174 -0.03474883 0.023649016
0.00067196926 0.09694763 0.09993936 0.11052404 0.074118756 -0.18702091 0.17744482 0.17497435
0.16545919 0.17898613 -0.05568303 0.010944124 0.11806897 -0.19569317 0.098049834 -0.046620302
-0.14907882 -0.12940712 0.16433443 0.127158 0.03726751 0.2052692 0.0044979453 -0.029749513
-0.16701895 -0.017816834 -0.0900738 -0.124130204 -0.21254173 0.08597 0.08062753 0.11928014
0.11891515 -0.049029242 0.14727974 0.022487428 0.078729585 -0.06649047 0.15498818 -0.18609759
-0.0021917964 0.09424829 -0.16392948 -0.084496066 -0.17722596 -0.19209848 -0.12004726 0.051623896
0.1322385 0.079869255 -0.109833285 -0.004501581 -0.15294938 -0.1843687 0.013986113 -0.03299547
-0.13387406 -0.19259262 -0.09709616 0.01287665 -0.12469619 0.13345775 -0.08473215 0.08506466
0.089105666 0.18130967 -0.09150059 0.094827265 0.029040638 -0.0998458 0.114528984 -0.16758572
-0.20893905 0.08974593 0.07568187 0.00869324 -0.07981339 -0.20735607 0.059386317 0.1916313
-0.15470862 -0.01055358 0.012606484 -0.10055467 -0.21651141 -0.05609501 -0.19056502 -0.09970006
-0.13774842 0.15463686 0.12400998 0.20697947 -0.18400897 0.06284832 0.13291253 0.18333839
-0.043166712 0.14259677 0.047121182 0.056091398 0.11574436 0.024429357 0.04373562 0.17888412
0.034014665 -0.13692589 -0.09557473 -0.21755266 -0.12797068 -0.20520176 -0.15629266 -0.052641682
-0.14842182 -0.18265158 -0.11251323 0.14735486 -0.06625434 -0.102971435 0.12099208 0.019596588
-0.07028298 0.07592227 0.13298836 0.09872933 0.006707635 -0.1414292 0.16727673 0.019207379
00000000: fbad 17bd b8b5 05bd 9844 c03d 86e4 7a3d
00000010: 0b27 7f3d 5fbd e5bd a01e 663e 47e2 443e
00000020: a378 e4bd e8c5 85bd 3e1b 4abe 0232 163c
00000030: 0825 403e 4abb 873d 5e70 013e ea3a 30be
00000040: fb37 d43d a86b 933d 1ac5 e7bc 99a0 2abe
00000050: 9eae 09bd 571a 323e d657 04be c002 30bd
00000060: ddea 513e 5245 773c 0da9 243e f641 02be
00000070: 4481 e5bd 8c48 983d 2c01 0abe 9104 31be
00000080: e580 01bd 584f 8abd 055a d93d d446 3cbe
00000090: 5eb0 33be 3808 86bd 5d90 ecbd 298a d7bd
000000a0: e85e 9ebd b16a 0c3e 1ec9 853d 6c1d 22be
000000b0: 6bb1 643e 86e0 f43d 7e4b 04bd da7e b93d
000000c0: ea0b ad3d bc20 0f3e 4691 e5bd 7086 b5bc
000000d0: d273 7cbd f402 a4bd 73e8 b2bd 844c 4cbe
000000e0: 9a6b 39bc aa95 7e3d 9ea5 15be 3a0d 6cbd
000000f0: 9b9e 60bd f9a4 bd3d ca22 01be 0d25 0d3e
00000100: 0ce0 333e 4427 05bd e9c9 2c3e 7c5d 073e
00000110: ad7f 43be 175b 5abe e15a 7f3d 98dc dc3d
00000120: ce0a d2bd 52c4 dcbd 6612 20be 2902 05be
00000130: 0a44 33be be16 5ebe 924a 84bc 8acb 253d
00000140: ca83 a4bd ed1c ae3c fafe 573e 989b 6d3d
00000150: 520a f93d db94 db3d 6116 463e 967d 7fbd
00000160: 52bb 6fbd 7a71 a73c 5320 003d dc7e 83bc
00000170: 3ebb 84bd 5710 c23d a88c 723d 69cf 6bbd
00000180: 1dd0 b6bd e3b7 67bd eade 3ebd 5e5a 023e
00000190: 66f7 eabd c2f6 d33d dc3b 54be cda6 90bd
000001a0: f307 2e3e 2325 58be 6650 8b3d 183a 5b3d
000001b0: 68dd b3bc 7010 403e 1c04 5fbe 9f9a 0ebe
000001c0: 175a 56be 096f 1cbe 9491 c73d bba3 8cbd
000001d0: 0190 8fbd f71d 033e 2466 7abc b128 03be
000001e0: 6350 d43d 2071 303c d62b 37be af36 edbd
000001f0: 062d 103e 8ef8 8b3d ca54 0ebd 95bb c13c
00000200: 1827 303a 7b8c c63d 02ad cc3d 6e5a e23d
00000210: 93cb 973d 6982 3fbe 18b4 353e 7a2c 333e
00000220: 226e 293e 2448 373e e413 64bd fc4e 333c
00000230: 25ce f13d ca63 48be 5ace c83d eef4 3ebd
00000240: 1ea8 18be 4d83 04be 4947 283e b535 023e
00000250: d1a5 183d 1732 523e 8063 933b 40b5 f3bc
00000260: 0407 2bbe 9cf4 91bc 9d78 b8bd fa37 febd
00000270: 8aa4 59be 0a11 b03d 0c20 a53d 2549 f43d
00000280: c989 f33d e3d2 48bd 80d0 163e 8e37 b83c
00000290: fa3c a13d 282c 88bd 39b5 1e3e 5e90 3ebe
000002a0: 3ea4 0fbb 3f05 c13d 21dd 27be 460c adbd
000002b0: b97a 35be 77b5 44be 56db f5bd 9473 533d
000002c0: 8869 073e 7e92 a33d 46f0 e0bd 0082 93bb
000002d0: c39e 1cbe 26cb 3cbe 0226 653c 4226 07bd
000002e0: 4816 09be 0037 45be 5ada c6bd 96f8 523c
000002f0: b760 ffbd 26a9 083e 0d88 adbd 6136 ae3d
00000300: 087d b63d 3ea9 393e a964 bbbd cc34 c23d
00000310: a2e6 ed3c f47b ccbd 2c8e ea3d 979b 2bbe
00000320: 1ef4 55be b7cc b73d 19ff 9a3d 176e 0e3c
00000330: 3475 a3bd 2655 54be 113f 733d ff3a 443e
00000340: f06b 1ebe ece8 2cbc 6d8b 4e3c 9bef cdbd
00000350: 2bb5 5dbe e2c3 65bd 7a23 43be 8c2f ccbd
00000360: ec0d 0dbe 2059 1e3e f2f8 fd3d 6df2 533e
00000370: d96c 3cbe 9fb6 803d 391a 083e 0fbd 3b3e
00000380: 94cf 30bd e304 123e 2402 413d 18c0 653d
00000390: 610b ed3d 1320 c83c 1f24 333d 662d 373e
000003a0: f652 0b3d 4d36 0cbe afbc c3bd 20c6 5ebe
000003b0: bf0a 03be 6920 52be 2f0b 20be ce9e 57bd
000003c0: e4fb 17be 0409 3bbe 566d e6bd 31e4 163e
000003d0: 5bb0 87bd b0e2 d2bd b2ca f73d 0689 a03c
000003e0: 86f0 8fbd 237d 9b3d 1a2e 083e 9a32 ca3d
000003f0: b8cb db3b d1d2 10be 974a 2b3e cb58 9d3c

main.1.running_var f4 [256]
0.24963224 0.29034045 0.39312732 0.67172605 0.2271843 0.47689024 0.40636685 0.33723187
0.5374354 0.45890597 0.2740194 0.47805446 0.404309 0.3512906 0.24577796 0.8345648
0.25964412 0.2543652 0.44491667 0.289119 0.46837702 0.35614914 0.59781724 0.2936448
0.27818978 0.42671007 0.2945234 0.38250607 0.37724957 0.45109636 0.311405 0.47852007
0.20671183 0.2603957 0.4467441 0.5628194 0.3572209 0.47767064 0.117632195 0.35290566
0.31920388 0.27309927 0.1722327 0.26020375 0.28067052 0.14089985 0.44160312 0.550004
0.3375526 0.17310011 0.3435383 0.41527328 0.6225281 0.18965513 0.29316983 0.23759188
0.20212631 0.53272635 0.6139177 0.42341956 0.23798294 0.42441484 0.26687875 0.49909383
0.34646544 0.41618034 0.67458653 0.45694402 0.26525375 0.60291636 0.47346458 0.3577755
0.5015761 0.32626122 0.4426874 0.4069699 0.25114256 0.36309427 0.2596752 0.3580666
0.32452768 0.58077765 0.4185189 0.2603935 0.25145993 0.2691671 0.71324104 0.19955234
0.21238226 0.1869556 0.23288521 0.3614242 0.22295253 0.29208353 1.4150316 0.49364775
0.8665288 0.36164775 0.71321493 0.2568856 0.25517988 0.50959814 0.21294062 0.49633873
0.34661466 0.5509323 0.34389657 1.1917248 0.5461291 0.36546063 0.8090138 0.34592825
0.2974401 0.22348367 0.3960733 0.760032 0.2962703 0.41291547 0.3831946 0.31024066
0.5483251 0.26174414 0.21142775 0.19854085 0.4233685 0.69938767 0.38231945 0.49823427
0.28159505 0.31614095 0.31389353 0.55894744 0.27981675 0.3278713 0.5222605 0.40171874
0.67964727 0.30507386 0.3199499 0.2115213 0.43775353 0.36985534 0.42902687 0.49129885
0.37136137 0.32794532 0.35337803 0.25514895 0.37787142 0.98896086 0.29015645 0.28699884
0.21082589 0.1649572 0.83020145 0.22402646 0.19278266 0.7389634 0.21945575 0.39964408
0.3254124 0.22454019 0.6058623 0.2803561 0.95468885 0.28384802 0.24585873 0.38897127
0.38580447 0.46262005 0.6159845 0.254428 0.61341023 0.17420274 1.2043089 0.7339269
1.0136949 0.3048377 0.22479221 0.33192685 0.37405854 0.90690714 0.664345 0.26064005
0.33198133 0.50502545 0.45005816 0.50017786 0.48935187 0.27416763 0.35827845 0.62455
0.4524285 0.14107533 1.0933762 0.4295267 0.3284387 0.5477403 0.3273456 0.49796176
0.23812287 0.54638547 0.5321313 0.5461697 0.27180868 0.2532261 0.33730963 0.2534572
0.2870788 0.2722426 0.5263772 0.36585444 0.2668084 0.5532385 0.39497373 0.321431
0.47704947 0.59460586 0.29591897 0.4863967 0.28316084 2.1626813 0.5747396 0.35854977
0.43014598 0.37506223 0.6995539 0.52653205 0.47651508 0.2097118 0.5644746 0.6532886
0.3142292 0.4659717 0.2160829 0.5458764 0.20244978 0.39659458 0.83702207 1.149428
0.35815716 1.2251867 0.4895008 0.47398448 0.86868775 0.47909114 0.42067632 0.9549718
0.30531615 0.15477094 0.7276224 0.30575544 0.4647295 0.36305863 0.27923796 0.8747865
00000000: 989f 7f3e 81a7 943e fc47 c93e 3df6 2b3f
00000010: 00a3 683e f52a f43e 510f d03e a8a9 ac3e
00000020: 5e95 093f b9f5 ea3e 454c 8c3e 8ec3 f43e
00000030: 9701 cf3e 5ddc b33e 38ad 7b3e 0aa6 553f
00000040: 13f0 843e 283c 823e 1ecc e33e 6807 943e
00000050: 1dcf ef3e 2e59 b63e 8d0a 193f 9c58 963e
00000060: e46e 8e3e be79 da3e c5cb 963e d6d7 c33e
00000070: db26 c13e 1af6 e63e 7a70 9f3e 9500 f53e
00000080: 44ac 533e 9652 853e a5bb e43e ef14 103f
00000090: a8e5 b63e 3f91 f43e 26e9 f03d 0db0 b43e
000000a0: b16e a33e abd3 8b3e c55d 303e 6d39 853e
000000b0: 0cb4 8f3e 0d48 103e ce19 e23e 10cd 0c3f
000000c0: b2d3 ac3e 2841 313e 41e4 af3e b39e d43e
000000d0: 005e 1f3f f434 423e 5b1a 963e 494b 733e
000000e0: 33fa 4e3e c160 083f b629 1d3f 73ca d83e
000000f0: cdb1 733e e74c d93e 55a4 883e 3a89 ff3e
00000100: eb63 b13e 9715 d53e b4b1 2c3f 91f4 e93e
00000110: 57cf 873e ba58 1a3f f369 f23e 5a2e b73e
00000120: 4b67 003f b60b a73e eca7 e23e 5c5e d03e
00000130: c295 803e 7ee7 b93e 26f4 843e 8154 b73e
00000140: 7e28 a63e d8ad 143f 1c48 d63e 4c52 853e
00000150: 5bbf 803e 45d0 893e f796 363f 7357 4c3e
00000160: bc7a 593e 4a71 3f3e 7679 6e3e 980c b93e
00000170: ab4d 643e f98b 953e c11f b53f 66bf fc3e
00000180: d5d4 5d3f e529 b93e 4195 363f 8286 833e
00000190: f0a6 823e 0675 023f 1b0d 5a3e 1c20 fe3e
000001a0: 7a77 b13e e609 0d3f 3613 b03e 708a 983f
000001b0: 1ecf 0b3f a81d bb3e 871b 4f3f 821d b13e
000001c0: 124a 983e e7d8 643e 1fca ca3e 7591 423f
000001d0: beb0 973e a869 d33e 1532 c43e ddd7 9e3e
000001e0: 095f 0c3f 5403 863e 8480 583e 4b4e 4b3e
000001f0: c2c3 d83e 120b 333f 60bf c33e 9018 ff3e
00000200: 3a2d 903e 3add a13e a7b6 a03e 2e17 0f3f
00000210: 2444 8f3e bfde a73e ddb2 053f 14ae cd3e
00000220: 5dfd 2d3f a432 9c3e 79d0 a33e 0a99 583e
00000230: 3b21 e03e ae5d bd3e 69a9 db3e 868b fb3e
00000240: 1423 be3e 73e8 a73e f7ed b43e e2a2 823e
00000250: 5d78 c13e 8a2c 7d3f 638f 943e 83f1 923e
00000260: bee2 573e 8aea 283e 1588 543f 3167 653e
00000270: d168 453e b52c 3d3f 02b9 603e 269e cc3e
00000280: 749c a63e dded 653e cb19 1b3f d68a 8f3e
00000290: 7d66 743f 8754 913e 64c2 7b3e 3e27 c73e
000002a0: 2a88 c53e 89dc ec3e 29b1 1d3f 6344 823e
000002b0: 7408 1d3f 3462 323e cb26 9a3f a2e2 3b3f
000002c0: c1c0 813f b013 9c3e ee2f 663e 51f2 a93e
000002d0: 9a84 bf3e 112b 683f 8412 2a3f 9d72 853e
000002e0: 75f9 a93e 5949 013f 066e e63e a80b 003f
000002f0: 548c fa3e b35f 8c3e 4670 b73e 82e2 1f3f
00000300: b5a4 e73e 0d76 103e c0f3 8b3f ecea db3e
00000310: 1e29 a83e b538 0c3f d899 a73e d8f4 fe3e
00000320: 7bd6 733e ebdf 0b3f c239 083f c7d1 0b3f
00000330: 822a 8b3e daa6 813e d9b3 ac3e 24c5 813e
00000340: fefb 923e 6263 8b3e a8c0 063f 4651 bb3e
00000350: 1c9b 883e 0aa1 0d3f ff39 ca3e 9b92 a43e
00000360: d43f f43e 1738 183f b182 973e fd08 f93e
00000370: 75fa 903e 5f69 0a40 2222 133f d693 b73e
00000380: 183c dc3e 2808 c03e f715 333f ceca 063f
00000390: c9f9 f33e b1be 563e 6881 103f ec3d 273f
000003a0: a6e2 a03e d893 ee3e d644 5d3e 8ebe 0b3f
000003b0: ff4e 4f3e 720e cb3e 1447 563f 7520 933f
000003c0: 6060 b73e ebd2 9c3f d99f fa3e 18ae f23e
000003d0: 5262 5e3f 6f4b f53e e362 d73e 0879 743f
000003e0: 6652 9c3e 467c 1e3e 7645 3a3f fa8b 9c3e
000003f0: 06f1 ed3e d2e2 b93e 47f8 8e3e 02f2 5f3f

main.4.weight f4 [96, 256]
0.018530466 0.0054708226 -0.06807942 -0.04507666 -0.012231033 0.011265277 0.030516066 -0.0062041963
0.033047106 -0.06308344 0.098035894 -0.013596838 0.021748275 0.021381434 0.023027506 -0.00434404
0.0023345882 -0.10707429 -0.02509547 0.003101586 0.00467674 0.05099207 -0.015251516 0.084384724
0.013962401 -0.017332591 -0.038858492 -0.07816139 0.0005862064 0.016262602 -0.07842344 -0.089561045
-0.11038444 0.054754864 0.0071084145 -0.013763354 -0.054135136 -0.027625574 -0.017697146 0.057118814
0.07513843 -0.1078352 -0.0054991664 0.031500943 -0.016591303 -0.0031470144 0.09792651 -0.04256346
0.04053353 -0.008546088 0.069156915 -0.0077662542 -0.0122554 0.00615089 -0.032515544 -0.10187604
0.09206951 0.05141237 7.747905e-06 0.024200276 0.05934474 -0.0041631376 -0.037674252 0.025981594
0.027122296 -0.06558161 -0.05071988 -0.052217457 0.0049935086 0.083886795 -0.01976935 0.015604843
0.06911514 0.041179977 0.012004767 -0.003447967 0.06470009 0.007981967 -0.07080256 0.027591938
-0.026170822 -0.020942252 -0.08247093 -0.072147615 0.006983075 -0.019151347 -0.036602683 -0.030928362
-0.038088627 -0.13800521 -0.014922323 -0.019817919 -0.06234304 0.0072614904 -0.027525038 0.04090452
-0.041862465 0.03331374 -0.077018686 0.022249091 -0.04541217 -0.01902566 -0.022474863 -0.028616564
0.080969684 -0.071131594 0.021044197 0.0009454144 0.01675038 0.039639615 0.070372455 -0.09383549
-0.034090765 -0.067081384 0.03541564 -0.06052109 0.004712418 -0.08817893 -0.021862937 0.0046870844
-0.04463543 -0.04283704 -0.061455153 -0.040898826 0.08400751 -0.08139039 0.100086674 0.039044216
-0.01176717 0.0284966 -0.087801896 -0.041370105 0.018628648 0.051207356 0.0068422677 0.04139859
-0.010713348 0.029170398 -0.05199262 0.07134498 0.11723368 0.0480011 0.046914145 -0.033557083
0.011463142 -0.017102163 -0.054541323 -0.02435414 -0.047299325 0.06018927 -0.08134686 -0.07638792
-0.08760617 0.024344862 -0.0051058778 0.0397974 0.069977306 0.015610891 -0.067106135 0.08408151
-0.00016957102 0.0057372595 0.0029104 -0.01615278 -0.024740161 0.01511916 -0.017854687 -0.06271515
-0.119540974 -0.089486375 -0.00062723167 0.09042035 -0.06894104 -0.07802404 0.057845235 -0.002880401
-0.017825577 -0.061708953 0.028122766 -0.024122953 0.0639409 -0.02726703 -0.06888695 -0.023177404
0.00016099092 0.0559303 0.07619208 0.012431454 -0.011942252 -0.03541996 0.07834346 0.04189513
0.023154855 -0.0025335983 0.0015975488 -4.8824586e-05 -0.022502892 0.04234276 -0.077958554 0.057423774
0.015684243 0.04001848 -0.052069146 -0.0024071434 0.07595989 0.018937996 0.011413925 0.022349568
-0.025241926 0.01277883 0.07158578 -0.028480226 0.094318174 -0.022745965 0.10359266 -0.023803998
-0.018103357 -0.05727498 -0.008304104 -0.033041228 0.008360226 -0.089095466 0.031140406 0.07860284
-0.08782377 0.03259059 -0.0714084 -0.0024141166 0.0285692 -0.047055554 -0.03134079 0.011559444
-0.028584288 0.019032456 0.056877043 -0.05637326 -0.08428697 0.014097104 -0.025589932 -0.021623263
-0.011142773 0.048491076 0.043695517 0.05505168 -0.002325996 0.009583467 -0.025970692 -0.0834657
-0.064316496 -0.021188935 -0.034147356 0.00022010002 0.02413157 -0.04524798 0.0014699089 -0.003791704
00000000: 34cd 973c 9644 b33b 396d 8bbd 4ea2 38bd
00000010: ac64 48bc ff91 383c d4fc f93c 924c cbbb
00000020: 675c 073d e431 81bd 0bc7 c83d 46c5 5ebc
00000030: 7029 b23c 1e28 af3c 2ea4 bc3c 7358 8ebb
00000040: e4ff 183b c449 dbbd 0495 cdbc fa43 4b3b
00000050: 573f 993b 10dd 503d 7fe1 79bc e6d1 ac3d
00000060: 8ec2 643c 14fd 8dbc 152a 1fbd 1413 a0bd
00000070: a5ab 193a 2639 853c 789c a0bd c86b b7bd
00000080: 3d11 e2bd a346 603d b4ed e83b b17f 61bc
00000090: cebc 5dbd 074f e2bc 9bf9 90bc 6bf5 693d
000000a0: 2de2 993d b4d8 dcbd 5a32 b4bb 2207 013d
000000b0: 7cea 87bc 243e 4ebb b28d c83d 0657 2ebd
000000c0: 7d06 263d e404 0cbc 24a2 8d3d 107c febb
000000d0: e0ca 48bc 688d c93b 052f 05bd 63a4 d0bd
000000e0: f08e bc3d c795 523d 00fd 0137 a83f c63c
000000f0: 7813 733d ee6a 88bb 5150 1abd 5ad7 d43c
00000100: 942f de3c a74f 86bd a6bf 4fbd f9e1 55bd
00000110: 96a0 a33b d7cc ab3d 55f3 a1bc 75ab 7f3c
00000120: 3d8c 8d3d 56ac 283d a4af 443c 4af7 61bb
00000130: 7b81 843d ccc6 023c ef00 91bd 7d08 e23c
00000140: 3164 d6bc 168f abbc 85e6 a8bd 21c2 93bd
00000150: 47d2 e43b 49e3 9cbc b2ec 15bd 7a5d fdbc
00000160: d202 1cbd 3d51 0dbe c27c 74bc 3059 a2bc
00000170: 6a5b 7fbd ccf1 ed3b 307c e1bc 7f8b 273d
00000180: fa77 2bbd fd73 083d f9bb 9dbd ba43 b63c
00000190: 1d02 3abd b3db 9bbc 341d b8bc 496d eabc
000001a0: 6fd3 a53d 71ad 91bd e164 ac3c b0d5 773a
000001b0: 1838 893c 265d 223d 6f1f 903d d22c c0bd
000001c0: c2a2 0bbd f761 89bd fd0f 113d f6e4 77bd
000001d0: a16a 9a3b 2897 b4bd e719 b3bc 1d96 993b
000001e0: a4d3 36bd e475 2fbd 66b8 7bbd 8785 27bd
000001f0: 210c ac3d 01b0 a6bd 3efa cc3d d4ec 1f3d
00000200: 17cb 40bc b471 e93c 7bd1 b3bd b373 29bd
00000210: 1b9b 983c cebe 513d 1a35 e03b 9191 293d
00000220: 0a87 2fbc c2f6 ee3c 37f6 54bd 511d 923d
00000230: 3618 f03d cd9c 443d 0c29 403d 2773 09bd
00000240: e7cf 3b3c d619 8cbc b966 5fbd 5582 c7bc
00000250: f0bc 41bd 0689 763d 2f99 a6bd 4571 9cbd
00000260: dd6a b3bd e06e c73c 354f a7bb 9902 233d
00000270: 4350 8f3d d3c4 7f3c f16e 89bd ed32 ac3d
00000280: e0ce 31b9 9fff bb3b 69bc 3e3b d652 84bc
00000290: e1ab cabc 5ab6 773c fe43 92bc cd70 80bd
000002a0: e6d1 f4bd a244 b7bd ce6c 24ba 4e2e b93d
000002b0: f630 8dbd 11cb 9fbd 20ef 6c3d 1cc5 3cbb
000002c0: f206 92bc 87c2 7cbd b761 e63c 809d c5bc
000002d0: 72f3 823d 1b5f dfbc 9a14 8dbd 8ade bdbc
000002e0: accf 2839 2c17 653d 980a 9c3d 4cad 4b3c
000002f0: 6fa9 43bc 8514 11bd 8972 a03d 3a9a 2b3d
00000300: 40af bd3c ba0a 26bb d864 d13a 00c9 4cb8
00000310: fc57 b8bc 9a6f 2d3d bca8 9fbd 3135 6b3d
00000320: 3e7c 803c 6bea 233d 7546 55bd 2ac1 1dbb
00000330: dc90 9b3d db23 9b3c 7901 3b3c 7116 b73c
00000340: 28c8 cebc 4c5e 513c 919b 923d 5d4f e9bc
00000350: e329 c13d bf55 babc 6328 d43d 9a00 c3bc
00000360: 7e4d 94bc 2b99 6abd f00d 08bc 3d56 07bd
00000370: 54f9 083c af77 b6bd 2a1a ff3c 87fa a03d
00000380: f3dc b3bd b67d 053d 913e 92bd 2836 1ebb
00000390: f409 ea3c 53bd 40bd 335f 00bd d263 3d3c
000003a0: 9929 eabc f4e9 9b3c e7f7 683d a6e7 66bd
000003b0: a69e acbd 8af7 663c faa1 d1bc 4523 b1bc
000003c0: 2d90 36bc 949e 463d 12fa 323d df7d 613d
000003d0: bd6f 18bb f903 1d3c 7dc0 d4bc 11f0 aabd
000003e0: 5eb8 83bd 6b94 adbc 19de 0bbd a6ca 6639
000003f0: 92af c53c f255 39bd f5a9 c03a 3d7e 78bb

main.4.bias f4 [96]
0.129362 -0.17568547 0.20342599 0.17530976 0.08224382 -0.115980394 0.090432264 0.058384914
0.060659327 0.047430974 0.21952602 0.11922838 -0.19373448 -0.08408505 0.034274783 0.1083575
0.07184918 -0.2015155 -0.24060358 -0.15643531 0.12215234 0.06442771 -0.13839635 0.054023087
-0.17051369 -0.20787714 -0.17598285 -0.18299644 -0.10211396 -0.16695063 0.18649903 0.13573654
-0.10651479 0.027061544 0.18387283 0.13480414 0.22918557 0.10616709 -0.053112105 -0.12942493
0.09380021 -0.1369201 -0.10855005 0.050332367 -0.11243982 -0.18995237 -0.13695148 -0.03487406
-0.12674859 -0.008441647 -0.14141284 0.14577809 0.07899155 -0.107140966 -0.23987773 0.06058131
0.14116028 -0.16166145 -0.20399475 -0.029478444 -0.12081198 0.17592311 -0.20664315 0.021851178
0.12150257 0.10104503 -0.11573491 -0.030743418 -0.089306206 -0.013762816 0.081512116 0.1223451
-0.047630146 -0.22374366 -0.1927147 0.13213165 -0.017002331 -0.07386489 0.22179084 0.1293545
-0.08183417 -0.06448017 0.12388845 -0.13554211 -0.11644293 0.06461999 -0.12985216 -0.013262774
-0.011055898 0.18747383 -0.22760388 -0.14642653 -0.12340792 -0.022963563 0.17055494 -0.0018018839
00000000: 7977 043e e4e6 33be e74e 503e 6784 333e
00000010: 736f a83d 2187 edbd 8d34 b93d 0525 6f3d
00000020: ea75 783d fb46 423d 6ecb 603e 022e f43d
00000030: 5562 46be c834 acbd b763 0c3d 89ea dd3d
00000040: aa25 933d 145a 4ebe c960 76be 9430 20be
00000050: 022b fa3d adf2 833d c6b7 0dbe 5047 5d3d
00000060: 249b 2ebe bfdd 54be d934 34be 6b63 3bbe
00000070: 2021 d1bd 1bf5 2abe 9af9 3e3e 85fe 0a3e
00000080: 6d24 dabd 2cb0 dd3c 2949 3c3e 190a 0a3e
00000090: 9faf 6a3e 226e d93d 148c 59bd f887 04be
000000a0: 531a c03d c834 0cbe 7d4f debd 5029 4e3d
000000b0: d946 e6bd e082 42be 023d 0cbe 1ad8 0ebd
000000c0: 62ca 01be d54e 0abc 87ce 10be da46 153e
000000d0: 52c6 a13d b96c dbbd 82a2 75be 1c24 783d
000000e0: 528c 103e 948a 25be 00e4 50be c77c f1bc
000000f0: 456c f7bd 3025 343e 439a 53be 3e01 b33c
00000100: 57d6 f83d b2f0 ce3d 6d06 edbd 9fd9 fbbc
00000110: 2ce6 b6bd 6f7d 61bc d3ef a63d 1190 fa3d
00000120: d417 43bd 0f1d 65be 0157 45be 854d 073e
00000130: 7948 8bbc 7a46 97bd 231d 633e 8275 043e
00000140: ac98 a7bd 2e0e 84bd 3ab9 fd3d 8dcb 0abe
00000150: a279 eebd 7c57 843d f7f7 04be 1b4c 59bc
00000160: cc23 35bc 24f9 3f3e fe10 69be d6f0 15be
00000170: 4bbd fcbd 151e bcbc f4a5 2e3e 312d ecba

main.6.weight f4 [1, 96]
-0.0010381403 0.042437553 -0.035807554 -0.0037198868 -0.023603668 -0.013057274 -0.029128477 -0.0012169123
-0.005055832 -0.019620258 -0.011579191 -0.00083267567 0.02134906 0.013811648 -0.0029676855 -0.0047207717
0.005755733 0.020863295 0.02851772 0.009563153 -0.010543735 -0.0006316571 0.005746365 -0.008488065
0.00710771 0.011337631 0.035508107 0.007352733 0.00091923383 0.007642018 -0.03532743 -0.017954871
-0.006273491 0.0035222778 -0.03878421 -0.02752034 -0.042052235 -0.00046692102 0.010545908 0.005294755
-0.02118693 0.0046187635 0.027814902 0.010092495 0.007206398 0.015036625 0.02250019 0.003392458
0.029249571 0.017635694 0.015089581 -0.00027013262 -0.005431314 -0.00092260854 0.056002118 -0.004893176
-0.009905778 0.011748223 0.004029105 -0.006485938 0.011849673 -0.0038636534 0.024620108 0.00919755
-0.0016881037 -0.00786378 0.015966544 0.007177776 0.012105795 0.006492869 -0.0016446211 -0.021650687
0.0021485887 0.010879071 0.019528713 -0.017659575 0.0019548335 0.018720284 0.0012213539 0.002749904
0.0019245679 -0.0030650129 -0.037021652 0.0025019753 0.015721805 -0.007598999 -0.004773125 -0.0069038514
0.002514857 -0.022307593 0.05942709 -0.0013811329 0.027145844 0.0030386243 0.00559201 0.00012452231
00000000: 3512 88ba 00d3 2d3d f1aa 12bd 58c9 73bb
00000010: 7b5c c1bc 2dee 55bc d89e eebc cd80 9fba
00000020: 65ab a5bb aaba a0bc a6b6 3dbc eb47 5aba
00000030: 39e4 ae3c 404a 623c 807d 42bb b4b0 9abb
00000040: 969a bc3b 80e9 aa3c fe9d e93c c5ae 1c3c
00000050: a1bf 2cbc ca95 25ba 014c bc3b 8611 0bbc
00000060: cbe7 e83b 79c1 393c f370 113d 32ef f03b
00000070: bdf8 703a e569 fa3b 7fb3 10bd 1816 93bc
00000080: db91 cdbb 04d6 663b 31dc 1ebd 5672 e1bc
00000090: f73e 2cbd 14cd f4b9 bec8 2c3c a07f ad3b
000000a0: 3690 adbc ff58 973b 14dc e33c fe5a 253c
000000b0: a623 ec3b 2d5c 763c 5252 b83c 0054 5e3b
000000c0: cc9c ef3c bb78 903c 4a3a 773c 96a0 8db9
000000d0: 2af9 b1bb 36db 71ba 7a62 653d ef56 a0bb
000000e0: d84b 22bc 9e7b 403c 9506 843b fe87 d4bb
000000f0: 2225 423c 5935 7dbb 1cb0 c93c 52b1 163c
00000100: 5c43 ddba 15d7 00bc 45cc 823c 8d33 eb3b
00000110: 6257 463c 22c2 d43b 5490 d7ba c85c b1bc
00000120: 56cf 0c3b 223e 323c aefa 9f3c d0aa 90bc
00000130: aa1c 003b 485b 993c d615 a03a bc37 343b
00000140: c841 fc3a 62de 48bb 04a4 17bd 2ef8 233b
00000150: 04cb 803c 0601 f9bb e067 9cbb b439 e2bb
00000160: 4dd0 243b 6abe b6bc d269 733d 2107 b5ba
00000170: f660 de3c a823 473b 2e3d b73b 3492 0239
