fl_experiment_20260116_153133/central_nn.pth (torch, 20085 bytes, 9 tensors)

main.0.weight f4 [64, 23]
0.58175886 0.078968845 -0.32511795 0.07855459 0.20428544 -0.29137722 -0.86782014 -0.25241163
-0.15064952 0.055875517 -0.3561922 0.0052346024 -0.37047434 -0.08735073 -0.13282748 0.06208102
-0.30674142 -0.5601251 -0.09790018 0.20966306 -0.40231517 0.03554457 0.15754567 0.18894067
-0.19607607 -0.17375363 0.03543366 0.11459635 -0.29209283 0.14252818 0.32917514 -0.011518011
-0.53205943 0.16720042 -1.229151 -0.43920347 -0.28218377 -0.05926486 0.14905146 -0.0012291295
-0.2557727 -0.6024918 -0.36957288 -0.029501552 -0.33217692 0.08159175 0.55845547 0.14411657
0.35521105 -0.00057725917 -0.03150037 -0.69290495 -0.21057801 -0.20069653 -0.047824636 0.08521477
0.020456862 0.31942824 -0.060747884 0.018825628 -0.18369265 -0.15607975 0.22034107 0.12835266
0.0024298462 -0.25090933 0.088549756 0.12000485 0.11811168 0.27417707 0.07142646 -0.25418532
-0.19330357 -0.097159036 -0.19172122 -0.28678104 0.06421608 -0.031336047 0.11596088 0.0049321493
0.05958322 0.096403465 -0.011622731 -0.13022372 -0.3377747 -0.1134809 -0.1507861 -0.0043978198
0.026994502 -0.5121116 -0.18586877 0.11277758 0.08414617 0.017026154 -0.164254 0.08580485
0.13627635 1.7404567 -0.0067341924 0.020980136 -0.14011113 0.022257164 0.0428544 0.1188485
-0.017553432 -0.11416947 -0.08791654 0.15432654 0.02428688 -0.2001441 0.25897983 -0.19804202
0.07426947 -0.43276557 0.05609567 0.24061118 -0.020301001 0.4234635 -0.42128855 0.16628201
-0.42411646 -0.26576653 0.049457163 -0.13932449 0.1974194 0.122510515 0.3515217 0.1955367
-0.025680821 -0.03901635 -0.042211756 0.40013 5.5651646e-05 0.0041146027 0.04626865 0.17575994
0.21802281 -0.19929193 0.15076359 0.15764576 -0.25532684 -0.20124498 -0.06732246 -0.8641887
0.30785587 -0.4024799 3.103772e-05 0.30226636 -0.1516948 -0.16345917 -0.046921454 -0.09580116
-0.127883 -0.1569842 -0.18205264 -1.1313386 0.15172124 0.0032774317 -0.057629727 -0.32728243
-0.14473528 0.59086424 0.2564559 0.028264057 0.13423033 -0.15030067 -0.5400695 -0.20170061
-0.1750672 -0.0013711704 0.12897588 -0.007945024 0.23962033 0.09381016 -0.04200545 -0.0816287
0.0885909 0.25339797 -0.16399476 0.27017784 0.166265 -0.026866544 0.3664239 0.15449092
-0.029447224 0.043298442 -0.21119818 0.1549681 0.15192705 1.7270496 0.14409292 0.22316937
-0.18624714 0.13691624 -0.16873656 0.0119516365 0.050451566 0.0016995076 0.018079504 -0.09575911
-0.05637271 0.25387532 -0.10397123 -0.007648546 0.30769148 -0.14567587 -0.07702948 -0.031106304
-0.3421199 -1.074487 0.12240207 -0.08461469 -0.3559726 -0.0010726426 -0.45515403 -0.11799824
-0.1741991 0.17919606 0.09096617 -0.1786759 0.0040522553 -0.03873631 -0.2921487 0.31521416
0.06645152 0.3061438 0.07812556 0.084564626 0.09546297 0.07679152 -0.44365758 0.03202815
-0.1638273 -0.009470329 -0.000345588 1.3078467 0.11248907 0.54404205 0.3308001 -0.03737753
-0.007720945 0.10130975 0.0611913 0.03342957 0.11447627 -0.019075684 0.0017044984 -0.22624739
0.33202848 0.05612515 -0.10253494 0.2654601 -0.06662729 -0.23950094 -0.44410825 -0.13967453
00000000: 26ee 143f 6bba a13d dc75 a6be 3be1 a03d
00000010: 3430 513e 652f 95be 7629 5ebf 193c 81be
00000020: de43 1abe badd 643d d35e b6be 0787 ab3b
00000030: d0ae bdbe f1e4 b2bd ed03 08be ab48 7e3d
00000040: 360d 9dbe 5c64 0fbf e47f c8bd eab1 563e
00000050: 41fc cdbe 2f97 113d a753 213e aa79 413e
00000060: 2ac8 48be 79ec 31be e322 113d 7eb1 ea3d
00000070: 318d 95be e8f2 113e a589 a83e 0ab6 3cbc
00000080: 0c35 08bf 9636 2b3e d254 9dbf 47df e0be
00000090: 647a 90be b6bf 72bd f2a0 183e be1a a1ba
000000a0: a4f4 82be e73c 1abf a838 bdbe 3dad f1bc
000000b0: 1813 aabe 9319 a73d f0f6 0e3f 4b93 133e
000000c0: 39de b53e 3553 17ba 8806 01bd 3862 31bf
000000d0: c3a1 57be 6483 4dbe c4e3 43bd 1585 ae3d
000000e0: 2695 a73c 198c a33e c6d2 78bd 3438 9a3c
000000f0: ed19 3cbe 5fd3 1fbe 17a1 613e e16e 033e
00000100: 0e3e 1f3b 3077 80be 9359 b53d 1ac5 f53d
00000110: 89e4 f13d f060 8c3e 0948 923d 9424 82be
00000120: 5ff1 45be 51fb c6bd 9152 44be f7d4 92be
00000130: b883 833d 3a5a 00bd e67c ed3d de9d a13b
00000140: 890d 743d 2e6f c53d 446d 3ebc 5e59 05be
00000150: cef0 acbe ad68 e8bd ac67 1abe 961b 90bb
00000160: 9323 dd3c bf19 03bf 6254 3ebe eff7 e63d
00000170: d454 ac3d 6f7a 8b3c 3332 28be 74ba af3d
00000180: 078c 0b3e 49c7 de3f 80aa dcbb 89de ab3c
00000190: 4b79 0fbe a854 b63c 1888 2f3d d866 f33d
000001a0: 37cc 8fbc afd1 e9bd 960d b4bd c707 1e3e
000001b0: 47f5 c63c 93f2 4cbe 0199 843e 87cb 4abe
000001c0: 981a 983d 7393 ddbe 93c4 653d c762 763e
000001d0: 494e a6bc 35d0 d83e 22b3 d7be d545 2a3e
000001e0: cb25 d9be 8d12 88be 9893 4a3d 14ab 0ebe
000001f0: 5028 4a3e cbe6 fa3d a7fa b33e c63a 483e
00000200: 9660 d2bc 9ccf 1fbd 3ce6 2cbd d7dd cc3e
00000210: 806b 6938 cad3 863b 3284 3d3d 6afa 333e
00000220: 5f41 5f3e 2f13 4cbe c561 1a3e e46d 213e
00000230: 33ba 82be 2a13 4ebe 5ce0 89bd 783b 5dbf
00000240: 499f 9d3e d811 cebe 802e 0238 a8c2 9a3e
00000250: e255 1bbe d761 27be b630 40bd 6633 c4bd
00000260: c3f3 02be 77c0 20be 026c 3abe b4cf 90bf
00000270: d05c 1b3e 2eca 563b 260d 6cbd 9091 a7be
00000280: 7c35 14be e142 173f 304e 833e 068a e73c
00000290: ad73 093e 6be8 19be ff41 0abf 9b8a 4ebe
000002a0: d144 33be d8b8 b3ba 4112 043e d92b 02bc
000002b0: 085f 753e 8b1f c03d e80d 2cbd f32c a7bd
000002c0: 256f b53d 61bd 813e 3eee 27be c054 8a3e
000002d0: 5f41 2a3e 3a17 dcbc ea9b bb3e de32 1e3e
000002e0: 4e3b f1bc b559 313d 5644 58be f5af 1e3e
000002f0: c492 1b3e f60f dd3f 188d 133e 8386 643e
00000300: 92b7 3ebe c533 0c3e 47c9 2cbe ccd0 433c
00000310: 4da6 4e3d 03c2 de3a 781b 943c 5a1d c4bd
00000320: 12e7 66bd f2fb 813e deee d4bd a7a0 fabb
00000330: bd89 9d3e 0e2c 15be a2c1 9dbd a6d2 febc
00000340: 572a afbe ca88 89bf f0ad fa3d 774a adbd
00000350: 0a42 b6be ea97 8cba f309 e9be 10a9 f1bd
00000360: 4061 32be 2c7f 373e 794c ba3d d1f6 36be
00000370: c8c8 843b f7a9 1ebd 8494 95be c063 a13e
00000380: bc17 883d e1be 9c3e 4b00 a03d 3830 ad3d
00000390: 1782 c33d df44 9d3d 1627 e3be f32f 033d
000003a0: 58c2 27be 7029 1bbc 0930 b5b9 8567 a73f
000003b0: ab60 e63d 5746 0b3f a15e a93e 2e19 19bd
000003c0: fbff fcbb 7c7b cf3d bba3 7a3d 72ed 083d
000003d0: 8972 ea3d 9c44 9cbc 7a69 df3a 65ad 67be
000003e0: a3ff a93e 7ce3 653d d7fd d1bd 63ea 873e
000003f0: e373 88bd bc3f 75be 2862 e3be d706 0fbe

main.0.bias f4 [64]
-0.037501402 0.020119926 -0.06568173 -0.18374401 -0.13218503 0.04682883 0.0069725467 0.15099034
-0.2102645 0.025924811 0.14635763 0.18073653 -0.0062073525 -0.20103045 -0.18745175 0.13838843
0.1875707 0.1881953 0.086099364 0.018090917 0.10954015 -0.094412476 0.19741322 -0.12437098
-0.11960062 -0.05057736 0.033890795 -0.1189056 0.02392452 -0.18242307 0.15613988 -0.12345102
-0.08853553 -0.00653951 -0.015512347 0.024404047 0.0002032886 -0.06875877 -0.029488401 -0.044877537
0.15368684 -0.05224908 -0.12267446 0.13609539 -0.16003153 0.10325285 0.09447883 -0.17164885
-0.017473225 0.007988745 0.07190418 0.1007136 -0.03986573 0.18377098 -0.14057556 0.18567328
-0.015556906 0.094835036 -0.088049516 -0.20088167 -0.027652124 0.20321377 -0.15206914 0.12655786
00000000: 129b 19bd 8bd2 a43c 2584 86bd 6427 3cbe
00000010: 835b 07be 96cf 3f3d f679 e43b 369d 1a3e
00000020: 944f 57be 4560 d43c c6de 153e ff12 393e
00000030: 0c67 cbbb edda 4dbe 5af3 3fbe b2b5 0d3e
00000040: 8912 403e 45b6 403e dd54 b03d 6733 943c
00000050: 9656 e03d 545b c1bd b126 4a3e 36b6 febd
00000060: 2bf1 f4bd 352a 4fbd 13d1 0a3d c784 f3bd
00000070: 5bfd c33c 1dcd 3abe 22e3 1f3e e3d3 fcbd
00000080: 1e52 b5bd 6349 d6bb 8027 7ebc ffea c73c
00000090: de29 5539 66d1 8cbd a991 f1bc 82d1 37bd
000000a0: 1560 1d3e 2203 56bd bf3c fbbd 975c 0b3e
000000b0: 4edf 23be 3b76 d33d 1e7e c13d b7c4 2fbe
000000c0: 0224 8fbc 3ae3 023c 8042 933d ef42 ce3d
000000d0: 3f4a 23bd 762e 3c3e 0af3 0fbe 2321 3e3e
000000e0: 65e2 7ebc df38 c23d 4e53 b4bd edb3 4dbe
000000f0: b586 e2bc 4517 503e 03b8 1bbe 6298 013e

main.1.weight f4 [64]
0.74626243 0.8116903 0.32475036 0.23727427 0.9031371 0.5356044 0.7955558 0.2048821
0.78473836 0.59795374 0.7814023 0.608558 0.8374091 0.53487086 0.4675933 0.7929751
0.7495947 0.8226247 0.77481604 0.52815956 0.31615847 0.49517062 0.55194587 0.8329608
0.43473953 0.38307893 0.38685685 0.24905547 0.2893885 0.766165 0.34867233 0.4626028
0.75847304 0.32309458 0.29691097 0.70612365 0.60352683 0.4774345 0.81788594 0.39296854
0.73005074 0.40453637 0.77537173 0.46565753 0.24865653 0.3768881 0.77705723 0.87621653
0.22057198 0.9358001 0.31302083 0.57710177 0.60685563 1.060514 0.49342987 0.47025287
0.73687947 0.83737737 0.6672529 0.20266907 0.71115434 0.39728543 0.68857914 0.7877322
00000000: 0e0b 3f3f efca 4f3f ae45 a63e 07f8 723e
00000010: fe33 673f 5f1d 093f 8ba9 4b3f 9dcc 513e
00000020: 9de4 483f 7f13 193f fb09 483f 75ca 1b3f
00000030: 7160 563f 4ced 083f 6468 ef3e 6b00 4b3f
00000040: 70e5 3f3f 8897 523f 585a 463f 7735 073f
00000050: 86df a13e 0187 fd3e 534c 0d3f eb3c 553f
00000060: 2e96 de3e ec22 c43e 1a12 c63e 6608 7f3e
00000070: bb2a 943e 6423 443f 2e85 b23e 46da ec3e
00000080: 4a2b 423f a76c a53e b704 983e 85c4 343f
00000090: bc80 1a3f 4b72 f43e f960 513f 2c33 c93e
000000a0: 9be4 3a3f 641f cf3e c37e 463f aa6a ee3e
000000b0: d19f 7e3e 7af7 c03e 39ed 463f ba4f 603f
000000c0: 9fdd 613e 9890 6f3f 4444 a03e f1bc 133f
000000d0: e45a 1b3f ecbe 873f d7a2 fc3e fcc4 f03e
000000e0: 22a4 3c3f 5d5e 563f 16d1 2a3f 7b88 4f3e
000000f0: 360e 363f ff68 cb3e b946 303f d1a8 493f

main.1.bias f4 [64]
-0.51324224 -0.33156702 0.41036886 -0.26785153 -0.24697398 -0.037748855 -0.42156318 0.23051582
-0.12430837 0.06867862 -0.19467218 -0.6647015 -0.2158191 -0.08707111 0.11591909 -0.21149322
-0.36795235 -0.25201017 -0.37346396 -0.036902357 0.4615816 0.2895703 0.28495586 -0.39782777
0.21522379 0.10799064 -0.3549499 0.03094488 -0.34261563 -0.18762036 0.21599396 0.42711106
-0.3486619 0.23416595 0.2509179 -0.6528326 -0.13008201 -0.009314389 -0.17323282 -0.07226211
-0.21200468 -0.53567165 -0.38433188 0.09691221 -0.16219872 -0.014526012 -1.3973099 -0.3347972
0.15369014 -0.42547083 0.38611597 -0.60139525 -0.42970198 -0.33957854 -0.40255708 -0.062492117
-0.1538694 -0.20164344 -0.25357407 -0.29161334 -0.46845403 -0.41800067 -0.46608213 -0.35643837
00000000: d863 03bf 27c3 a9be de1b d23e d623 89be
00000010: bfe6 7cbe 8b9e 1abd 21d7 d7be 570c 6c3e
00000020: 6395 febd 60a7 8c3d 2558 47be e129 2abf
00000030: afff 5cbe 5752 b2bd fd66 ed3d ae91 58be
00000040: 4064 bcbe 7a07 81be ab36 bfbe ed26 17bd
00000050: 6c54 ec3e 8f42 943e bce5 913e 15b0 cbbe
00000060: a063 5c3e 322a dd3d febb b5be 1e80 fd3c
00000070: 516b afbe 8d1f 40be 852d 5d3e 4dae da3e
00000080: d083 b2be 33c9 6f3e 5078 803e 0a20 27bf
00000090: 3834 05be 619b 18bc f263 31be 28fe 93bd
000000a0: c117 59be c721 09bf 26c7 c4be e979 c63d
000000b0: 6c17 26be 83fe 6dbc 0ddb b2bf 8a6a abbe
000000c0: f360 1d3e 50d7 d9be feb0 c53e 0af5 19bf
000000d0: e601 dcbe 3ddd adbe f61b cebe bcf7 7fbd
000000e0: f18f 1dbe 9e7b 4ebe 76d4 81be 584e 95be
000000f0: 35d9 efbe 2f04 d6be 51a2 eebe 177f b6be

main.1.running_mean f4 [64]
-0.07348585 0.035150908 -0.07980619 -0.20681389 -0.0893712 0.08204217 0.023422303 0.1296708
-0.19733933 -0.04663755 0.17729765 0.17424726 0.035693265 -0.27406427 -0.17613462 0.13735123
0.16712797 0.14389661 0.06847795 0.0330603 0.08913644 -0.08112231 0.24988678 -0.14350632
-0.11604442 -0.12593678 0.05835655 -0.05954912 0.024370804 -0.11143947 0.11063945 -0.14665094
-0.08684328 -0.020221831 -0.039543476 0.07434466 -0.083732046 -0.05172027 0.042008717 -0.020062953
0.19224334 0.020693172 -0.16554248 0.094670646 -0.19517381 0.04267013 0.14987943 -0.1350797
-0.07795949 0.0024140347 0.03618421 0.06369082 -0.03517924 0.22534953 -0.10259833 0.1672086
-0.028073672 0.11608286 -0.06728792 -0.19305924 0.035323143 0.209016 -0.18594472 0.1095723
00000000: c07f 96bd 66fa 0f3d 6e71 a3bd 05c7 53be
00000010: 3f08 b7bd ba05 a83d 21e0 bf3c 6cc8 043e
00000020: 5213 4abe 0407 3fbd 848d 353e e06d 323e
00000030: 1a33 123d 2752 8cbe a25c 34be cda5 0c3e
00000040: 9823 2b3e a259 133e 2b3e 8c3d 3d6a 073d
00000050: 2a8d b63d 7423 a6bd 52e2 7f3e 52f3 12be
00000060: b2a8 edbd 92f5 00be 4707 6f3d c7e9 73bd
00000070: 48a5 c73c 603a e4bd f096 e23d aa2b 16be
00000080: e4da b1bd 41a8 a5bc 57f8 21bd 0342 983d
00000090: b57b abbd a2d8 53bd 5511 2c3d 105b a4bc
000000a0: 70db 443e ba84 a93c f883 29be afe2 c13d
000000b0: a5db 47be e0c6 2e3d fe79 193e 5552 0abe
000000c0: 3aa9 9fbd c834 1e3b e535 143d 5570 823d
000000d0: 1b18 10bd 07c2 663e 131f d2bd bb38 2b3e
000000e0: c2fa e5bc dabc ed3d 40ce 89bd 52b1 45be
000000f0: 00af 103d 4a08 563e 4b68 3ebe 7167 e03d

main.1.running_var f4 [64]
5.428642 4.791581 1.8915765 0.8971919 3.443798 1.8319182 2.8537667 2.2133534
3.7351196 2.600138 5.138091 1.644392 2.5593085 1.9503008 1.6422137 3.325616
5.0034556 1.8252945 1.8339429 1.3772055 2.6119041 3.1616611 1.6618693 2.1058755
1.9771913 1.937252 1.5484935 2.1582549 1.2590762 4.5649037 1.7698866 3.3728864
7.5777154 1.9898292 1.3814133 3.3166478 1.6683139 1.0500498 3.9910645 1.0123867
3.299566 2.2090416 1.9983004 1.7715793 1.6147385 1.780614 7.9089856 3.2253892
1.9102727 1.8223987 2.7975926 1.2957473 1.8714516 4.358941 1.6054338 2.458842
7.2524724 4.1368523 5.034091 1.1918257 2.41763 1.4016849 2.9907975 4.0170627
00000000: 6fb7 ad40 a254 9940 2e1f f23f 5eae 653f
00000010: 3067 5c40 4c7c ea3f 1da4 3640 95a7 0d40
00000020: 330c 6f40 a968 2640 3e6b a440 707b d23f
00000030: b6cb 2340 75a3 f93f 0f34 d23f e4d6 5440
00000040: 4f1c a040 40a3 e93f a4be ea3f 4548 b03f
00000050: 7029 2740 a858 4a40 22b8 d43f aac6 0640
00000060: 9b14 fd3f e0f7 f73f 0935 c63f d920 0a40
00000070: 6929 a13f b113 9240 a58b e23f 5fdd 5740
00000080: a57c f240 b9b2 fe3f 27d2 b03f f543 5440
00000090: 4f8b d53f 0868 863f 9a6d 7f40 e395 813f
000000a0: 172c 5340 f060 0d40 4fc8 ff3f 1cc3 e23f
000000b0: c0af ce3f 29eb e33f 6916 fd40 c76c 4e40
000000c0: d183 f43f 5c44 e93f c20b 3340 0cdb a53f
000000d0: ba8b ef3f 727c 8b40 db7e cd3f ab5d 1d40
000000e0: 4114 e840 1861 8440 4617 a140 bf8d 983f
000000f0: 73ba 1a40 696a b33f 3a69 3f40 c78b 8040

main.4.weight f4 [32, 64]
-0.098032035 0.014878928 0.08126067 -0.003453626 -0.15449536 0.0688878 -0.08733674 -0.044331845
-0.14196095 0.09758517 0.15197696 0.14135163 0.24690562 -0.11908542 -0.27820358 -0.019086236
0.021179345 0.07162485 -0.24699144 -0.11369745 -0.12385544 0.22416516 0.07089146 0.10026608
0.035660308 0.024343358 -0.1149571 -0.038449798 0.012033863 -0.045493584 0.26215252 -0.15331975
-0.1596424 -0.09466552 -0.06949042 -0.36239505 -0.033566248 0.07885617 -0.06468224 0.05440053
0.1955116 -0.0789325 0.031657226 0.06339353 -0.15361404 0.10377897 0.39131507 -0.3085377
-0.17188539 -0.015374933 -0.09120727 0.18200171 -0.025277976 0.063264154 0.04606382 -0.024804804
0.18290454 0.03275999 0.32157668 -0.14298865 0.079068914 -0.07520972 -0.30177477 -0.14314961
-0.076465555 -0.14019085 0.3126692 -0.090813465 -0.03040132 0.23721157 -0.35888338 0.057481114
-0.21795148 0.14195631 -0.16605765 -0.0979317 -0.24516702 0.14922208 0.039804984 0.012811907
-0.15747829 -0.20776455 -0.09059451 0.03171583 0.042622454 -0.2580878 -0.007837915 -0.2358045
0.035122883 0.018369328 -0.014258368 0.1370316 -0.20745367 0.031068357 0.12753189 0.17995748
-0.15992817 0.07028183 0.24067457 -0.28028825 0.064733796 0.00037490873 -0.16043381 0.014108243
-0.25890574 0.12183006 -0.30144808 0.06591599 -0.08448891 0.16903661 0.7978635 -0.18432787
-0.0108687505 -0.22920135 0.0772245 -0.06659363 -0.12640072 -0.18311474 0.08494359 -0.2874904
-0.28358573 -0.116065614 -0.06582108 0.15101989 -0.21099187 0.04623546 -0.14964572 -0.39287177
0.06933375 -0.056145296 -0.011641164 0.13299519 0.24623182 0.0060427478 0.025813326 0.019518852
0.11199352 -0.13125496 0.23864104 0.18622528 0.23795466 -0.026473222 -0.22837034 0.22973663
0.2196154 0.111855544 0.14043178 -0.057425335 -0.12425537 -0.07720258 -0.12818061 0.1625187
0.0024074866 0.01097831 0.0013086906 0.039622836 0.12767033 0.116924874 -0.04393433 -0.042963944
0.012273496 0.02672409 -0.03098049 0.31024778 0.06090807 -0.027139189 0.1506265 -0.10906663
0.18489623 -0.006431347 0.14493355 0.035604402 0.017153058 -0.0088582635 -0.7949251 0.1782666
-0.04703922 0.122660525 0.09864023 0.13706398 0.15001309 0.09480798 -0.15981458 0.051672135
0.108354956 0.17210734 0.10748852 -0.030881267 -0.04222479 0.022619067 0.20460485 0.27773976
0.23890235 0.07066449 0.005085545 -0.07710456 0.18605222 0.06041866 -0.0064462265 -0.20488727
0.0014145237 -0.13295648 -0.010332213 0.21854973 0.029719276 -0.13723901 -0.07155173 0.24081616
0.0089763915 0.2272901 0.2594322 -0.12907146 -0.11574612 -0.25307932 -0.18962377 0.059192836
-0.13206609 -0.1851757 0.21131301 0.039235875 0.20836891 0.10852985 -0.062620245 -0.14398612
-0.0031634083 -0.12524831 -0.06989738 0.22885315 -0.06455761 0.06604591 0.23819606 -0.037682913
0.10842092 -0.20245989 0.17654955 -0.09068036 -0.08746316 -0.060907327 -0.79793996 0.15726016
-0.11325107 0.24004485 -0.20190881 0.13593528 0.14607985 0.05572702 -0.09888581 0.13357264
-0.043062918 0.057780907 0.03559313 0.0016173127 0.26955172 0.06824084 0.13091157 0.12280626
00000000: 05c5 c8bd bfc6 733c ff6b a63d 3b56 62bb
00000010: 0834 1ebe 0c15 8d3d 9bdd b2bd 4f95 35bd
00000020: 365e 11be bcda c73d d99f 1b3e 7bbe 103e
00000030: d4d4 7c3e 0fe3 f3bd b370 8ebe bd5a 9cbc
00000040: 4e80 ad3c 0db0 923d 53eb 7cbe 35da e8bd
00000050: eca7 fdbd 8d8b 653e 8b2f 913d 4d58 cd3d
00000060: 8b10 123d b96b c73c a16e ebbd 897d 1dbd
00000070: ae29 453c 7b57 3abd db38 863e daff 1cbe
00000080: 4c79 23be ffdf c1bd fe50 8ebd d88b b9be
00000090: c37c 09bd 587f a13d 1f78 84bd 17d3 5e3d
000000a0: 3134 483e 5da7 a1bd 02ab 013d 78d4 813d
000000b0: 004d 1dbe 128a d43d 735a c83e a7f8 9dbe
000000c0: b902 30be 25e7 7bbc e1ca babd a85e 3a3e
000000d0: c213 cfbc a390 813d 6bad 3c3d 7233 cbbc
000000e0: 544b 3b3e 572f 063d b3a5 a43e 9e6b 12be
000000f0: e2ee a13d 8e07 9abd 3982 9abe d095 12be
00000100: f999 9cbd 318e 0fbe 2d16 a03e 69fc b9bd
00000110: 300c f9bc 97e7 723e 90bf b7be 5171 6b3d
00000120: ac2e 5fbe ff5c 113e 040b 2abe 6a90 c8bd
00000130: 100d 7bbe accd 183e 8d0a 233d 08e9 513c
00000140: fd41 21be 3bc0 54be 9d89 b9bd 75e8 013d
00000150: e294 2e3d 1624 84be 996a 00bc bc76 71be
00000160: 03dd 0f3d 467b 963c ee9b 69bc 0352 0c3e
00000170: bc6e 54be 1183 fe3c b897 023e c646 383e
00000180: 36c4 23be ecef 8f3d 6573 763e f181 8fbe
00000190: 2793 843d 668f c439 c348 24be 4326 673c
000001a0: 4b8f 84be 0a82 f93d 6757 9abe f6fe 863d
000001b0: 8608 adbd ef17 2d3e c840 4c3f 72c0 3cbe
000001c0: d812 32bc c2b3 6abe e127 9e3d 3e62 88bd
000001d0: 316f 01be 6e82 3bbe e8f6 ad3d f131 93be
000001e0: 2632 91be cfb3 edbd 34cd 86bd f5a4 1a3e
000001f0: 410e 58be 6561 3d3d ba3c 19be 7d26 c9be
00000200: dafe 8d3d 9cf8 65bd 95ba 3ebc e42f 083e
00000210: 3224 7c3e 3e02 c63b 7876 d33c 00e6 9f3c
00000220: dc5c e53d b367 06be 515e 743e d7b1 3e3e
00000230: 63aa 733e 5fde d8bc ead9 69be 1440 6b3e
00000240: dce2 603e 8514 e53d 59cd 0f3e d436 6bbd
00000250: 9979 febd 631c 9ebd c741 03be 4d6b 263e
00000260: ecc6 1d3b 5fde 333c 5f88 ab3a 8e4b 223d
00000270: 03bc 023e 4f76 ef3d 7cf4 33bd f6fa 2fbd
00000280: c616 493c 7bec da3c ccca fdbc ccd8 9e3e
00000290: be7a 793d 0153 debc d53d 1a3e 535e dfbd
000002a0: 7055 3d3e 0dbe d2bb 7669 143e ecd5 113d
000002b0: 9284 8c3c 4022 11bc 3680 4bbf 858b 363e
000002c0: 32ac 40bd 7135 fb3d e403 ca3d 805a 0c3e
000002d0: 089d 193e b02a c23d 6fa6 23be 29a6 533d
000002e0: 34e9 dd3d e83c 303e f122 dc3d b6fa fcbc
000002f0: e7f3 2cbd 9f4b b93c ef83 513e e833 8e3e
00000300: d1a2 743e 8bb8 903d a5a4 a63b ffe8 9dbd
00000310: 7984 3e3e 8f79 773d de3a d3bb f8cd 51be
00000320: 8a67 b93a be25 08be 7148 29bc 80cb 5f3e
00000330: d775 f33c 6288 0cbe b789 92bd 8398 763e
00000340: b711 133c bcbe 683e 4cd4 843e 4f2b 04be
00000350: 4d0c edbd 9d93 81be bc2c 42be 3074 723d
00000360: 553c 07be b39e 3dbe 7062 583e ccb5 203d
00000370: a95e 553e e644 de3d 0b3f 80bd 1971 13be
00000380: 2f51 4fbb 1841 00be 5c26 8fbd 7b58 6a3e
00000390: c836 84bd 1443 873d abe9 733e 6659 1abd
000003a0: ca0b de3d a551 4fbe 68c9 343e a0b6 b9bd
000003b0: e31f b3bd f679 79bd cb45 4cbf cf08 213e
000003c0: 2df0 e7bd 51ce 753e 2fc1 4ebe 9e32 0b3e
000003d0: f595 153e 0442 643d a584 cabd 44c7 083e
000003e0: be62 30bd acab 6c3d 1aca 113d 02fc d33a
000003f0: af02 8a3e dbc1 8b3d af0d 063e d981 fb3d

main.4.bias f4 [32]
-0.03258212 0.546647 -0.54689115 -0.70077103 0.32741383 -0.3901862 -0.44437543 -0.5806007
0.58139247 0.27544472 -0.45396388 -0.2833663 0.26488164 0.533181 0.57731324 -0.5957483
0.49964243 0.17545374 0.28805363 -0.64335287 0.4316373 0.3630265 0.2100731 0.5632154
0.51192456 -0.53512883 0.4504304 0.48381895 0.5694419 0.5292138 0.7027523 -0.4088649
00000000: d474 05bd 0ff1 0b3f 0f01 0cbf bb65 33bf
00000010: c9a2 a73e 7cc6 c7be 2d85 e3be 3fa2 14bf
00000020: 23d6 143f 1707 8d3e f46d e8be 6315 91be
00000030: 919e 873e 8d7e 083f cdca 133f f682 18bf
00000040: 22d1 ff3e 25aa 333e c47b 933e c6b2 24bf
00000050: 90ff dc3e 9cde b93e 671d 573e e22e 103f
00000060: 7d0d 033f 34fe 08bf d09e e63e 1eb7 f73e
00000070: f2c6 113f 8e7a 073f 93e7 333f bd56 d1be

main.6.weight f4 [1, 32]
0.0036797805 -0.05852965 0.051031955 0.08149391 0.00023632357 0.035808966 0.062104605 0.048123583
-0.03278128 -0.002912519 0.08554944 0.02072202 -0.025303433 -0.09051056 -0.050390948 0.07550713
-0.04151164 -0.001441082 -0.028798236 0.090194166 -0.052867096 -0.022692524 -0.01758402 -0.08883429
-0.07524582 0.026284553 -0.07817527 -0.036680594 -0.06994497 -0.020652762 -0.024796257 0.066381164
00000000: 7928 713b c9bc 6fbd e206 513d 47e6 a63d
00000010: a0cd 7739 6cac 123d 6661 7e3d 3c1d 453d
00000020: aa45 06bd f6df 3ebb 8b34 af3d 3ac1 a93c
00000030: 2549 cfbc 9a5d b9bd bd66 4ebd 7ba3 9a3d
00000040: 1c08 2abd b0e2 bcba 47ea ebbc b8b7 b83d
00000050: 2b8b 58bd ace5 b9bc 5d0c 90bc c1ee b5bd
00000060: 7b1a 9abd b452 d73c 5b1a a0bd 643e 16bd
00000070: 4f3f 8fbd fb2f a9bc 8521 cbbc d9f2 873d
