fl_experiment_20260116_153133/lstm_model.pth (torch, 157045 bytes, 29 tensors)

static_fc.0.weight f4 [32, 5]
00000000: 1e6c 813e 77f6 3ebe e6c8 d23e 1674 a33d
00000010: 6286 363e e124 0abf 611f 6ebe 80f0 34be
00000020: faec 30be c902 043f a876 7c3e 9380 993e
00000030: 6311 c0be d48e 533e f4f6 4c3e d12d 9a3e
00000040: e8a9 8abe ab38 e9be dc57 2a3e aabe b53d
00000050: 69f8 f73e cfa5 413e 79bd 2dbc 260b c63d
00000060: e909 08be 141a 34bf d5a8 2dbe 767c 84bd
00000070: c5a4 ccba 2d2d dc3e b232 22bd 5301 12bf
00000080: be76 3ebe bc66 b23e b8ad 523e 8814 f9be
00000090: d33b babe b4ed 81bc 1c88 16bd f675 dabe
000000a0: 6823 0b3f 6775 bfbe f9c3 b73e 005b e03d
000000b0: 4694 263d 6527 113f 8dbc 923e e341 973e
000000c0: 3d5d b93d b4b9 423e 6fcb 3fbe 2a43 4ebd
000000d0: 5f8f 113e e9bf 803f 4c32 1b3e f25a dc3e
000000e0: 9477 4c3d 9b94 c1bd 3a8e 0b3e 1020 903d
000000f0: 9a52 fc3e fdfb 86be 780c f03e 276c fc3c
00000100: a0f8 cd3d a3ad 643e b650 a43e 8136 953d
00000110: 9c07 21bf 1135 193f 13f0 4b3e 4528 26be
00000120: 4a34 293f 2f80 963e cdfd ab3e eeca eb3e
00000130: c84e 11bd c47c 2b3e 6a3f a7be 8421 693d
00000140: 1251 9b3e fed1 153f ccdd fc3d efea b1be
00000150: d0aa 743f da55 013f 90e9 113e e1a1 873d
00000160: 68b6 d5be d0f4 16be 8126 d03c 466d cfbe
00000170: 5021 dfbc dc71 b5bd dac4 08bf 1fdc 7fbf
00000180: 8327 edbe e95c 49bd f144 b4be 27de a83d
00000190: 73cc 79bf 5e60 59be 9693 6abd 9b33 70be
000001a0: 7d4b 33bd 7ce6 d53e 4447 65be c239 ed3e
000001b0: 7c5e 003e 3963 683e e595 533e 5401 533e
000001c0: 014d f1be 670e dabe 0fbd bfbd c30a 84bf
000001d0: f8d4 83be 017d f7bd 8971 71be 3b26 98bd
000001e0: feeb 973e 527c 49be ba8f 97be 3e98 5fbe
000001f0: a91a 963d a70b 1d3f e13b 0ebe 77ce a63e
00000200: 6a11 cf3c d4c2 ebbd c98d be3d 1831 023e
00000210: 1502 c3be 0a8a fb3d 658c 073e f36c 26bf
00000220: 30aa fb3e bb2f 13bd 46d0 913d c9b9 013f
00000230: fe56 803e 922d 683e 0e90 15bf ecdf 503e
00000240: d427 d63e c269 0dbf 379c 14be 0713 60be
00000250: 0156 06bf c40b 163f 2a09 25be 1af0 113f
00000260: 9168 e5bd ee6c abbe 7f06 483e d1d6 31be
00000270: 8709 7ebe 48d8 bebd 92ef 773e 3610 dc3d
0.252778 -0.18648706 0.41168898 0.07981126 0.178247 -0.5396252 -0.23254158 -0.17669868
-0.172779 0.5156675 0.24654639 0.29980907 -0.37513265 0.20659953 0.2001608 0.3011308
-0.27082753 -0.45551047 0.16635078 0.08874257 0.4843171 0.18910907 -0.010604256 0.09670095
-0.1328503 -0.7035229 -0.16958936 -0.064690515 -0.001561307 0.43003216 -0.039599128 -0.5703327
-0.18599984 0.34844005 0.20574081 -0.48648477 -0.36373767 -0.015860416 -0.036750898 -0.42668122
0.543509 -0.37394258 0.35891703 0.10954857 0.04066875 0.56700736 0.28659478 0.29542455
0.09050987 0.19016153 -0.18729948 -0.05035702 0.14214848 1.0058566 0.15155905 0.43038136
0.049918726 -0.09452172 0.13628474 0.070373654 0.4928177 -0.26364127 0.46884513 0.03081329
0.10057187 0.22331862 0.32092828 0.072857864 -0.62902236 0.598466 0.199158 -0.16226299
0.6609541 0.2939467 0.33592072 0.4605326 -0.035475522 0.16746813 -0.3266557 0.05691673
0.3033529 0.5852355 0.12346992 -0.34749553 0.9557314 0.50521624 0.14249253 0.06622673
-0.41740727 -0.14741826 0.025408985 -0.40513057 -0.027237564 -0.088596076 -0.5342537 -0.99945253
-0.46319208 -0.04916087 -0.35208848 0.08245497 -0.9757759 -0.21228167 -0.057269655 -0.23457186
-0.043773163 0.41777408 -0.22390467 0.46333128 0.12536043 0.226941 0.20662649 0.20605975
-0.47129062 -0.42589113 -0.09362232 -1.0315784 -0.2574842 -0.120843895 -0.23578466 -0.07429167
0.29672235 -0.1967633 -0.29601842 -0.2183542 0.07329304 0.61345905 -0.1389003 0.32579395
0.025276858 -0.1151177 0.09304387 0.1271404 -0.38087526 0.12282188 0.1323715 -0.65009993
0.4915328 -0.03593419 0.07119803 0.5067411 0.2506637 0.22673634 -0.58422935 0.2039792
0.4182726 -0.552395 -0.14512716 -0.21882258 -0.5247498 0.586117 -0.16116777 0.5700699
-0.11201585 -0.33481544 0.19533728 -0.17367102 -0.24808322 -0.09318596 0.24212483 0.107452795

static_fc.0.bias f4 [32]
00000000: f4e0 643c 1e7f adbd 8223 b33d 9244 7e3e
00000010: 341c 1d3e 42dd a13b a4c1 5a3e 6a79 f8bc
00000020: 2bca e73d c607 f83e f65a c23e 31c9 f93e
00000030: c7cc 58bd 67c5 79be 5b6c cebd e2d0 093e
00000040: 9847 f93c 8fa1 573e 117f 67be ccd7 283d
00000050: 438f f5bd 7640 7bbd 90d8 1e3c b66f cdbd
00000060: abc1 f4bd f6d9 173d 0cd3 463e 6974 3fbc
00000070: 8f60 673e 0120 c5bd 0d8e ac3d b062 9abd
0.013969649 -0.08471511 0.08747007 0.24830845 0.1534279 0.004939706 0.2136293 -0.030331332
0.11317857 0.4844343 0.37960023 0.4878631 -0.052929666 -0.2439171 -0.10079261 0.13458589
0.030429646 0.21057723 -0.22607066 0.041221425 -0.11990216 -0.06134077 0.009695187 -0.10031073
-0.11951002 0.037073098 0.19416445 -0.011685469 0.22595428 -0.09625245 0.084255315 -0.075383544

static_fc.1.weight f4 [32]
00000000: bd6d 693f 4f13 813f 00d8 543f 80df 733f
00000010: 54e7 853f 4e5d 833f a730 333f e2ab 4f3f
00000020: 4741 803f 8a4e 8a3f c8e9 563f 38da 473f
00000030: 3bad 9c3f 49bb 133f e5b2 8d3f 9940 733f
00000040: 480e 523f 039f 823f e9f9 e73e 49b3 b33f
00000050: 640f af3f f36e 873f 4af4 803f 6478 a63f
00000060: a4cf 6d3f 5d9e 883f fa71 5f3f e906 433f
00000070: f101 823f 2eac 863f d454 653f 01ae 243f
0.9118307 1.0084018 0.8314209 0.9526291 1.0461221 1.0262849 0.6999611 0.8112165
1.0019921 1.0805218 0.8395047 0.7806735 1.2240366 0.5770765 1.1070219 0.95020443
0.8205304 1.0204777 0.45307854 1.4039088 1.3676572 1.0580734 1.0074551 1.300549
0.9289496 1.0673329 0.8728329 0.7618242 1.0156842 1.0521295 0.8958256 0.6432801

static_fc.1.bias f4 [32]
00000000: 55c4 51be 71ba 18be 5834 a6be 41c5 91bd
00000010: 3930 9ebd 6d04 b1bd 21a7 7ebe 5300 57bd
00000020: 3d18 33be e37a 3b3d 01b8 aebd e04a 1f3d
00000030: de45 3cbe 4f33 ccbe bd41 6fbe 6f33 e1bd
00000040: 7291 06be 582b d4bb 7e2e c6be 66c8 023e
00000050: 8c78 9a3d de6a 64be 8fe8 3fbe d215 9e3d
00000060: 5aec 6cbe 0110 d5bd 357f 5dbe 8be8 fd3b
00000070: 792c 1dbe 5b3f 18bd 1899 e5bd 8b81 ddbe
-0.20485051 -0.14914872 -0.3246181 -0.07117701 -0.077240415 -0.08643422 -0.24868442 -0.052490544
-0.17489715 0.04577149 -0.0853119 0.038889766 -0.18386027 -0.39882895 -0.23364921 -0.10996138
-0.1314142 -0.0064748935 -0.38707346 0.12771758 0.07542524 -0.22306392 -0.18741058 0.07719006
-0.23137036 -0.10403443 -0.21630557 0.0077486685 -0.15348996 -0.037169795 -0.11210841 -0.43262896

lstm.weight_ih_l0 f4 [128, 3]
00000000: 6a62 4fbe e308 74be 4483 d2bc 0014 623d
00000010: 990c 023e 19b7 4fbe a7bb 9e3e ae1e 5d3e
00000020: 9fc6 003f 5896 33bf 2f46 263e f554 113f
00000030: bb1f 42bf 2f7b 613d 31bf 483f 49ac 963e
00000040: 868a 2a3f 92bf a73e e7ac 2b3e 780f 653b
00000050: 4de5 7dbc 0654 8e3e 2256 873e c8da 95bd
00000060: 5e4f 20be 6ae9 343d 291f 963d cbda f93e
00000070: 9325 a83d f993 d9bd 4e78 ad3e 62be ad3e
00000080: 584f d5be 6b84 15be 7478 5f3e cbd3 8a3e
00000090: cb7a e53e 5da3 70be abc9 9dbe a6e6 7bbe
000000a0: 2e83 abbd c5d2 a93e fec9 fd3e 1734 153e
000000b0: 745a 253b 5665 d73c 0362 1c3e 1532 c5bd
000000c0: ccc9 11bf a11f adbd 2127 093e b7db 563e
000000d0: 4388 d33e fbd3 2abe 2b91 893e 3c29 f8bc
000000e0: 57d4 f23e a2a2 53bd a21e 3f3e 6d36 1ebe
000000f0: 0c34 abbe 2ad6 fdbd 51a8 4f3f 7004 4d3c
00000100: 7b74 3ebc 8887 3fbe ea1c 03bf 4375 ecbd
00000110: 42a3 cb3e 8e44 a7be f022 af3c 5e31 e3be
00000120: 2295 fdbc 75c1 5f3e 3cec 273e 540f 343e
00000130: cbdb bc3d 8143 e83e 278d a53c 3f8c 763c
00000140: 291a 2c3e 76a4 ff3e 3429 523d 879f 94bc
00000150: f1bb debc b8cb 3e3e 7af1 943e 7a13 a2be
00000160: ab27 84bd dc7b 2bbf 820f b0be ef72 4b3c
00000170: e5e7 65be 4680 59be 7961 153f 898b c23e
00000180: a164 9d3e 9d1b 8ebe eecd 0c3e 876b 473e
00000190: e313 4bbe 53ba 2fbe 1ef7 2b3f 530b cf3e
000001a0: 6c56 9e3d b366 893e d5a6 a43e 5b50 b03e
000001b0: 551d 30bf b029 dcbe ac45 473d 9f6e 5f3f
000001c0: ad4a 0a3f d55b 983e 3618 2dbc 6ce1 323f
000001d0: 167f c83d 7ed9 3f3f 0df4 88bd 124c 893c
000001e0: 9973 e23e b7a1 543e 4405 163d aa6e 423f
000001f0: 1e2c 503d 5d66 e73c 0331 1d3d 3c2f e43e
00000200: 5a2a 8bbe 6b74 593f 336c 5cbe a692 1cbd
00000210: 1238 9d3e 7355 193f 5b14 c3be 7e6c 83bd
00000220: 09e7 cebe 1c0b d8be cfd2 3abe d91c 053e
00000230: 1c46 393e 5cd9 0a3f 72c9 4dbe 07a1 06bd
00000240: 1cb5 f33e 4532 e63e a9fd f9bd bf76 773f
00000250: f7d9 d93d a431 eabd 1b4b 643e 7161 4dbe
00000260: 8b4f 093e 62bb 0f3f 10f2 753e 115f 62be
00000270: ee30 183f 608d 41be 7eda a0bd e4bf b23e
00000280: 1262 adbe d1c5 f5bd d29e a23c 3ef4 bebe
00000290: 1ec4 3b3e cda9 e83e b686 7ebe 50f6 dc3c
000002a0: 2c1a 5a3e 628c a23e b01d 38bd 20a6 be3e
000002b0: afe6 143d 1281 603d f09a da3e 59b2 653e
000002c0: 7db6 933d 84dd e03e d036 37be 7d37 febd
000002d0: e8f8 4c3e 3816 43be f8cf 40bd 3893 083e
000002e0: 8d74 e0be 8400 c8be 92cb 2dbd 8227 103f
000002f0: 67d3 973e eb85 4d3e 66dc 89bd 6f8a bfbd
00000300: de89 acbe 09b9 89bd e28e de3d b62c 17be
00000310: 3521 273e 9ac9 c83e c377 033f 7630 febc
00000320: fb8d 94be 1faa b53e a760 50bd b955 a1be
00000330: a508 2a3d 9cf6 f2bd a2ae 17bd 37f2 9e3e
00000340: 39ed 36be 9846 86be c562 fabe 70d2 de3d
00000350: 280b c43e 55b5 df3e 4499 093b dfe4 e53c
00000360: b759 6abc dabe 18be 79ea 783e 5a5c cc3e
00000370: 3371 a53d f7b2 843d b23a 1f3f aad8 a1bb
00000380: dcae 3cbe 2c56 b73e 6c16 933d b751 5ebe
00000390: 0f6d 1bbf 6e77 573d 9fa8 fd3e 8abe 25bc
000003a0: 9393 1c3d 2919 093f 3a43 ffbe 3fd3 c7bd
000003b0: 1dab 083f 6941 e13e 52d5 2ebd 54bc 2dbe
000003c0: dac6 74be 1a2c 183e 745e b4bd f5ca f53e
000003d0: 6716 42be 0832 39be 5191 dd3e 4d42 913d
000003e0: e8dd e0be 9c70 44bc 9867 2ebe 16a2 233f
000003f0: 84c0 9b3e eb7e a83c 2719 c3be fb3e b9be
-0.20252386 -0.23831515 -0.025697358 0.055194855 0.12700118 -0.2028469 0.31002542 0.21593735
0.5030307 -0.7015128 0.1623771 0.5677026 -0.75829667 0.055049118 0.78416735 0.29428318
0.6661762 0.32763344 0.16765176 0.0034951847 -0.015496564 0.2779848 0.26432902 -0.0731712
-0.15655276 0.044167913 0.07330162 0.48799738 0.08210292 -0.10623927 0.33880848 0.33934313
-0.41662097 -0.14601295 0.21823293 0.2711471 0.44820246 -0.23499818 -0.30817923 -0.24599704
-0.0837463 0.33168617 0.4956817 0.14570652 0.0025230916 0.026293438 0.15271764 -0.09628693
-0.5694854 -0.08453298 0.13393833 0.20982252 0.41314897 -0.16682427 0.26868567 -0.0302931
0.47427627 -0.05166877 0.18664029 -0.1545045 -0.33438146 -0.12394364 0.81116205 0.012513265
-0.011624451 -0.18704045 -0.51215994 -0.115458034 0.39772993 -0.3266949 0.021378964 -0.44373602
-0.030954901 0.21851142 0.1639871 0.17583972 0.0922161 0.45364 0.020208908 0.015048086
0.16806854 0.4993016 0.051308826 -0.018142475 -0.027189227 0.186324 0.29090482 -0.31655484
-0.064528786 -0.6698587 -0.34386832 0.012417539 -0.22451742 -0.21240339 0.58351856 0.37997082
0.30740836 -0.27755442 0.13750431 0.19474612 -0.19831805 -0.17160921 0.67173946 0.40438327
0.077313274 0.26836166 0.32158533 0.34436306 -0.6879476 -0.43000555 0.04865043 0.8727817
0.54020196 0.29757562 -0.010564854 0.69875216 0.09789865 0.7494124 -0.06687174 0.016759906
0.4422882 0.20764814 0.036626115 0.7595011 0.050823323 0.028247053 0.03837682 0.44567287
-0.2718075 0.84943265 -0.2152565 -0.038225792 0.3070684 0.5989601 -0.38101467 -0.064171776
-0.4041064 -0.42195976 -0.1824448 0.12999286 0.18093151 0.54237914 -0.20096377 -0.03286841
0.47599113 0.44960228 -0.12206585 0.9666557 0.106372766 -0.114352494 0.22294275 -0.20056702
0.1340925 0.561453 0.24018121 -0.22106577 0.5944966 -0.18901587 -0.07854174 0.34912026
-0.33863884 -0.12000621 0.019851122 -0.37295717 0.18336532 0.45442048 -0.24856076 0.02697292
0.21299046 0.3174773 -0.044950187 0.37236118 0.03635281 0.05481059 0.42696333 0.22431315
0.07212541 0.43919003 -0.17892003 -0.12412927 0.20016825 -0.19051445 -0.047073334 0.1333741
-0.4383892 -0.39062893 -0.042430468 0.56310284 0.29653475 0.20070617 -0.06731491 -0.09352576
-0.33698934 -0.06724746 0.108670965 -0.1476315 0.16321261 0.3921631 0.51354617 -0.031028967
-0.29014573 0.35481355 -0.050873425 -0.31510714 0.04151215 -0.11863443 -0.037031777 0.3104417
-0.17863931 -0.26225734 -0.4890348 0.108799815 0.38289762 0.43693033 0.0020995894 0.028063236
-0.014303616 -0.14916554 0.24308194 0.3991421 0.08078232 0.06479447 0.62198937 -0.0049391584
-0.18426079 0.3580793 0.07182011 -0.21710859 -0.60713285 0.05260413 0.4954271 -0.010116229
0.038226675 0.53554016 -0.49855977 -0.09757089 0.533861 0.43995216 -0.042683907 -0.16966373
-0.23903981 0.14860573 -0.08807078 0.48006406 -0.18953858 -0.18085492 0.4327493 0.07092724
-0.439193 -0.011989739 -0.17031705 0.639192 0.30420315 0.020568332 -0.38105127 -0.36180863

lstm.weight_hh_l0 f4 [128, 32]
00000000: d35e 503e 13ff 173e c050 4bbc d5d7 943d
00000010: b828 9d3d 3686 d1bd 9d68 65be 26f3 06bf
00000020: 255d 313e 6874 03bf cc7d 7e3e 5462 c4bd
00000030: dcdc 3b3d f94e 81bd 21f5 993e 99e4 25bf
00000040: 76f8 67ba f048 04be 53f0 23bc ca2b 143e
00000050: 6ce8 ce3b 968e 023e e650 af3d 16af 1d3d
00000060: 4e16 a93e 781a 983d 9de6 103e 2938 32be
00000070: d24b 98bd a661 93be bc10 86bc 6ac7 1cbe
00000080: dc51 283e ba9a c9be 0609 343e b62a 443e
00000090: 6116 b33c 36cc 74be 5a22 fabe ef1a 993e
000000a0: a564 0dbe ebb5 c5be 70fe b33e 5863 74bd
000000b0: 0bde fbbd d41d 14be 9e9b f9bd 68b0 d7be
000000c0: 4472 5d3d 7e10 bd3e 2f0b a1be 20c6 bfbe
000000d0: 8f26 bbbe 1692 003e 9090 33be e7a4 313c
000000e0: 6c7c a1be 5056 013d 95a7 a73d d353 8a3e
000000f0: 2841 2ebe c3c6 333d 5d56 d73e 1c76 00be
00000100: f2d0 a9bd 3a07 c1bd 2092 78be 6b82 c6bd
00000110: 2512 273e d85e 053f 0c9b eebe ec89 d6bb
00000120: 2e2e 9abb 1537 bebd 1e12 a7bd b46f 223d
00000130: 7a24 44bd 9a87 c7bd 4d03 c23e 7a89 213e
00000140: b039 5bbe 604a 883e 79ec b4be 1fac 0b3e
00000150: 085d 3b3e ad89 013e 5650 023e a16f a3be
00000160: 4bcf b4bc 568d 023c b908 dbbd 4e6f 9abe
00000170: 4492 c0bc 912f afbd 0458 043f e7b6 0b3f
00000180: c019 193e 3037 adbe 6e8e 0abf 537c 8fbd
00000190: 9ad9 343e c54b 503e 3136 e13d d7bd 983d
000001a0: 05e1 87be 77a4 713b 79cc cbbe f271 5fbe
000001b0: 82df db3d 5ce5 93be 9789 f93e 05e1 1d3e
000001c0: e3fe e7bd 6193 babd cee9 56be f29e e83e
000001d0: d066 9c3c dca5 b5bd 4188 17be 533b babd
000001e0: 3c7a 123f dbf7 283f ab21 fcbd 57e7 67be
000001f0: cfea 33be e158 d0bb bef3 0c3f 5a00 c03e
00000200: 5ded b23e 20da f1bc c3d0 88be e560 cbbe
00000210: 3d4d 43be 8085 4e3d a9fb 833e 6a27 90be
00000220: 7c1c 483e 83b3 11be 302a d2be 2c54 d2bd
00000230: 10af 1dbd 0f16 8fbe 1576 213e 0897 08bf
00000240: 4be6 663e cfa7 28be db7a 0e3d f95d 8cbb
00000250: 18f9 aebe 088e 003f 0d16 ba3e 0094 1a3d
00000260: b597 8b3d 692b c53d d41a 953d a12b 01bf
00000270: c08f a13d f5ca 14be be70 9abd 1ec5 50be
00000280: 7f43 0e3e f33d 29be 7017 9abe f05e 48be
00000290: 0a00 9f3e 8b62 163e 605d 333e 3f2d 8abe
000002a0: 3ca3 653e a9c8 74bd b8bc 20be de7f 20be
000002b0: 963b bd3d cab6 953e b53a 023e 89da 8dbe
000002c0: 7d48 42bd 1698 01bf 9dcf d0be 3672 fc3e
000002d0: 6887 48bd c076 aa3e eb4f e93a 9e18 ccbc
000002e0: 54d1 003f a54e c23e 6110 913e d25e 85be
000002f0: 6935 28be a04f 5e3e fa05 e83d 7aa4 9e3e
00000300: a1fe 0c3d d734 f13e de6c 02bf 7be0 8bbd
00000310: f7c4 62bb f1f3 acbd 635c 113f 1d69 acbd
00000320: b7db 623e 6e46 123e 5585 24bf 01da e03e
00000330: 2c50 163f 2a52 653e c660 023f fd96 70bd
00000340: 5a0a 013e af59 14bf a6e1 b8be 2c57 5c3d
00000350: 287f c1bd 7dc2 9b3e eb48 f2bc 3549 f8be
00000360: 0b49 ac3e d0d2 113f e917 ef3e 6694 bebe
00000370: 552c ab3d 4e71 4dbd 9e5c 1fbe 9dae 993e
00000380: d87e 3bbd 5bd2 a6be cb77 09bf ff09 7bbd
00000390: ec34 6abd f04b b23e caa2 40be 9649 8fbd
000003a0: f8cc 8d3d 4653 e4bd b0a4 28bd 6e4e 473e
000003b0: 3ca7 b03e eb1b 2fbe d33a 863e b658 31be
000003c0: c761 9fbe 212a e13d bbc5 23be 786d 943e
000003d0: a473 853e 1e5a 56bd b2e7 7cbb ce66 dbbe
000003e0: 63ed 893d 91c6 4d3e 92e6 7dbe 77d8 e5be
000003f0: 1ca3 9cbe f06d 86bc 3378 8d3e be12 183f
0.20348673 0.14843397 -0.012409389 0.07267729 0.07673782 -0.10230677 -0.22403188 -0.52714765
0.17320688 -0.51349497 0.24852675 -0.09589067 0.045864925 -0.06313891 0.3006983 -0.6480194
-0.0008848974 -0.12918448 -0.010006028 0.14469829 0.006314328 0.12749705 0.08560352 0.038497053
0.3302483 0.074269235 0.14150472 -0.17404236 -0.074363366 -0.28785437 -0.016365401 -0.15310445
0.16437477 -0.3937586 0.17581567 0.19156918 0.021861257 -0.23906025 -0.48854333 0.2990336
-0.13807924 -0.38615355 0.35155058 -0.059665054 -0.12298211 -0.14464504 -0.12187885 -0.42126775
0.05406405 0.36926645 -0.31453845 -0.37455845 -0.36552855 0.12555727 -0.17535615 0.010842538
-0.3154024 0.031576455 0.081862606 0.27017078 -0.17017043 0.043890726 0.42058077 -0.12545055
-0.08291806 -0.094252065 -0.24274492 -0.09692844 0.16315515 0.52097845 -0.46602666 -0.0065472033
-0.004705212 -0.0928785 -0.081577525 0.03965731 -0.04788635 -0.09742661 0.37893143 0.157751
-0.21408725 0.26619244 -0.35336664 0.13639878 0.18297207 0.12650175 0.12725958 -0.31921104
-0.022071501 0.007968267 -0.10695023 -0.30163044 -0.023507245 -0.085539944 0.516968 0.5457596
0.14951229 -0.33831167 -0.5412358 -0.07006135 0.17661133 0.20341404 0.10996664 0.07458084
-0.26538864 0.003687171 -0.39804438 -0.2182081 0.1073599 -0.28885925 0.48737785 0.1541787
-0.11327913 -0.091101415 -0.20987627 0.45433766 0.019091994 -0.08869526 -0.1479807 -0.090933464
0.57217765 0.660032 -0.12311109 -0.22646843 -0.17570041 -0.0063582514 0.5505942 0.37500268
0.3494672 -0.029522955 -0.26721773 -0.39722362 -0.19072433 0.050420284 0.2577794 -0.2815507
0.19542116 -0.14228635 -0.41047812 -0.10269961 -0.03849703 -0.27946517 0.15767701 -0.53355455
0.22548787 -0.16470264 0.034785133 -0.0042836634 -0.34174418 0.5021672 0.36344948 0.0377388
0.06816045 0.096274205 0.07280508 -0.504572 0.07888746 -0.14530547 -0.07541035 -0.20387694
0.13892935 -0.16527538 -0.30096006 -0.19567466 0.31054717 0.14686029 0.17516088 -0.26987645
0.2242555 -0.059761677 -0.1569699 -0.15673777 0.09239881 0.2924102 0.12717707 -0.27705792
-0.04743241 -0.5062269 -0.40783396 0.49305886 -0.04895726 0.33293724 0.0017800307 -0.024914082
0.5031941 0.37950626 0.2833281 -0.26048905 -0.16426624 0.21710062 0.11329265 0.3098486
0.03442252 0.47110626 -0.5094737 -0.068299256 -0.0034602263 -0.08444966 0.56781596 -0.08418486
0.22154127 0.1428468 -0.6426595 0.43916324 0.5871608 0.22394624 0.50928915 -0.058737744
0.12601605 -0.57949346 -0.36109656 0.05379407 -0.09448081 0.3042182 -0.029575786 -0.48493353
0.33649477 0.569623 0.4669793 -0.37222594 0.08358065 -0.050156884 -0.15562674 0.30016032
-0.045775265 -0.32582363 -0.53698415 -0.06128883 -0.057179376 0.3482356 -0.18812099 -0.06996457
0.0692386 -0.11148696 -0.041172683 0.19463512 0.3450259 -0.17100494 0.26216754 -0.17318997
-0.31129286 0.109943636 -0.15993397 0.28989768 0.2606479 -0.052332036 -0.003859025 -0.4285187
0.06734731 0.20095278 -0.24794987 -0.44891712 -0.30593193 -0.016409844 0.27630767 0.594036

lstm.bias_ih_l0 f4 [128]
00000000: 37b0 b63e 082f 95be 5853 333f 0082 f73d
00000010: 615f 45bf 0467 7f3e ac73 bd3e cd13 f33e
00000020: 4bd3 48be 71df 933e 848b d33e e3ab 1c3e
00000030: 12d8 033f 0e90 adbe b5a7 083f ba18 ec3e
00000040: 189b 64be 5304 123f f134 fe3e fafc 08be
00000050: 0d16 433e 617a 17be c814 b3bc bf14 3dbe
00000060: 6fc6 1a3f 9124 e63e b7c8 793e 72c6 a63e
00000070: 1d19 953e ef22 f9bd 92dc cbbe c072 cbbc
00000080: a485 9d3e 17c4 0cbe 09b0 bb3e d23b 383e
00000090: 0d8d 82be 43c9 593e ffc7 2c3e 1510 003f
000000a0: cdd5 413e cd38 1c3f c0d8 163d 456e fe3e
000000b0: 655b 363d 3e27 243d 70a0 cc3d 527c 413f
000000c0: fed2 873e ecc0 e23e da16 a33e 02e5 e73d
000000d0: 873d 843e d92f 73bb eb43 b5bd 778f 833e
000000e0: 7655 ce3e 017e 1c3f 38e5 0e3f dae1 e53e
000000f0: 3195 293f 9961 003e 8503 8dbe c3b0 033d
00000100: 9889 833e b6e3 8dbd cf01 7bbe 3ce8 47be
00000110: 23e0 253c 3f4f 7cbe 42b2 3b3e ed9e 4fbe
00000120: 681b f9bd 112c 10be 231c 22be 8392 31be
00000130: 5ce5 af3d efce 89bc ce01 473e 8e98 2cbe
00000140: a6d1 8e3e cd83 20be 70ed 2cbe 478d 2ebe
00000150: 9ba8 92be 144d c53d 2349 ad3e 7422 0d3e
00000160: 68ef 833e 7d32 353e 80e1 893e 32d7 44be
00000170: ff60 60be 7fc5 0cbe ad80 07be 053c 93be
00000180: 2e26 bd3e 3ad4 a9be f021 363f b67b 473e
00000190: 48f7 3ebf 770f 663e d3b5 b93e 4b75 f93e
000001a0: 0a69 6bbe c910 9e3e 50b6 c53e bfc9 8b3d
000001b0: 6b31 003f c57f bdbe 6bee 0f3f ffe0 db3e
000001c0: 5123 1dbe 4d76 053f a47d 013f 5695 10be
000001d0: d33a 613e 4cef 78be 5a3c cf3c c9fc 35be
000001e0: 999f 143f 6966 de3e 1c06 583e 71a9 b33e
000001f0: a08a 753e 2535 f0bd 2f89 dcbe 122b 2ebd
0.35681316 -0.29137444 0.7004905 0.120853424 -0.7709866 0.24941641 0.37002313 0.47476044
-0.19611852 0.2888141 0.4131738 0.15299945 0.5150157 -0.33898968 0.533809 0.46112615
-0.22324789 0.5703785 0.49649766 -0.13377753 0.1905138 -0.14792778 -0.021860495 -0.18464945
0.60459036 0.44949773 0.24392973 0.32573277 0.29120722 -0.12164866 -0.3981672 -0.02483499
0.30766022 -0.13746677 0.36657742 0.1799157 -0.25498238 0.21268182 0.16873167 0.5002454
0.18929215 0.6102417 0.036827803 0.49693504 0.044520754 0.040076487 0.099915385 0.7558032
0.26528162 0.44287813 0.31853372 0.11322977 0.25828192 -0.0037107377 -0.08850845 0.25695392
0.40299577 0.61129767 0.5581851 0.44898874 0.66243273 0.1253723 -0.27541748 0.032150995
0.25690913 -0.06928198 -0.24512409 -0.19522184 0.010124239 -0.24639605 0.18329719 -0.20275469
-0.121634305 -0.1407931 -0.15831046 -0.17341046 0.08588669 -0.016822306 0.19434282 -0.1685507
0.27894324 -0.15675278 -0.1688745 -0.1704608 -0.2864426 0.09633842 0.3384486 0.13782674
0.2576859 0.17695041 0.26929855 -0.19222715 -0.21912001 -0.13747214 -0.1323268 -0.2875673
0.3694319 -0.3316973 0.71145535 0.19480786 -0.7459607 0.22466837 0.36271533 0.487223
-0.22989288 0.3087218 0.38615656 0.068255894 0.50075406 -0.37011543 0.5622317 0.42945096
-0.15345503 0.5213364 0.5058234 -0.14119467 0.21995096 -0.24310035 0.025297333 -0.17772211
0.58056027 0.43437508 0.2109608 0.3509021 0.23978662 -0.117288865 -0.43073413 -0.042521544

lstm.bias_hh_l0 f4 [128]
00000000: 37b0 b63e 082f 95be 5853 333f 0082 f73d
00000010: 615f 45bf 0467 7f3e ac73 bd3e cd13 f33e
00000020: 4bd3 48be 71df 933e 848b d33e e3ab 1c3e
00000030: 12d8 033f 0e90 adbe b5a7 083f ba18 ec3e
00000040: 189b 64be 5304 123f f134 fe3e fafc 08be
00000050: 0d16 433e 617a 17be c814 b3bc bf14 3dbe
00000060: 6fc6 1a3f 9124 e63e b7c8 793e 72c6 a63e
00000070: 1d19 953e ef22 f9bd 92dc cbbe c072 cbbc
00000080: a485 9d3e 17c4 0cbe 09b0 bb3e d23b 383e
00000090: 0d8d 82be 43c9 593e ffc7 2c3e 1510 003f
000000a0: cdd5 413e cd38 1c3f c0d8 163d 456e fe3e
000000b0: 655b 363d 3e27 243d 70a0 cc3d 527c 413f
000000c0: fed2 873e ecc0 e23e da16 a33e 02e5 e73d
000000d0: 873d 843e d92f 73bb eb43 b5bd 778f 833e
000000e0: 7655 ce3e 017e 1c3f 38e5 0e3f dae1 e53e
000000f0: 3195 293f 9961 003e 8503 8dbe c3b0 033d
00000100: 9889 833e b6e3 8dbd cf01 7bbe 3ce8 47be
00000110: 23e0 253c 3f4f 7cbe 42b2 3b3e ed9e 4fbe
00000120: 681b f9bd 112c 10be 231c 22be 8392 31be
00000130: 5ce5 af3d efce 89bc ce01 473e 8e98 2cbe
00000140: a6d1 8e3e cd83 20be 70ed 2cbe 478d 2ebe
00000150: 9ba8 92be 144d c53d 2349 ad3e 7422 0d3e
00000160: 68ef 833e 7d32 353e 80e1 893e 32d7 44be
00000170: ff60 60be 7fc5 0cbe ad80 07be 053c 93be
00000180: 2e26 bd3e 3ad4 a9be f021 363f b67b 473e
00000190: 48f7 3ebf 770f 663e d3b5 b93e 4b75 f93e
000001a0: 0a69 6bbe c910 9e3e 50b6 c53e bfc9 8b3d
000001b0: 6b31 003f c57f bdbe 6bee 0f3f ffe0 db3e
000001c0: 5123 1dbe 4d76 053f a47d 013f 5695 10be
000001d0: d33a 613e 4cef 78be 5a3c cf3c c9fc 35be
000001e0: 999f 143f 6966 de3e 1c06 583e 71a9 b33e
000001f0: a08a 753e 2535 f0bd 2f89 dcbe 122b 2ebd
0.35681316 -0.29137444 0.7004905 0.120853424 -0.7709866 0.24941641 0.37002313 0.47476044
-0.19611852 0.2888141 0.4131738 0.15299945 0.5150157 -0.33898968 0.533809 0.46112615
-0.22324789 0.5703785 0.49649766 -0.13377753 0.1905138 -0.14792778 -0.021860495 -0.18464945
0.60459036 0.44949773 0.24392973 0.32573277 0.29120722 -0.12164866 -0.3981672 -0.02483499
0.30766022 -0.13746677 0.36657742 0.1799157 -0.25498238 0.21268182 0.16873167 0.5002454
0.18929215 0.6102417 0.036827803 0.49693504 0.044520754 0.040076487 0.099915385 0.7558032
0.26528162 0.44287813 0.31853372 0.11322977 0.25828192 -0.0037107377 -0.08850845 0.25695392
0.40299577 0.61129767 0.5581851 0.44898874 0.66243273 0.1253723 -0.27541748 0.032150995
0.25690913 -0.06928198 -0.24512409 -0.19522184 0.010124239 -0.24639605 0.18329719 -0.20275469
-0.121634305 -0.1407931 -0.15831046 -0.17341046 0.08588669 -0.016822306 0.19434282 -0.1685507
0.27894324 -0.15675278 -0.1688745 -0.1704608 -0.2864426 0.09633842 0.3384486 0.13782674
0.2576859 0.17695041 0.26929855 -0.19222715 -0.21912001 -0.13747214 -0.1323268 -0.2875673
0.3694319 -0.3316973 0.71145535 0.19480786 -0.7459607 0.22466837 0.36271533 0.487223
-0.22989288 0.3087218 0.38615656 0.068255894 0.50075406 -0.37011543 0.5622317 0.42945096
-0.15345503 0.5213364 0.5058234 -0.14119467 0.21995096 -0.24310035 0.025297333 -0.17772211
0.58056027 0.43437508 0.2109608 0.3509021 0.23978662 -0.117288865 -0.43073413 -0.042521544

lstm.weight_ih_l1 f4 [128, 32]
00000000: a4c8 c93d 7edb 94be 3e0b 733e 0582 e8be
00000010: 62d0 403e 0b96 c6bd d014 0dbf 1128 3fbd
00000020: 2e26 35ba 3d19 96bc 31cc 863e 6c6c dcbd
00000030: 207d 8c3b ffec 643e aaf9 9abe 5c07 5cbe
00000040: 41c6 843d 1e17 5ebe ac17 98be 1ffd 6c3d
00000050: dff1 bfbe 97ef 90be 9a33 2d3f 0885 4f3d
00000060: dc77 b1bd 6839 51bc 1670 943e eadc 523e
00000070: 4465 d33d 1bd3 28be 2af7 4d3e b161 74be
00000080: 8283 013e 70b5 c33e 75ef 093f 4664 aa3d
00000090: 6a90 b2bd f55e bbbd 802c 8eb8 4d76 6c3e
000000a0: d895 3a3e bcc4 a03e 93c1 8dbd 54c9 003f
000000b0: 8d54 e53e 40e3 b83e de81 98bc 79da 8d3e
000000c0: b852 acbe b732 273b 4322 843e ac14 6a3c
000000d0: fea8 fe3c 5910 98be 3ac9 323e 8351 e03d
000000e0: 07a3 a63d 63d0 753d 75c8 2f3e 62a3 d23d
000000f0: 075e 443d 084e 813e 90e4 2bbe a356 25be
00000100: 040b 973d 78e6 aabd e913 f73c e251 c03d
00000110: ee7a df3d e580 c1be 86be 60bd 3476 66be
00000120: 3778 b3be a644 3c3e 9994 d93e 2917 b0be
00000130: 5628 44be a5b4 853e c581 8cbe a689 cabd
00000140: c306 ac3e 941e 91bc 4a60 72bc a4f4 99be
00000150: 294c 1d3e f37f 353d 8057 c6be 64e8 033f
00000160: b8b9 a7bd 6c5c 7abd bbb5 f83e 9568 053f
00000170: 16ab 74be 5286 883e b0e4 c63c 4b2a 0fbe
00000180: c00d dc3c b74e 103f 7ebd 1dbf 5188 62be
00000190: 9822 04bc de53 73be b217 1a3e f412 c0be
000001a0: 527f 383e 0095 543e fc65 ffbe f945 853e
000001b0: caac 263f 0788 d23e 0dd8 9d3e 2672 9abe
000001c0: 5777 d83d 51bd 6bbe f9b0 22be fb0c 623e
000001d0: 6eef debe 611c 703e 98ac 603e 8644 ac3d
000001e0: 2cdb c03e 6e9f b43e 8306 003f a806 b7be
000001f0: 3b1e a4be e74d 893e 3c58 3bbe fc67 11bf
00000200: b58e 20be 2117 1fbe 3a8a 433e 0b75 053e
00000210: 6c5f 56bd f0f3 53be cd39 f13d 71a1 d63d
00000220: 8e35 bdba f818 bebe a17d 873d ecae 603c
00000230: 1911 72be d0b6 7abd c00b 29be e99e 9cbd
00000240: 2ba7 4abe 83ef b8be d49d 60be c078 f1b9
00000250: 8210 9d3e 5462 ef3e f2a6 c5be 00aa 40be
00000260: 124f 1abd 369b 5b3e df39 c9bd 5e9f 81be
00000270: fa3b ca3e 81f7 85be 4682 13be 9281 bd3c
00000280: 8889 27bd a180 913c 9ef8 d73d 4c35 9dbe
00000290: 75f7 eebe 6f74 44bc 3b54 77be 2431 b9bd
000002a0: 99a8 883e 4072 a43e dc10 0fbe 32e9 e3bd
000002b0: 0f47 c53d a7b5 3fbd 749f 08bf 48f4 e43d
000002c0: 2341 aebd 8c82 923c 2aca 68be ec35 063d
000002d0: 4968 b7be 0668 4dbe e8a6 123f 8e93 883e
000002e0: 316f 8d3c 428a 003e ba4a 17bc cc1b 1a3e
000002f0: 97ec db3d 6602 17be 0cf8 013e f665 bebe
00000300: ad6b 7a3e ed91 fa3e 5a6c ab3e ba06 243e
00000310: 2860 983e 2561 843e 989a c3be bea6 973d
00000320: 05ff 3e3e 5a4f b33e c8d0 0fbe 3fc1 043e
00000330: 029d d83e 70cb 2c3f baf7 60bd fc58 fa3e
00000340: 2cef 95be 254a 053f 151e cf3e 47c0 d63a
00000350: 22db 6abe 0904 c7be 9830 233c 29f9 1cbe
00000360: 5021 b3be a774 6cbe a8c0 c9bd b918 063e
00000370: 634d 0e3e cc75 5b3e acea b1bd 43c4 7e3e
00000380: 5535 59be a02d d63e 505f b03e 0abd 36bd
00000390: 2b72 30bd a0cb 9bbe 6f30 933e 5737 fdbd
000003a0: 5d61 263e 49bc b53e 04a8 28be a687 993e
000003b0: 06dd 813e eda4 0e3e 8b17 e1bc 668f c9bd
000003c0: d2bd db3d 9db8 3d3e 97e2 cabd 54eb aebd
000003d0: 2cde 26bc 4d4b 283e ea13 fdbd 77c9 8dbe
000003e0: d123 503d d3c3 20be afab a33d a76f da3e
000003f0: 296d 423e 6d66 333e 7f83 14bf c36f 3b3e
0.09852722 -0.2907371 0.23734757 -0.45411697 0.18829492 -0.09696587 -0.5510988 -0.04666907
-0.0006910291 -0.018322581 0.2632766 -0.10762867 0.004287377 0.22356032 -0.30268604 -0.21487182
0.064831264 -0.21688506 -0.2970556 0.057858583 -0.3748922 -0.28307793 0.6765686 0.050663978
-0.086654395 -0.012770034 0.28991765 0.20592085 0.10322049 -0.1648678 0.20113817 -0.23865391
0.12647822 0.38224363 0.5388101 0.08319907 -0.08718951 -0.09148971 -6.7793764e-05 0.23092003
0.18221223 0.31400096 -0.06921687 0.503072 0.4479107 0.36110878 -0.018616613 0.27705744
-0.3365686 0.0025512406 0.2580739 0.014287155 0.031086441 -0.29699972 0.17459574 0.10953047
0.08136564 0.060013186 0.17166312 0.10285069 0.047941234 0.25254846 -0.16786408 -0.1614633
0.07375148 -0.0834474 0.030160861 0.09390618 0.10912119 -0.3779365 -0.054869197 -0.22506028
-0.35052654 0.18385562 0.42496184 -0.3439267 -0.19156012 0.26114383 -0.27442756 -0.098895356
0.3359891 -0.017714776 -0.014793465 -0.30069458 0.15361084 0.044311475 -0.38738632 0.51526475
-0.0818972 -0.061123297 0.4857615 0.52112705 -0.23893389 0.26664978 0.024278969 -0.13980977
0.026862025 0.5637011 -0.6161727 -0.22122313 -0.008064888 -0.23762462 0.15048102 -0.3751446
0.18017319 0.20759964 -0.49882495 0.26029947 0.65107405 0.41119406 0.30828896 -0.30165213
0.10569637 -0.23021437 -0.15887822 0.22075264 -0.43542045 0.23448326 0.2194084 0.08411507
0.37667215 0.35277885 0.50009936 -0.35747266 -0.32054314 0.26817247 -0.18295377 -0.5679929
-0.15679438 -0.15536167 0.19095698 0.1303293 -0.052337095 -0.20698524 0.11778603 0.10480011
-0.0014435516 -0.37128425 0.06615759 0.01371358 -0.23639335 -0.0612095 -0.16508389 -0.07647497
-0.19790332 -0.36120233 -0.21935207 -0.00046057068 0.30676657 0.46754706 -0.38603932 -0.1881485
-0.037673064 0.21445927 -0.09825491 -0.253169 0.39498883 -0.26165393 -0.14405164 0.023133073
-0.040902644 0.01776153 0.10545467 -0.30704725 -0.4667317 -0.011990651 -0.24153225 -0.09042576
0.2669113 0.32118416 -0.13971275 -0.11128463 0.09632694 -0.046804097 -0.53368306 0.111794055
-0.085085176 0.017884515 -0.2273337 0.032766268 -0.3582175 -0.20059213 0.5728593 0.26675075
0.017264934 0.12552741 -0.009234125 0.15049666 0.10738485 -0.14747009 0.12692279 -0.37187165
0.24455138 0.48939458 0.33481103 0.16018191 0.2976086 0.25855365 -0.38203883 0.074048504
0.1865197 0.35021478 -0.14044487 0.12964343 0.42307287 0.6749792 -0.05492375 0.48896015
-0.29284036 0.5206626 0.40452638 0.0016384207 -0.22935155 -0.38870266 0.009960316 -0.15329422
-0.34986353 -0.23091374 -0.098511994 0.13095368 0.13896708 0.21431655 -0.08687338 0.24879555
-0.21211751 0.41831684 0.34447718 -0.044613875 -0.04307763 -0.3042879 0.2874789 -0.12364071
0.16248079 0.35495213 -0.16470343 0.29986304 0.2536394 0.13930102 -0.027477046 -0.09841804
0.10729565 0.18527456 -0.099065 -0.08540979 -0.010184806 0.16434975 -0.12357314 -0.27692768
0.050815407 -0.15699701 0.079917304 0.4266331 0.18986954 0.17519541 -0.5801315 0.18304352

lstm.weight_hh_l1 f4 [128, 32]
00000000: 7262 bebe 08d5 843d 9fb8 23be 8e33 7dbc
00000010: 6c9d 263f 4736 26be d5f0 7fbe 26f5 99be
00000020: d9d5 fdbc 8c51 38be 8294 9c3e aa23 28be
00000030: 659f 283e cfe2 493c 6340 3c3d fadd f9bc
00000040: f241 87bd 0519 bf3d d11e 2c3e d743 cf3d
00000050: 2231 94bd 6418 39be 0ab8 dcbc 182a d7bd
00000060: 46fe 9cbd 5a5a c83c 0639 083d a7ba 95bd
00000070: 4f9b 37be 5c72 88bd 4904 7cbe d16b 9ebd
00000080: d6ec b43d 3a3f 2dbd 47d3 843e c4d0 6dbe
00000090: e0dc 06bd fe68 5f3d 7cd2 2bbe 2346 9dbd
000000a0: b888 a03e eca7 98be d0cd 833e 79e4 4abe
000000b0: 44f2 90bd ba29 83be d0c7 4abd b605 d4bd
000000c0: 601b d73c 8f55 533e 4984 b63e 378f 933e
000000d0: b7e7 0cbe 6fab bdbe 64db db3b 403f 14be
000000e0: 91c3 37be d7db 5d3e f732 913d bf73 c73d
000000f0: 5a55 b1bd 862c 613e 3a3e 8e3e 6901 9abd
00000100: 368d f9bc 1523 3ebe 55dc 4cbc fac4 05be
00000110: ca86 1dbe 4146 083e f1ff 10be d653 003e
00000120: b5b8 bcbd 8a5c 223e 47af dd3d df4a 523d
00000130: 4056 1cbe e2d5 983c 3e39 033d 2b00 1bbe
00000140: 2b48 2cbe 70c2 8cbe 968b 863c fcd5 08be
00000150: c0bc 3a3d 58c3 903d 43cd 66bc d093 7f3c
00000160: 40d9 8d3d 5693 cbbd 3803 1ebe bd5d b13e
00000170: 34bc 713e b35d 88bc 7251 1c3d e6ec b63c
00000180: c38b 44be 0a91 4f3e 85e5 c8be 45c5 0f3f
00000190: eed9 d23e 3ec9 e4bb a32f 9ebd 22ae ddbe
000001a0: e14a 103e 1568 883b c597 a93e e943 813c
000001b0: 0c64 82be e2e7 893e 431e 783d b25a 703e
000001c0: e085 303e 0fd3 a6be 2fb8 193e af31 883d
000001d0: 3c6a d7bd 6c47 1c3d 9a21 1abd cd60 403d
000001e0: ea45 df3c 7375 853e 7a37 3e3d fc21 3cbe
000001f0: 2da8 67be f37b 7d3d 07a2 783e 06ff 3ebd
00000200: 46b2 6abe bcc5 a53e 9512 113c 18cb 8c3e
00000210: 5427 8ebd 2179 13be d02f babe 8f42 1cbe
00000220: d6d3 eb3d 279e 10bf 5572 1d3e 6c5c 503e
00000230: 54bf a13e b5e8 d3bd e616 b63e a8da 6a3e
00000240: 63de 8d3d a93d 343d dd21 733e a5ec 80be
00000250: 78b9 30be 3808 b7bd 9e67 8fbd 593e cdbe
00000260: a26b 06be a2e4 c3be be15 1c3e 116d a8be
00000270: 071b b1be eb82 ad3c 0030 e1be 979b 43bd
00000280: 6a9b e33b e1a0 b9bd 74c1 84bd 107a 9d3e
00000290: 6176 9c3e 564b 6ebe 8f83 71be 69fc db3c
000002a0: 76f4 d23d a49f 19be da36 b33d 6091 2abe
000002b0: 1c11 023f eea1 953d 6cbb a73d ba42 6ebe
000002c0: 42f5 8dbe 2d1d d83e e23d 6a3e 3341 543e
000002d0: ab21 88bd b1e9 b6bd a2b9 1a3d b474 c9bd
000002e0: f967 a3bd bdbb 363e f746 863e 3b2b c2be
000002f0: 4fef 27bc 0a37 a53d 51b0 b93e f1a9 88be
00000300: 2d43 523e a582 b5bd 4505 c3bd de8e 27bc
00000310: 5317 503e ff01 7d3e 5c0d a33e 538c 8bbe
00000320: 7006 7bbd 94eb 223e 59f9 64be b41e 59be
00000330: dafb 79bc 04fe 6fbd 0419 e5bd 0222 9a3d
00000340: 32cd 6d3e eff0 85be 9bdb 0bbe 4411 803d
00000350: 7772 5b3e 9f89 bdbe 2e25 e33d 4897 ad3e
00000360: cf41 5e3e 0231 dbbd 1c89 27be dad3 34bd
00000370: 8413 b63b 3d46 3abd 9f8f 41be 12dd 283e
00000380: eca9 3d3e 91e9 abbe 78aa 143e b77a dcbc
00000390: 930e 05bf 3ba3 053f 7955 8e3e adf4 703e
000003a0: f9d5 cfbe e08a fc3e 1b7c cfbd 1583 c7be
000003b0: 27fc 443e 6cf2 5dbe 1d4e 8abe e316 d6bd
000003c0: e600 c1bd c696 adbe 1411 59be 6011 08be
000003d0: fcea 0e3f 24d2 84bc b641 82be 5cf2 c03e
000003e0: f602 1b3f 96b8 c9be 4ede aabe 2d62 f73d
000003f0: 2617 873e ba4b 70bd c117 d63c 7898 8b3e
-0.37184483 0.06485945 -0.15988396 -0.015454186 0.65083957 -0.16231643 -0.24994214 -0.30069846
-0.03098576 -0.17999858 0.30582052 -0.16419855 0.16467054 0.012322142 0.04595984 -0.030501354
-0.06604375 0.09330944 0.1680863 0.10120361 -0.07235934 -0.1807571 -0.026943225 -0.105060756
-0.07665686 0.024457145 0.033257507 -0.07310992 -0.1793034 -0.06662437 -0.2461101 -0.07735408
0.08834235 -0.042296626 0.25942442 -0.23224169 -0.032925487 0.054543488 -0.16779512 -0.07679393
0.31354308 -0.29815614 0.2574296 -0.19813718 -0.070774585 -0.25617772 -0.049506962 -0.10352652
0.02625817 0.20638107 0.356478 0.28820202 -0.13760267 -0.37044856 0.006709503 -0.14477253
-0.17945696 0.21665893 0.07089799 0.09738874 -0.08658858 0.2198964 0.2778185 -0.075198
-0.030462842 -0.1856807 -0.012503703 -0.13063422 -0.15383449 0.1330805 -0.14160134 0.12531981
-0.092149176 0.15855613 0.10824447 0.051340934 -0.15267277 0.018656675 0.032037012 -0.15136783
-0.16824405 -0.27492094 0.016423982 -0.13362879 0.045590162 0.07068509 -0.014087024 0.015599206
0.06926203 -0.099402115 -0.15430915 0.3464183 0.2360695 -0.016646242 0.03816361 0.022329759
-0.1919394 0.20270172 -0.3923761 0.56160384 0.41181892 -0.0069819978 -0.0772393 -0.43296915
0.14091064 0.004162798 0.33123603 0.015779452 -0.25466955 0.26934725 0.060575735 0.23472098
0.1723857 -0.325829 0.15011667 0.066501014 -0.105183095 0.03815405 -0.0376297 0.046967316
0.027255017 0.2606617 0.046439625 -0.18372339 -0.22622748 0.061885785 0.24280559 -0.046629928
-0.22919568 0.32377422 0.008854528 0.27498698 -0.06941095 -0.14401676 -0.36364603 -0.15259765
0.11515014 -0.5649132 0.15375645 0.20347756 0.31591284 -0.1034712 0.35564345 0.22934973
0.069271825 0.044004116 0.23743387 -0.25180545 -0.1725825 -0.089371145 -0.07002185 -0.4008663
-0.13126996 -0.3826037 0.15242669 -0.3289571 -0.34590933 0.02118059 -0.43981934 -0.047755804
0.006946017 -0.09063888 -0.06482211 0.3075719 0.30559066 -0.23270926 -0.23585342 0.026853757
0.103005335 -0.15002304 0.087506965 -0.16657019 0.50807357 0.07306276 0.08190045 -0.23267642
-0.2772618 0.4220976 0.22875169 0.20727997 -0.06647047 -0.08931292 0.03777469 -0.098367125
-0.079788156 0.17845054 0.26226017 -0.37923607 -0.010249927 0.080671385 0.3626733 -0.26692155
0.20533438 -0.08862809 -0.095224895 -0.010226933 0.20321397 0.24707793 0.3184613 -0.27255496
-0.061285436 0.15910178 -0.22360744 -0.21203119 -0.0152578 -0.058591858 -0.11186412 0.07526018
0.23222807 -0.2616038 -0.13657992 0.06253293 0.21430384 -0.3701906 0.11091076 0.3390448
0.21704791 -0.10702707 -0.16360897 -0.04414735 0.0055565257 -0.04547714 -0.18902443 0.16490582
0.18521851 -0.33576635 0.14518154 -0.026913984 -0.51975363 0.52202195 0.27799585 0.23530836
-0.40592936 0.49324703 -0.10131093 -0.38967195 0.19236813 -0.21674508 -0.2701272 -0.10453584
-0.094239995 -0.33904094 -0.21197921 -0.13287878 0.5582731 -0.016213484 -0.25440758 0.37684906
0.60551393 -0.3939864 -0.3337273 0.120792724 0.26384848 -0.05866597 0.026134374 0.27264762

lstm.bias_ih_l1 f4 [128]
00000000: a156 d83e 29c9 333e ea81 5c3e 209d f9bc
00000010: b9f1 41be c0d3 d93e 024b e73d 419e 94be
00000020: 83c1 d43c 4164 e13e 0da5 783e 53f8 22bd
00000030: e4ed 5abe a03d 293e 04d2 313e 3780 aebe
00000040: 1c5c 2ebe 59ef 9d3e 7218 0c3e edd9 ac3e
00000050: 2391 523d 1036 0dbd d78e cd3e a9ee ab3e
00000060: 17bc 663e e70e 9c3d 4abb f73d 1d3a debe
00000070: 9cc4 d53d 2761 883e 13c1 8d3d 412d b53e
00000080: d7a2 e23e f8ab 4e3e 5a79 323e fc80 653d
00000090: dad7 003e 7e9d ee3e f685 c93d ca75 8d3d
000000a0: 0ea9 6d3e 3e9b 103f 4f44 ee3d 72fa 5e3e
000000b0: afd5 b5bc c886 2dbe 8664 973e 9d99 b0be
000000c0: 1b32 bdbe a130 273f 36cd 7b3e 57d7 1a3e
000000d0: a479 a33e 3cfb 173d 6a78 553e 8c27 143f
000000e0: cf68 a53e e542 dcbd 2995 d33d 9637 e23d
000000f0: d0a7 c13d 8846 063d ef11 1a3e ed09 153f
00000100: 890c 72bd 6eea afbd ecd1 903e 3404 c6bd
00000110: df92 ecbd 7baf 0abe b2ee a6bc 3768 053e
00000120: 3b95 22be 75c8 0fbd 6622 d6bd 5219 12bd
00000130: 19da 883d 8e9d fabd e78e efba 418d 57bd
00000140: 2922 f5bd 14f7 323d d124 bbbd 6277 ecbd
00000150: fab0 51bc 37f2 06be 55d0 55be af59 95bd
00000160: 15e8 413c 7c38 86bd f528 83bd 6cd0 22bd
00000170: 1e44 943d f291 1cbe 115b adbe 76d1 3abe
00000180: 6507 cd3e 5580 e53d 05fe 543e 0429 0ebe
00000190: c24f 0dbe 8962 f03e 8129 423d c61a 7ebe
000001a0: 6a83 643d dc39 e23e 275b 433e b3f9 65bd
000001b0: fe29 47be ac2d 0e3e 7775 323e 08e5 adbe
000001c0: 1731 27be b93b 983e d5f6 ae3d fbab a93e
000001d0: dcf4 fb3c 92fe a1bd a353 b23e 5aa5 7a3e
000001e0: 8386 4f3e 403e d93d fe54 b53d f0bf febe
000001f0: 2387 f73d 6472 923e 1626 823d 5a63 a73e
0.42253593 0.17557205 0.21533933 -0.03047043 -0.18939866 0.42544365 0.112936035 -0.29026988
0.02597118 0.440218 0.24281712 -0.0397876 -0.2137981 0.16527414 0.17365271 -0.34082195
-0.17027324 0.3084667 0.136812 0.33760014 0.051407944 -0.034475386 0.4014804 0.3358052
0.22532688 0.0762003 0.120962694 -0.43403712 0.10437891 0.2663662 0.069215916 0.35386088
0.44264862 0.20182788 0.17429104 0.056031212 0.12582341 0.46604532 0.09840004 0.06907232
0.2320902 0.5648688 0.116341226 0.21775225 -0.022196619 -0.16945946 0.2956888 -0.34492198
-0.3695229 0.65308577 0.2459 0.15121208 0.31928742 0.03710483 0.20846716 0.57872844
0.32306525 -0.107549466 0.103311844 0.110457584 0.09455836 0.032782108 0.15045904 0.5821827
-0.059093986 -0.08589636 0.28285158 -0.096687704 -0.11551451 -0.13543503 -0.02037749 0.13028036
-0.1587724 -0.03510328 -0.1045578 -0.03566868 0.06682224 -0.122370824 -0.0018276841 -0.052624945
-0.11969406 0.043692663 -0.091378815 -0.11546208 -0.012798542 -0.13178335 -0.20880254 -0.072924964
0.011835118 -0.06553742 -0.06404296 -0.039749548 0.07239555 -0.15290049 -0.3385854 -0.18243966
0.40044704 0.11206118 0.20800026 -0.13882834 -0.13799956 0.46950176 0.047402862 -0.24814901
0.05578939 0.44184768 0.1907774 -0.056146335 -0.19449612 0.1388461 0.17427622 -0.339638
-0.1632732 0.29733065 0.08543173 0.33139023 0.030756406 -0.079098836 0.34829435 0.24477139
0.20266156 0.10607576 0.088541016 -0.49755812 0.12086322 0.28602898 0.063549206 0.32692987

lstm.bias_hh_l1 f4 [128]
00000000: a156 d83e 29c9 333e ea81 5c3e 209d f9bc
00000010: b9f1 41be c0d3 d93e 024b e73d 419e 94be
00000020: 83c1 d43c 4164 e13e 0da5 783e 53f8 22bd
00000030: e4ed 5abe a03d 293e 04d2 313e 3780 aebe
00000040: 1c5c 2ebe 59ef 9d3e 7218 0c3e edd9 ac3e
00000050: 2391 523d 1036 0dbd d78e cd3e a9ee ab3e
00000060: 17bc 663e e70e 9c3d 4abb f73d 1d3a debe
00000070: 9cc4 d53d 2761 883e 13c1 8d3d 412d b53e
00000080: d7a2 e23e f8ab 4e3e 5a79 323e fc80 653d
00000090: dad7 003e 7e9d ee3e f685 c93d ca75 8d3d
000000a0: 0ea9 6d3e 3e9b 103f 4f44 ee3d 72fa 5e3e
000000b0: afd5 b5bc c886 2dbe 8664 973e 9d99 b0be
000000c0: 1b32 bdbe a130 273f 36cd 7b3e 57d7 1a3e
000000d0: a479 a33e 3cfb 173d 6a78 553e 8c27 143f
000000e0: cf68 a53e e542 dcbd 2995 d33d 9637 e23d
000000f0: d0a7 c13d 8846 063d ef11 1a3e ed09 153f
00000100: 890c 72bd 6eea afbd ecd1 903e 3404 c6bd
00000110: df92 ecbd 7baf 0abe b2ee a6bc 3768 053e
00000120: 3b95 22be 75c8 0fbd 6622 d6bd 5219 12bd
00000130: 19da 883d 8e9d fabd e78e efba 418d 57bd
00000140: 2922 f5bd 14f7 323d d124 bbbd 6277 ecbd
00000150: fab0 51bc 37f2 06be 55d0 55be af59 95bd
00000160: 15e8 413c 7c38 86bd f528 83bd 6cd0 22bd
00000170: 1e44 943d f291 1cbe 115b adbe 76d1 3abe
00000180: 6507 cd3e 5580 e53d 05fe 543e 0429 0ebe
00000190: c24f 0dbe 8962 f03e 8129 423d c61a 7ebe
000001a0: 6a83 643d dc39 e23e 275b 433e b3f9 65bd
000001b0: fe29 47be ac2d 0e3e 7775 323e 08e5 adbe
000001c0: 1731 27be b93b 983e d5f6 ae3d fbab a93e
000001d0: dcf4 fb3c 92fe a1bd a353 b23e 5aa5 7a3e
000001e0: 8386 4f3e 403e d93d fe54 b53d f0bf febe
000001f0: 2387 f73d 6472 923e 1626 823d 5a63 a73e
0.42253593 0.17557205 0.21533933 -0.03047043 -0.18939866 0.42544365 0.112936035 -0.29026988
0.02597118 0.440218 0.24281712 -0.0397876 -0.2137981 0.16527414 0.17365271 -0.34082195
-0.17027324 0.3084667 0.136812 0.33760014 0.051407944 -0.034475386 0.4014804 0.3358052
0.22532688 0.0762003 0.120962694 -0.43403712 0.10437891 0.2663662 0.069215916 0.35386088
0.44264862 0.20182788 0.17429104 0.056031212 0.12582341 0.46604532 0.09840004 0.06907232
0.2320902 0.5648688 0.116341226 0.21775225 -0.022196619 -0.16945946 0.2956888 -0.34492198
-0.3695229 0.65308577 0.2459 0.15121208 0.31928742 0.03710483 0.20846716 0.57872844
0.32306525 -0.107549466 0.103311844 0.110457584 0.09455836 0.032782108 0.15045904 0.5821827
-0.059093986 -0.08589636 0.28285158 -0.096687704 -0.11551451 -0.13543503 -0.02037749 0.13028036
-0.1587724 -0.03510328 -0.1045578 -0.03566868 0.06682224 -0.122370824 -0.0018276841 -0.052624945
-0.11969406 0.043692663 -0.091378815 -0.11546208 -0.012798542 -0.13178335 -0.20880254 -0.072924964
0.011835118 -0.06553742 -0.06404296 -0.039749548 0.07239555 -0.15290049 -0.3385854 -0.18243966
0.40044704 0.11206118 0.20800026 -0.13882834 -0.13799956 0.46950176 0.047402862 -0.24814901
0.05578939 0.44184768 0.1907774 -0.056146335 -0.19449612 0.1388461 0.17427622 -0.339638
-0.1632732 0.29733065 0.08543173 0.33139023 0.030756406 -0.079098836 0.34829435 0.24477139
0.20266156 0.10607576 0.088541016 -0.49755812 0.12086322 0.28602898 0.063549206 0.32692987

lstm.weight_ih_l2 f4 [128, 32]
00000000: 6abe 903e 3226 6cbe 0b71 9e3e b329 a3be
00000010: bf91 10bf cd74 3a3e a9da 633e 1f21 5f3e
00000020: a40e 9abe b1fd c7bd ce2f 0abe ecda 04bf
00000030: 3d77 d4bd 559d 9cbd 6527 82be 0729 7dbe
00000040: c2c1 aebe 9886 b8bd acd5 47be 388b f1bd
00000050: 183c 1d3e 8195 ba3c 440d bbbe 7f5a 0d3e
00000060: 6fc1 e3bd e6fd dfbc 9038 d5be 443e d43e
00000070: cbae 843e bc8f a2be e942 5fbd 0d7e 9b3e
00000080: 1d59 36bd 4c7d 243e 74ae 11bf 230d 563e
00000090: d196 3e3e d915 033e 70b4 9abe 7729 44be
000000a0: b329 ae3e 6575 7abd 10d1 1abd 25a1 083e
000000b0: e20b 193e cb5d 66bd 30bd 343d c3ca 66bd
000000c0: 22e6 91be 7146 c8bd 95cb 8c3e 4340 063e
000000d0: ca8e 9bbd e95b fd3d 42f7 9b3e 3026 6a3e
000000e0: 18a0 213e 2937 5e3e 1b2c c23c 4fa7 09bf
000000f0: 42e4 31be 3254 ddbd 1e6a d23d 5b2e 263e
00000100: 1732 053e e0ab 723c 58c2 583d a978 a1be
00000110: 1ef1 1bbf 7f57 2a3e 7d4f a83e 32d1 7c3c
00000120: 1329 c6be 24c7 063e b897 47be bab4 b0bd
00000130: 5ed0 e6be d139 a4be 25ab 14bf 3bbb b8be
00000140: a34f d5be ac27 0cbe 3330 cfbe 4885 c3be
00000150: e616 e43e 8d96 d7be 9731 b2be 2c4e b43d
00000160: 15b5 243e f090 9abe 01a6 1ebf 452f 5e3e
00000170: e4c1 7dbd a6c6 fcbe db8b aebe 71f9 a33e
00000180: acaa 9d3e c2b9 c6bd 4577 953e 2fc8 c3be
00000190: 98b4 e3be 750e 103e 8031 083e c7c7 d33e
000001a0: 8ce7 853d 54ec 353d 3b42 42be c129 95be
000001b0: 5dc8 c43c cbce a6be ba5c f5bd 7b9c 9ebe
000001c0: 2f76 1bbf a3c4 1fbe 31ed 47be cd94 78bd
000001d0: a3c7 623e 7498 babe a1fc 14bf f7da d63e
000001e0: 9241 e8bb ddb9 c0be 1692 b3be 6c6d d73e
000001f0: 1594 093d 31e3 63bc c09e 6dbe 8dd5 f5bd
00000200: 8a47 3e3e c0f0 1b3e c048 943d ffad 9a3d
00000210: ddf7 853d b5df ae3d 8dfa ee3d b7c1 3f3e
00000220: e191 b0be 71d5 883e c407 20be 8159 b33e
00000230: e61e c73e 7878 433e 93a3 9b3e 328a 9439
00000240: 1490 56bd 4a5b b4ba 7934 8a3e 9cef a03e
00000250: 6384 b63d 707f e03e ca80 a23d 7d9e 253e
00000260: 88b5 543e d522 383e 5fd4 80be 39a6 59bd
00000270: 8d83 483e a886 f23d e768 2b3d 06bf a3bd
00000280: a380 953e 0e3b b83e 1164 7fbe 62bb 043f
00000290: 8eb6 813e 9445 ad3e 993d b1be 102c cbbd
000002a0: ccaf b9bd 7721 dd3d 95b0 623e c448 3d3d
000002b0: f54f b33d 1863 d4bd ef3c 353e 2d97 313f
000002c0: 08fe 303e 384a 8ebe 3333 7fbe a4c9 fc3d
000002d0: 610a cebe fe6e 633e d3c3 98bd 7feb c13e
000002e0: 242c 993d e30c 073e 524b 13bc aeaa 98be
000002f0: 5a1e 9bbe f332 9c3d c7e5 503e 8290 ef3e
00000300: fbe7 8d3e 5d4f ce3d 1429 a7bd 38ca bbbd
00000310: d214 e63c da38 2c3c 6d59 053e c363 8dbd
00000320: 69cb dabd 84a3 6e3e f641 3cbe 84b6 b33d
00000330: 246a 703d 4491 2a3e 6f7f 1bbd 7dbd 82be
00000340: 5871 93be 8baa 71be b84a b93c b01a 973c
00000350: 3a0a b53e 5d98 f33d 91c1 00be 6965 043e
00000360: 438b 4c3e baf8 97be e5cb b8bc 989b 5e3e
00000370: 7e21 c33e 6a4c 72bd 926e 323b 1e8b aabd
00000380: ce9e 163e 2038 00bf 47eb 12bc 26d4 a7be
00000390: f579 933e 8d84 943e b23c b9bd a719 123e
000003a0: 2d00 c4be fd7d 333e 12ed 67be 7aa0 f1be
000003b0: c09c 35bf e240 413d 21fe 9ebd 1688 643d
000003c0: 60e7 f83c 0ae8 83be c93a e3be 8993 e8be
000003d0: 5e28 f33e d15e 17be 6921 42be 9e8a 743e
000003e0: 4e7e db3e d2a5 433e 6683 39bd 6388 cf3d
000003f0: 2866 163d f434 b0be a61d c0be 88f9 2e3e
0.28270274 -0.23061445 0.3094562 -0.3186775 -0.5647239 0.18208618 0.22251381 0.21789978
-0.30089295 -0.09765185 -0.13494799 -0.5189655 -0.103743054 -0.07647196 -0.2542068 -0.24722682
-0.341322 -0.09010047 -0.19515103 -0.11794132 0.15354955 0.022776367 -0.36533558 0.13804053
-0.11120879 -0.027342748 -0.41644716 0.41453755 0.25914606 -0.31750286 -0.05450717 0.30369607
-0.04451858 0.16063422 -0.5690682 0.20903449 0.1861222 0.12801303 -0.30215788 -0.19156443
0.3401619 -0.061147112 -0.037797034 0.13342722 0.14945939 -0.05624179 0.044125736 -0.056345712
-0.2849589 -0.09779061 0.2749907 0.13110451 -0.07595594 0.12371046 0.3046208 0.2286613
0.15783727 0.2170073 0.023702672 -0.5377092 -0.1737223 -0.108070746 0.102741465 0.1622862
0.13007389 0.014811486 0.052919716 -0.3153737 -0.6091479 0.1663494 0.32873145 0.015430735
-0.38703212 0.13161904 -0.1949147 -0.08628221 -0.45080847 -0.3207536 -0.58073646 -0.36080346
-0.4166232 -0.13687009 -0.4046646 -0.38187623 0.4454872 -0.4210705 -0.3480346 0.088039726
0.16084702 -0.30188704 -0.6197205 0.2169772 -0.061952487 -0.49370307 -0.34091076 0.32026246
0.30794275 -0.09703399 0.29192558 -0.38238665 -0.4447372 0.14068015 0.13300133 0.41363356
0.06538305 0.044414833 -0.18970577 -0.29133418 0.024021322 -0.32579646 -0.11980577 -0.3097876
-0.6072721 -0.15602355 -0.19524075 -0.060688782 0.22146468 -0.36444438 -0.5819798 0.41963932
-0.0070878947 -0.37641802 -0.35072392 0.4207567 0.033588488 -0.013909147 -0.2320509 -0.12003622
0.18581977 0.15228558 0.072404385 0.07552718 0.06541417 0.085387625 0.116688825 0.1872624
-0.34486297 0.26725343 -0.15627962 0.35029224 0.3889076 0.19088924 0.30398235 0.00028331723
-0.052383497 -0.0013760116 0.26993158 0.31432807 0.089119695 0.43847227 0.07934721 0.1617374
0.20772374 0.17982037 -0.25162026 -0.053137038 0.19581433 0.1184209 0.04184809 -0.07995419
0.29199705 0.35982555 -0.24940516 0.51848423 0.2533459 0.33842146 -0.34617308 -0.09920514
-0.09066734 0.107973985 0.22137673 0.046211973 0.08755485 -0.10370463 0.17699026 0.693713
0.17284405 -0.27791 -0.24921875 0.123431474 -0.40242293 0.22210309 -0.074592255 0.37874982
0.07479122 0.1318851 -0.008990126 -0.29817718 -0.30296594 0.07626905 0.20400153 0.46789938
0.2771605 0.10073731 -0.08162132 -0.091694295 0.0280861 0.010511601 0.13022394 -0.06903794
-0.10683329 0.23304564 -0.18384537 0.087750465 0.058694974 0.16656977 -0.037963327 -0.25535193
-0.28797412 -0.23600213 0.022618636 0.018445343 0.35359365 0.11894295 -0.1257384 0.1292931
0.19974999 -0.2968195 -0.022558162 0.21739042 0.3811149 -0.059154905 0.002722655 -0.08327316
0.14709017 -0.5008564 -0.008967227 -0.32779044 0.28803983 0.29007378 -0.0904478 0.14267598
-0.38281384 0.1752853 -0.22649029 -0.47192746 -0.70942307 0.047181018 -0.07763315 0.055793844
0.030383766 -0.2576297 -0.44380787 -0.4542506 0.47491735 -0.14782263 -0.18958057 0.23881003
0.428698 0.19106224 -0.045291327 0.101334356 0.036718518 -0.344154 -0.3752262 0.17087376
