fl_experiment_20260116_153133/mlp_model.pth (torch, 24292 bytes, 9 tensors)

main.0.weight f4 [64, 23]
0	0x3eb5f6d5	0.3553988
1	0xbea315b5	-0.318525
2	0x3f031cf3	0.5121605
3	0x3f2f3032	0.68432915
4	0x3df32dab	0.11873945
5	0xbf06afed	-0.5261219
6	0xbe344245	-0.17603405
7	0xbeb7b394	-0.35879195
8	0xbdf9f9f2	-0.122058764
9	0x3e4aa50b	0.19789521
10	0x3d888c33	0.06667366
11	0xbe5f5d61	-0.21812965
12	0x3d41332a	0.047167934
13	0x3e8dcdd9	0.27696112
14	0xbdff8f55	-0.1247851
15	0x3d06c65c	0.032904014
16	0x3ecc9e71	0.3996463
17	0x3ecc02ea	0.39845973
18	0x3f2aaaed	0.6666706
19	0x3eb2a39d	0.34890452
20	0x3e2496fe	0.16073224
21	0x3ed58e55	0.41710153
22	0x3d18d666	0.03731384
23	0xbe71d352	-0.23615769
24	0xbba4a220	-0.0050242096
25	0x3f12f0e7	0.5739884
26	0x3f0750e0	0.5285778
27	0xbe93e50d	-0.2888569
28	0xbed8040c	-0.42190588
29	0xbe8a2417	-0.2698066
30	0xbe2cf802	-0.16891482
31	0xbe503e5e	-0.20336291
32	0xbd80f79c	-0.06297228
33	0xbe02b4cc	-0.12764281
34	0xbea088bf	-0.3135433
35	0xbdc9560b	-0.098308645
36	0x3dbb7826	0.09153776
37	0x3e150ab2	0.14554861
38	0x3db6a803	0.089187644
39	0x3e2e5846	0.17025861
40	0xbdae4454	-0.08509126
41	0x3f4917ce	0.7855195
42	0x3f0d2318	0.55131674
43	0x3eeabfa7	0.45849344
44	0x3e93ac34	0.28842318
45	0x3e67f8ec	0.2265355
46	0xbe1467e8	-0.14492762
47	0xbbad74c2	-0.0052934596
48	0x3d590f98	0.052993387
49	0x3e2ffe19	0.17186774
50	0x3d84e642	0.06489231
51	0xbe971504	-0.2950822
52	0x3e94b70e	0.2904591
53	0x3e4bbba2	0.19895795
54	0xbd578f00	-0.05262661
55	0xbf08f216	-0.53494394
56	0xbeb002ae	-0.34377044
57	0xbf41d01f	-0.7570819
58	0xbe9004fc	-0.28128803
59	0x3db340b9	0.08752579
60	0x3e17c5f8	0.14821613
61	0xbea75511	-0.32682088
62	0x3cb87426	0.022516321
63	0xbeeb5954	-0.4596659
64	0xbf15f3f8	-0.5857539
65	0xbf807e52	-1.003855
66	0xbe5fde90	-0.21862245
67	0xbf2740c3	-0.65333194
68	0xbf078b1e	-0.5294665
69	0xbf0e67bb	-0.5562703
70	0x3dad16e6	0.08451633
71	0x3e296f86	0.16546449
72	0xbd7082e7	-0.05871859
73	0x3d2eae17	0.042646494
74	0x3e548682	0.20754436
75	0xbd248750	-0.040168107
76	0x3e23945f	0.15974568
77	0x3ed633e7	0.41836473
78	0xbec37fb1	-0.38183358
79	0xbecfdcd8	-0.40598178
80	0xbd101e97	-0.035185423
81	0x3dac68cf	0.08418428
82	0x3dc5bf56	0.09655635
83	0x3e31d383	0.17365842
84	0xbe664a2a	-0.22489229
85	0xbde04a90	-0.10951722
86	0xbf44e975	-0.7691873
87	0xbe41bfa2	-0.18920758
88	0xbe016cbb	-0.12639134
89	0xbefea8a6	-0.49738044
90	0xbf2b3924	-0.66884065
91	0xbf2578ea	-0.64637625
92	0x3cac71e6	0.021050405
93	0xbe0a2375	-0.13490088
94	0xbe10ed46	-0.14153013
95	0x3e9ad0a7	0.30237314
96	0x3ddb6556	0.10712688
97	0x3f1ac620	0.60458565
98	0xbec36d42	-0.38169295
99	0xbdd92740	-0.106031895
100	0x3d06958f	0.032857474
101	0x3da523f5	0.08063499
102	0xbecdf0e0	-0.40222836
103	0x3de66113	0.11248984
104	0x3e1e1db7	0.15441023
105	0x3dcd0427	0.100105576
106	0x3d82f404	0.063941985
107	0x3e099186	0.13434419
108	0x3c91d2a3	0.017800635
109	0x3de0272a	0.1094497
110	0xbf500d6b	-0.81270474
111	0x3e6c36ee	0.23067829
112	0x3cc502e2	0.024049226
113	0x3ea8fd36	0.33005685
114	0xbeaed9e4	-0.34150612
115	0x3e2239b7	0.15842329
116	0x3c17e9e1	0.00927207
117	0xbd51aaf3	-0.05118842
118	0xbd93f3fb	-0.0722427
119	0x3df277c3	0.11839249
120	0x3fccc013	1.5996116
121	0xbd23aee0	-0.039961696
122	0xbe002f62	-0.12518075
123	0xbde00882	-0.10939123
124	0xbe9a5f3f	-0.30150792
125	0x3e84c046	0.25927943
126	0x3de7dd55	0.113215126
127	0xbdc22b88	-0.09480959
128	0xbdd568f7	-0.10420411
129	0xbdb047ca	-0.08607443
130	0x3db7ba04	0.089710265
131	0xbd9cab72	-0.07649888
132	0xbe38ae31	-0.18035199
133	0xbe525956	-0.20541891
134	0xbdcf6643	-0.10126927
135	0x3d87f3c2	0.0663829
136	0xbde414d5	-0.11136786
137	0x3ea6115a	0.32435113
138	0xbbe42b84	-0.0069631953
139	0x3d4d2c7e	0.05009126
140	0xbc8c6440	-0.017137647
141	0xbc898cdd	-0.016790802
142	0x3e5ebc1e	0.21751449
143	0x3fe9af87	1.8256692
144	0x3e93c0b5	0.2885796
145	0xbe017148	-0.1264087
146	0xbe1b72a7	-0.15180455
147	0xbe20f838	-0.15719688
148	0x3d3f50cd	0.046707917
149	0xbe00499f	-0.12528084
150	0xbdade0c2	-0.08490135
151	0x3dec3aba	0.11534639
152	0x3e45c877	0.19314753
153	0xbe79916b	-0.24371879
154	0x3e1fcda7	0.15605794
155	0x3c7a2cba	0.015269453
156	0xbd7aa209	-0.061189685
157	0xbe41b0dd	-0.18915124
158	0x3c2c8ca8	0.010531582
159	0xbe20d26d	-0.15705271
160	0xbe1193a1	-0.14216472
161	0x3e39a179	0.18128003
162	0x3e1554f7	0.14583193
163	0xbd1e7465	-0.03868522
164	0xbed26b2d	-0.41097394
165	0xbe5c56ac	-0.21517438
166	0xbe8d20ce	-0.2756409
167	0x3d8e7e6a	0.06957705
168	0x3e62d9b5	0.22153361
169	0xbe0793ce	-0.13239977
170	0x3ed39e0b	0.41331515
171	0x3e7485a4	0.23879105
172	0x3ea85558	0.32877612
173	0x3de2ccf3	0.11074247
174	0x3e2746f2	0.16335657
175	0x3e8dc5e2	0.27690035
176	0x3c883692	0.016627584
177	0x3ea1473c	0.3149966
178	0x3ee099e3	0.43867406
179	0x3ec9f5f0	0.39445448
180	0x3d033dc8	0.03204134
181	0x3dc6d89c	0.09709284
182	0x3e67fb38	0.22654426
183	0x3ea1a547	0.3157141
184	0x3e418c55	0.18901189
185	0xbc8edba5	-0.017438719
186	0xbb408548	-0.0029376317
187	0x3dbc66af	0.09199273
188	0xbc942080	-0.018081903
189	0xbe034c8a	-0.12822166
190	0xbc2b54d0	-0.010457233
191	0xbe628176	-0.22119698
192	0x3e42d62d	0.19027014
193	0xbe110337	-0.14161383
194	0x3e051a16	0.12998232
195	0xbf5d8551	-0.8653155
196	0xbed21800	-0.41033936
197	0xbf1b9903	-0.6078035
198	0xbf2a2f66	-0.66478574
199	0xbf01b06b	-0.5065982
200	0xbf35a4dd	-0.70954686
201	0x3b69c372	0.0035669473
202	0xbdab015b	-0.08349868
203	0x3d839930	0.064257026
204	0x3d82ac60	0.06380534
205	0x3e23d16f	0.15997861
206	0x3db5610a	0.08856399
207	0xbe257a29	-0.16159882
208	0xbcade231	-0.02122602
209	0xbef8af05	-0.4857103
210	0x3db3df06	0.08782773
211	0xbdc5c27b	-0.09656235
212	0xbef4d640	-0.4781971
213	0xbe8e2cad	-0.2776846
214	0xbe60d05f	-0.21954487
215	0x3e0ff9dd	0.14060159
216	0xbe9a0ff6	-0.30090302
217	0xbe1d0352	-0.15333298
218	0xbe1eff7e	-0.1552715
219	0xbeb460cb	-0.35230097
220	0xbe090d29	-0.13383926
221	0xbecd798b	-0.40131792
222	0xbf0c9b4c	-0.54924464
223	0xbea63230	-0.32460165
224	0x3e72d8f4	0.23715574
225	0x3f1a67c0	0.6031456
226	0xbe5a0673	-0.21291523
227	0xbdec93d7	-0.11551636
228	0x3f095409	0.5364385
229	0x3ee3b179	0.44471338
230	0x3e9d8ffe	0.3077392
231	0xbf376675	-0.7164071
232	0xbe279668	-0.16365969
233	0x3e8ff28f	0.28114745
234	0x3effe684	0.49980557
235	0xbe7d1b44	-0.24717432
236	0x3c5ea6fe	0.013589619
237	0x3e424f6e	0.18975613
238	0xbdb242e7	-0.08704167
239	0x3ea16ee2	0.3152991
240	0x3e707134	0.23480684
241	0x3e20a903	0.15689473
242	0xbd286bc5	-0.041118402
243	0xbe511f9a	-0.20422211
244	0xbe2416ec	-0.16024369
245	0x3d87ce6c	0.06631169
246	0xbe435954	-0.19077045
247	0x3e8589c3	0.26081666
248	0x3ec55e92	0.38548714
249	0xbd35ccc1	-0.04438472
250	0xbda2a254	-0.07941118
251	0x3eb2ef5c	0.34948242
252	0x3db0100c	0.08596811
253	0x3e03869e	0.12844321
254	0x3e925874	0.2858311
255	0x3f1646a3	0.58701533

main.0.bias f4 [64]
0	0x3d1b1b5c	0.03786789
1	0xbe0504d3	-0.12990122
2	0xbe0ce50c	-0.1375925
3	0x3e026a4b	0.1273586
4	0xbcad19cf	-0.02113047
5	0x3e0dd1f0	0.13849616
6	0x3e74d5e6	0.23909721
7	0xbd934df5	-0.071926035
8	0xbe18d6a0	-0.14925623
9	0xbe46d3d8	-0.1941675
10	0xbe151a21	-0.14560749
11	0x3e3aed7c	0.18254656
12	0xbc283af9	-0.010267966
13	0x3dc0bffc	0.09411618
14	0x3e17ecfd	0.14836498
15	0xbe1e2c4c	-0.15446585
16	0xbdc3fdcb	-0.095698915
17	0xbb8f360a	-0.0043704556
18	0xbe30b150	-0.1725514
19	0x3e5e7dd7	0.21727692
20	0xbd87f1ff	-0.06637954
21	0xbd89916e	-0.06717192
22	0x3e4cf753	0.20016222
23	0x3e2658d2	0.1624482
24	0x3cb8483e	0.022495385
25	0xbcb1827c	-0.021668665
26	0x3db027bc	0.08601329
27	0xbe39aad0	-0.18131566
28	0x3e09a86b	0.13443153
29	0xbce6a941	-0.028156878
30	0xbe5256b0	-0.20540881
31	0x3db973ad	0.090552665
32	0x3e1f2a39	0.1554345
33	0xbb634e68	-0.0034684185
34	0xbc399776	-0.011327615
35	0x3ddf6f66	0.109099194
36	0x3cfca87c	0.030842058
37	0xbe2914a2	-0.16511777
38	0x3e15215a	0.14563504
39	0x3dd0ff66	0.102049634
40	0x3cd8bda2	0.026457611
41	0xbe35bae5	-0.17747076
42	0x3e393186	0.18085298
43	0x3d6a75d6	0.057241283
44	0xbc97d994	-0.018536367
45	0xbd61e779	-0.05515239
46	0xbdda6ec7	-0.1066566
47	0x3dee6e0e	0.11642085
48	0x3ddb150c	0.10697374
49	0x3e3bf02b	0.18353336
50	0xbd616e14	-0.05503662
51	0x3c102648	0.008798189
52	0xbe0fedcb	-0.14055555
53	0x3e444b57	0.19169365
54	0xbd9cc786	-0.076552436
55	0xbdad5adf	-0.08464598
56	0x3da1ff6b	0.07910045
57	0xbe3dc87a	-0.18533507
58	0xbca0de68	-0.019637302
59	0xbe39192f	-0.18076013
60	0xbdd93126	-0.106050774
61	0x3d6df823	0.05809797
62	0x3e31a2dc	0.17347282
63	0xbdd16226	-0.102237985

main.1.weight f4 [64]
0	0x3e683a4d	0.2267849
1	0x3ea75518	0.3268211
2	0x3f334dbb	0.7004048
3	0x3f397e02	0.724579
4	0x3f55d572	0.83528817
5	0x3f7bf4ec	0.98420596
6	0x3f7183d5	0.94341785
7	0x3e4c1013	0.19928007
8	0x3ecba6f4	0.39775813
9	0x3e3c4a14	0.18387634
10	0x3ec48aec	0.3838724
11	0x3d8a683c	0.067581624
12	0x3ec98b2a	0.39363986
13	0x3f212d71	0.62959963
14	0x3e36aa84	0.17838484
15	0x3f250c0d	0.64471513
16	0x3e9aa3ec	0.30203187
17	0x3f1fde95	0.6244901
18	0x3f71c9fb	0.9444882
19	0x3f8ccd3d	1.1000134
20	0x3eed6af2	0.46370655
21	0x3ea249a1	0.316968
22	0x3f5800e9	0.8437639
23	0x3eb6a9c9	0.3567641
24	0x3e971935	0.2951142
25	0x3f16084b	0.58606404
26	0x3e774c07	0.24150096
27	0x3e9b932b	0.30385718
28	0x3ea5c58d	0.32377282
29	0x3f54fd52	0.83199036
30	0x3f1d5657	0.6145987
31	0x3f473593	0.7781612
32	0x3f1437ca	0.5789763
33	0x3eefc2a6	0.46828192
34	0x3f07bd96	0.5302366
35	0x3f21ec92	0.632516
36	0x3ea82b26	0.3284542
37	0x3f16fb6b	0.58977383
38	0x3f34e5b9	0.7066303
39	0x3e650f76	0.22369179
40	0x3f16361d	0.5867632
41	0x3ef836b5	0.48479238
42	0x3f04e306	0.5190891
43	0x3eddb138	0.4329927
44	0x3f1a3329	0.60234314
45	0x3f86ef96	1.0541866
46	0x3ec7ed01	0.39048007
47	0x3eb1f1c4	0.34754765
48	0x3f6d4058	0.92676306
49	0x3f5dc178	0.86623335
50	0x3e5a20f0	0.21301627
51	0x3e1c6fa4	0.15276963
52	0x3f2061b3	0.6264908
53	0x3f80fe3e	1.0077589
54	0x3eb9f104	0.36316693
55	0x3f07fbce	0.531186
56	0x3f11244b	0.56696004
57	0x3ed24135	0.41065374
58	0x3f5bd3a1	0.85869795
59	0x3f1a52b5	0.6028245
60	0x3f3b8b14	0.7325909
61	0x3f5a2ae8	0.8522172
62	0x3ef2a942	0.47394758
63	0x3ec37008	0.3817141

main.1.bias f4 [64]
0	0x3e0c1b3d	0.13682266
1	0xbe93f439	-0.28897265
2	0xbeb20d1c	-0.34775627
3	0xbe8dd34a	-0.27700263
4	0xbef7245e	-0.48269933
5	0xbeaf7127	-0.34266016
6	0xbec05344	-0.37563527
7	0xbebdf2da	-0.37099344
8	0xbf0f7a60	-0.56046104
9	0xbf080741	-0.5313607
10	0xbe193404	-0.14961249
11	0xbe85c475	-0.26126447
12	0x3dc8d07d	0.09805391
13	0x3d576813	0.052589487
14	0xbf0070d2	-0.5017215
15	0xbec59b99	-0.38595274
16	0xbf1b7dd9	-0.60738903
17	0xbe9f8501	-0.3115616
18	0xbecce14d	-0.4001564
19	0xbe86c2fe	-0.26320642
20	0xbeb129cf	-0.3460221
21	0xbf2bcd77	-0.6711039
22	0xbe96f15f	-0.29481027
23	0xbf0c7884	-0.5487139
24	0xbefaa52a	-0.48954135
25	0xbf0c36ab	-0.54770917
26	0xbf1bc820	-0.6085224
27	0xbeeaebec	-0.4588312
28	0xbeedeef1	-0.4647136
29	0xbe84c250	-0.259295
30	0xbf242478	-0.64118147
31	0xbec24f29	-0.3795102
32	0xbefe7722	-0.49700266
33	0xbe85c37a	-0.261257
34	0xbd94b125	-0.0726035
35	0x3e44c3e8	0.19215357
36	0xbed41e6d	-0.41429463
37	0xbe86ee1e	-0.26353544
38	0xbe8c3720	-0.27385807
39	0xbeee9ac1	-0.46602443
40	0xbeb605ba	-0.35551244
41	0xbe4dd596	-0.20101008
42	0xbe91e3e6	-0.28494185
43	0xbf061d66	-0.5238861
44	0xbede9637	-0.4347398
45	0xbec324e7	-0.38114092
46	0xbf1a3e9d	-0.6025179
47	0xbf199e23	-0.6000692
48	0xbeaac11e	-0.33350462
49	0xbebb365c	-0.3656491
50	0xbf148b6d	-0.58025247
51	0xbefe4fb4	-0.49670184
52	0xbed188f2	-0.40924793
53	0xbe6f8d3d	-0.23393722
54	0xbf13288d	-0.5748375
55	0xbe30fe14	-0.17284423
56	0xbeb5475c	-0.35406005
57	0xbf070e4d	-0.52756196
58	0xbd2a36ac	-0.041556045
59	0xbe2e1e1d	-0.17003675
60	0xbe7a0cee	-0.24418995
61	0xbe7ec328	-0.24879134
62	0x3abdc8a6	0.0014479354
63	0x3d8ec20c	0.06970605

main.1.running_mean f4 [64]
0	0x3d88d00a	0.06680305
1	0xbdb68ba0	-0.0891335
2	0xbe706be8	-0.23478663
3	0x3d83e82c	0.06440768
4	0xbd318415	-0.043338854
5	0x3e017bf8	0.12644947
6	0x3e3f0767	0.18655168
7	0xbd2d747b	-0.042347413
8	0xbe2ee263	-0.17078547
9	0xbe3310de	-0.17486903
10	0xbdf1535b	-0.11783477
11	0x3e612f20	0.21990633
12	0xbb9591d8	-0.004564505
13	0x3dabaef6	0.083829805
14	0x3e3dd257	0.1853727
15	0xbe5fc502	-0.21852496
16	0xbdf71c69	-0.12065966
17	0xbd975148	-0.0738855
18	0xbe42bc86	-0.19017228
19	0x3e081bc3	0.1329184
20	0xbe0a0459	-0.13478221
21	0xbda3a7fc	-0.07991025
22	0x3e0f3c30	0.13987803
23	0x3e1480ed	0.14502306
24	0x3d99604a	0.07489069
25	0xbd5d6790	-0.054053843
26	0x3dd56245	0.10419134
27	0xbddef479	-0.10886473
28	0x3e14879e	0.14504859
29	0xbd9318f7	-0.07182496
30	0xbe7bd015	-0.24591096
31	0x3c80bad2	0.015714083
32	0x3dae7742	0.085188404
33	0x3c321545	0.010869329
34	0xbc9de607	-0.019274725
35	0x3dea091f	0.11427521
36	0xbcadefb4	-0.021232463
37	0xbdc641f0	-0.09680545
38	0x3df5bca1	0.11998869
39	0x3d844a9b	0.06459542
40	0xbd2ae35c	-0.041720733
41	0xbe48b098	-0.19598615
42	0x3e333642	0.17501166
43	0x3d3646fc	0.04450129
44	0xbc244dfc	-0.010028359
45	0xbe0556ae	-0.13021347
46	0xbe1863a2	-0.14881757
47	0x3d8570b7	0.06515639
48	0x3d06ab5e	0.032878272
49	0x3df71737	0.12064975
50	0xbb994bce	-0.004678226
51	0xbcae8fc0	-0.02130878
52	0xbe2805b1	-0.16408421
53	0x3e0a57ee	0.13510105
54	0xbcd237d1	-0.025661381
55	0xbdbc9052	-0.092072144
56	0x3d2a144e	0.04152327
57	0xbe293764	-0.16525036
58	0x3d442b48	0.04789284
59	0xbe4400c7	-0.19140922
60	0xbe0fa5fa	-0.14028159
61	0xbcf3e12c	-0.029770456
62	0x3e1412c7	0.14460288
63	0xbd82c581	-0.06385327

main.1.running_var f4 [64]
0	0x407d6900	3.9595337
1	0x40754390	3.8322487
2	0x41008150	8.03157
3	0x409852f5	4.7601266
4	0x3fcd3165	1.6030699
5	0x400ea712	2.2289472
6	0x405f8a1a	3.492804
7	0x408113d5	4.033671
8	0x414b2193	12.695697
9	0x40cb6f23	6.3573165
10	0x3fc27e26	1.5194747
11	0x400fb861	2.2456286
12	0x4060ca97	3.512365
13	0x408bd848	4.3701515
14	0x40b5fdf4	5.68725
15	0x40a4f52b	5.1549277
16	0x411919ea	9.568827
17	0x3fef08a0	1.8674507
18	0x4023c7ec	2.5590773
19	0x40b40dfb	5.6267066
20	0x3f95ea90	1.1712208
21	0x408e8856	4.4541426
22	0x408775a4	4.2331104
23	0x411fa426	9.977575
24	0x4094ec13	4.6538177
25	0x40ba9c9c	5.8316174
26	0x3fe487c4	1.7853932
27	0x40944a81	4.6340947
28	0x4019392a	2.394114
29	0x403f2273	2.9864776
30	0x40ac79f5	5.3898873
31	0x40567fd5	3.3515522
32	0x40bdfe83	5.9373183
33	0x4026734e	2.6007876
34	0x40069351	2.1027415
35	0x4025f5a8	2.5931187
36	0x406969d4	3.6470842
37	0x4025c908	2.590395
38	0x4059743a	3.397719
39	0x4023c3d9	2.5588286
40	0x40e1aacf	7.0521007
41	0x40403f7d	3.003875
42	0x3fa67443	1.300423
43	0x40063591	2.0970194
44	0x400fbe9c	2.2460089
45	0x3ff90e41	1.9457475
46	0x401d48ad	2.4575608
47	0x40d6a0fd	6.707152
48	0x4078da50	3.8883247
49	0x40629e84	3.540925
50	0x40a0e980	5.0285034
51	0x405f0663	3.4847648
52	0x40375077	2.8642862
53	0x40b05f47	5.5116305
54	0x4014c202	2.3243413
55	0x4060469b	3.5043094
56	0x4029f219	2.6554015
57	0x40c1bc95	6.0542703
58	0x4044939f	3.07151
59	0x401ca340	2.447464
60	0x40ab4fe1	5.353501
61	0x40fbf83d	7.8740525
62	0x3ffb975a	1.9655564
63	0x40766fca	3.850573

main.4.weight f4 [48, 64]
0	0xbbe0bb60	-0.0068582743
1	0xbcf92d01	-0.030416967
2	0xbe3e90d7	-0.1860994
3	0x3ca76652	0.020434532
4	0xbe0c9ad3	-0.13730936
5	0xbdca61d8	-0.098819435
6	0xbce9a144	-0.02851928
7	0x3e1571a9	0.14594139
8	0x3e5e098d	0.21683331
9	0xbddd3ab2	-0.10802211
10	0xbdf2c2ff	-0.11853599
11	0xbd9f9b7a	-0.07793327
12	0x3daca82c	0.08430514
13	0x3da65a2e	0.08122669
14	0xbe02fda1	-0.12792064
15	0xbc45328f	-0.01203598
16	0x3e493c73	0.19651966
17	0xbeb9fa91	-0.3632398
18	0x3c027fe7	0.007965065
19	0xbef5d098	-0.48010707
20	0xbe5be06d	-0.2147233
21	0xbe2eaaf6	-0.17057404
22	0xbd8b2f80	-0.06796169
23	0xbd72a259	-0.059236858
24	0x3e8a36d4	0.26994956
25	0xbdc1defa	-0.094663575
26	0x3e09480f	0.13406394
27	0xbe1b1cd0	-0.1514771
28	0x3d0af61b	0.03392611
29	0x3c40b3de	0.011761634
30	0x3c9d6a4b	0.019215723
31	0x3c8172e4	0.015801854
32	0xbdeb42fa	-0.11487384
33	0xbd58f0d7	-0.052964058
34	0xbd82bc06	-0.06383519
35	0x3ca62f00	0.020286083
36	0xbe4b3265	-0.19843443
37	0x3e1b9e22	0.15197042
38	0x3d954be0	0.07289863
39	0x3d97e30f	0.07416355
40	0xbdd22c8d	-0.10262404
41	0x3bbb39ef	0.0057136933
42	0x3a41c298	0.00073913625
43	0x3d2200c4	0.03955151
44	0x3dcb6be5	0.099326886
45	0x3d067e53	0.032835316
46	0x3e0b809e	0.13623282
47	0x3e00c153	0.12573747
48	0xbe6515d4	-0.22371608
49	0xbde6a76e	-0.112624034
50	0xbdf26309	-0.11835296
51	0xbe819896	-0.25311726
52	0xbd2def10	-0.042464316
53	0xbdf9ce53	-0.12197556
54	0x3d97b264	0.07407072
55	0xbe7f128a	-0.24909416
56	0xbe591be7	-0.2120205
57	0x3db3587e	0.08757113
58	0x3e149882	0.14511302
59	0x3c821d10	0.015882999
60	0xbd1edf78	-0.038787335
61	0xbec1bf06	-0.37841052
62	0xbe3d4da2	-0.18486646
63	0xbca23c7a	-0.019804228
64	0xbdfd5b61	-0.12370945
65	0xbb197d1e	-0.0023420523
66	0x3d2aa90a	0.041665114
67	0x3e1e9107	0.15485011
68	0xbd98b7cc	-0.074569315
69	0x3e20d038	0.15704429
70	0x3bb3e3a6	0.0054897843
71	0x3d6525e8	0.055944353
72	0x3d7eb668	0.062185675
73	0xbb18a4b7	-0.0023291537
74	0xbe51b426	-0.20478877
75	0x3dfaa6c5	0.1223884
76	0x3e14beae	0.14525864
77	0xbd4f8c80	-0.0506711
78	0x3da80b27	0.08205252
79	0x3daddf20	0.08489823
80	0xbe0c1518	-0.13679922
81	0x3e5d5188	0.21613133
82	0x3e4149e7	0.18875848
83	0x3d837b25	0.06419972
84	0x3e391e5b	0.18077986
85	0xbdb03f48	-0.0860582
86	0x3c75ef16	0.015010616
87	0x3d818adb	0.06325313
88	0xbf032f7e	-0.5124434
89	0x3e79317a	0.2433528
90	0xbe9d6373	-0.30739936
91	0xbe4c65ba	-0.1996068
92	0x3db6f77d	0.089339234
93	0x3de90901	0.113786705
94	0x3e361c03	0.17784123
95	0x3d7036b4	0.05864592
96	0x3d4ea794	0.050452784
97	0xbd51bf2a	-0.0512077
98	0x3dd83804	0.10557559
99	0x3c27db11	0.010245101
100	0xbc90ebd8	-0.017690584
101	0xbe408268	-0.18799746
102	0xbe806583	-0.25077447
103	0x3d1d5457	0.03841051
104	0x3e849c00	0.2590027
105	0xbe5a1a5c	-0.21299118
106	0xbddc3a12	-0.107532635
107	0x3bc663bb	0.0060543693
108	0xbe69beb4	-0.22826654
109	0x3e233443	0.15937905
110	0xbe599ba1	-0.21250774
111	0x3cc6d52e	0.024271574
112	0x3d0dfe34	0.034666255
113	0x3e3c5d1c	0.18394893
114	0xbe04b86b	-0.12960975
115	0xbde68c6d	-0.11257253
116	0x3e9b985a	0.30389673
117	0x3e65ec9d	0.22453542
118	0xbdd201df	-0.10254263
119	0xbd5ecfc6	-0.054397367
120	0x3dbaf9b0	0.09129655
121	0xbd6b04c5	-0.057377595
122	0xbb25f008	-0.0025320072
123	0xbe760446	-0.24025068
124	0x3d34d6ea	0.04415027
125	0x3ddde226	0.1083415
126	0xbd8de0d8	-0.06927651
127	0x3e9b7a09	0.30366543
128	0x3d90cdc2	0.07070495
129	0x3e8e60f7	0.27808353
130	0xbdca8176	-0.09887974
131	0xbdca34af	-0.0987333
132	0xbcf2489c	-0.029575638
133	0xbe3a11fe	-0.18170926
134	0xbdc46f3d	-0.095915295
135	0xbd17ecd2	-0.037091084
136	0x3dc01dad	0.0938066
137	0x3e050ab3	0.12992363
138	0x3c165540	0.009175599
139	0xbd931cfc	-0.07183263
140	0x3e324b2a	0.17411485
141	0x3e51aad8	0.20475328
142	0xbd570767	-0.052497294
143	0xbe416a61	-0.18888237
144	0x3de62906	0.11238293
145	0x3d7acb80	0.06122923
146	0xbd6cf526	-0.05785098
147	0xbd6ee526	-0.058324
148	0xbd0584f0	-0.032597482
149	0xbe72e3b6	-0.23719677
150	0x3ce6c13f	0.028168319
151	0xbd84d288	-0.06485468
152	0x3d9e1426	0.07718687
153	0xbe92aabc	-0.28645885
154	0xbdbd940d	-0.09256754
155	0xbe898cb8	-0.26865172
156	0x3e46c6f2	0.19411829
157	0xbd9c3f19	-0.076292224
158	0xbd9c25a4	-0.07624367
159	0xbe25463d	-0.16140075
160	0x3dcc5b00	0.099782944
161	0x3d3ee3e5	0.046604056
162	0xbd83de72	-0.064389125
163	0xbdb7331b	-0.089452945
164	0xbe5ae81c	-0.21377605
165	0x3def96dc	0.11698696
166	0x3e559f83	0.2086163
167	0x3e421771	0.18954255
168	0x3df40987	0.1191588
169	0xbdef80ff	-0.11694526
170	0xbd11bd13	-0.035580706
171	0xbcb993a4	-0.022653408
172	0x3d93d1fc	0.07217786
173	0xbd8f73c7	-0.07004505
174	0x3df8acd4	0.12142339
175	0xbcc09bb8	-0.023511752
176	0xbd892b9c	-0.06697771
177	0xbd835923	-0.06413486
178	0x3dd17b2a	0.1022857
179	0x3e1426e1	0.14467956
180	0xbe15fdb9	-0.14647569
181	0x3dfeac5b	0.12435218
182	0x3d991968	0.07475549
183	0xbcab8a94	-0.020940103
184	0xbcdb4126	-0.026764464
185	0x3d06eccd	0.032940675
186	0x3d2814b0	0.041035354
187	0xbd388b2c	-0.0450546
188	0xbdf781aa	-0.12085278
189	0xbe4cd0d6	-0.2000154
190	0xbd9e18d8	-0.07719582
191	0x3d36c92e	0.044625454
192	0x3d7b61a6	0.06137242
193	0xbe82fbd5	-0.25582758
194	0xbdf30bc7	-0.11867481
195	0x3e1a6556	0.15077719
196	0x3e1053a7	0.14094411
197	0x3dd5e79f	0.10444569
198	0x3dab0a5f	0.083515875
199	0xbe1ef139	-0.15521707
200	0x3e084c29	0.13310303
201	0xbe5a9945	-0.2134753
202	0x3d2b7475	0.04185911
203	0xbdca1bb3	-0.098685645
204	0xbe28b208	-0.16474164
205	0x3d8ad77d	0.067793824
206	0x3e0b662b	0.13613193
207	0x3e1dd08f	0.1541159
208	0xbd8bcfd8	-0.068267524
209	0x3da5c954	0.08095041
210	0x3dba5db7	0.09099906
211	0xbdb6b007	-0.08920293
212	0x3ecc658b	0.3992122
213	0xbe3b601c	-0.18298382
214	0x3dfc97ae	0.12333618
215	0x3e819f93	0.25317058
216	0xbd4a2c72	-0.049358793
217	0x3ee53413	0.44766292
218	0xbe10f38c	-0.14155406
219	0xbde252ac	-0.11050925
220	0x3d0ddd84	0.034635082
221	0x3e2001a0	0.1562562
222	0x3e08d52f	0.13362573
223	0xbe2c1f42	-0.16808799
224	0xbeabe7a2	-0.3357516
225	0x3d6b3533	0.05742378
226	0xbcea7d08	-0.028624073
227	0xbd406010	-0.046966612
228	0x3e9f43e7	0.31106493
229	0xbe9e53b6	-0.3092324
230	0xbcdc0d90	-0.026861936
231	0xbea5c65e	-0.32377905
232	0xbdba31df	-0.090915434
233	0xbe281c0f	-0.16416954
234	0xbe569d6c	-0.20958489
235	0xbd5f0f08	-0.054457694
236	0xbb2e1cf1	-0.0026567543
237	0xbc11f8de	-0.008909432
238	0xbe52dd55	-0.20592244
239	0xbdcf4ff4	-0.10122672
240	0xbe3b319d	-0.18280645
241	0x3e2df69f	0.1698861
242	0x3dc4bcfa	0.09606357
243	0xbd152a24	-0.03641714
244	0x3e0358df	0.1282687
245	0x3e0a8893	0.13528661
246	0x3b5226b0	0.0032066517
247	0x3e34c604	0.17653662
248	0x3d3738c1	0.04473186
249	0xbcf7e5c1	-0.030260922
250	0xbda72f90	-0.08163369
251	0x3e2b1f5f	0.16711186
252	0x3d774cfe	0.06037616
253	0x3e36690c	0.1781351
254	0x3e189286	0.14899644
255	0x3d836f66	0.06417732

main.4.bias f4 [48]
0	0x3eebe773	0.4607502
1	0xbe7f14bd	-0.24910255
2	0x3d80bf56	0.062864944
3	0xbd8d2a19	-0.06892795
4	0xbc6bb792	-0.014387028
5	0xbeabf8ee	-0.33588356
6	0xbe9fb65a	-0.3119381
7	0x3d78b0d8	0.060715526
8	0x3eb60bb3	0.355558
9	0x3ddd81d3	0.10815778
10	0x3e4b9b8f	0.1988356
11	0xbe3a51aa	-0.18195215
12	0xbea44d9c	-0.3209046
13	0xbe9d6258	-0.30739093
14	0xbe2e3a1a	-0.17014351
15	0xbeb3b2c8	-0.35097337
16	0x3cae63ee	0.021287885
17	0x3e863d8e	0.26218837
18	0xbe00b2d2	-0.12568215
19	0xbcce8df6	-0.025214177
20	0x3e61d48e	0.2205374
21	0x3e8f27f4	0.2796017
22	0xbed21fd5	-0.4103991
23	0x3edce101	0.43140414
24	0x3ea7e05b	0.32788357
25	0xbee0e88b	-0.43927416
26	0x3bc94bbc	0.0061430614
27	0x3e60af5e	0.21941897
28	0xbe53c664	-0.20681149
29	0x3e52e471	0.20594956
30	0x3c323a70	0.01087819
31	0xbe159a6d	-0.1460969
32	0xbc80b04e	-0.015709069
33	0xbef38a20	-0.4756632
34	0x3e154b5b	0.14579527
35	0x3edb00ed	0.42774144
36	0xbd09102a	-0.03346268
37	0xbeaa649a	-0.33279878
38	0x3ddfcef6	0.109281465
39	0xbed43bd5	-0.41451898
40	0x3e10b474	0.14131337
41	0x3dee2a8d	0.1162921
42	0x3e85b312	0.26113182
43	0xbeaa2b04	-0.33235943
44	0x3cc82ac0	0.024434447
45	0x3ed72974	0.42023814
46	0x3e758a55	0.2397855
47	0xbdf595ea	-0.119914845

main.6.weight f4 [1, 48]
0	0x3ac714bc	0.0015188674
1	0x3d913aad	0.0709127
2	0xbd1e94d5	-0.038716156
3	0x3c0e3124	0.008678708
4	0xbb5d36ec	-0.003375466
5	0x3cb2f61a	0.021845866
6	0x3e060e57	0.13091408
7	0xbc6d176a	-0.014470914
8	0xbd531d35	-0.051541526
9	0xbcdadffc	-0.026718132
10	0xbccbbf6e	-0.024871554
11	0x3aa23a18	0.0012376932
12	0xbacc0db0	-0.0015568044
13	0x3d840b49	0.06447465
14	0x3bb38404	0.005478384
15	0x3c68c810	0.014207855
16	0x3ce5f4fa	0.028070915
17	0xbd06a3fc	-0.03287123
18	0x3d114781	0.035468582
19	0x3c97d24c	0.018532895
20	0x3b2c2856	0.002626916
21	0xbad99634	-0.001660055
22	0x3d79f62a	0.061025776
23	0xbcef7f5b	-0.029235533
24	0xbd7cc9af	-0.061715778
25	0x3c437aba	0.011931116
26	0x3cd7db3b	0.026349654
27	0xbda59638	-0.080852926
28	0x3dd6c5c6	0.10486941
29	0xbb1f9044	-0.0024347464
30	0xbaa3122c	-0.0012441329
31	0xbcc56894	-0.024097718
32	0x3d19d635	0.0375578
33	0x3dbbacd8	0.09163827
34	0xbd0e7bb1	-0.03478593
35	0xbdddc877	-0.10829251
36	0x3c6ce9ba	0.014460022
37	0xbce8b656	-0.028407257
38	0x3cd0ba37	0.02547942
39	0x3dfa21f1	0.12213505
40	0xbddb8cad	-0.10720191
41	0x3d03fa40	0.03222108
42	0xbd9d80ea	-0.07690604
43	0x3cbbd08c	0.022926591
44	0x3c015c22	0.007895501
45	0xbd7fee7f	-0.062483307
46	0x3d5733ec	0.05253975
47	0x3c7525d9	0.014962637
