fl_experiment_20260116_150647/central_nn.pth (torch, 20085 bytes, 9 tensors)

main.0.weight f4 [64, 23]
-0.013689075 0.31172243 -0.3538138 0.092260495 0.23154627 -0.3492799 -0.031050151 0.081594594
0.05816035 0.06940161 0.19519103 0.1343577 0.2175497 0.061771408 0.0057520424 -0.022787804
-0.09440257 0.37158623 -0.122206695 -0.1689515 -0.21904583 0.078700855 0.3286157 -0.46980938
0.2637302 0.10337943 -0.23656438 -0.200561 -0.22351792 0.23196715 0.21044724 0.012437124
-0.053040437 -0.013420423 -0.08864362 -0.15196368 -0.15593886 -0.289006 -0.42025313 -0.20652282
0.18823074 0.16748488 -0.015528787 -0.3573274 0.074059494 0.18809238 0.9498668 0.33552742
0.29500705 0.020419272 -0.063640304 -0.43974054 -0.26268658 -0.18348138 0.03637356 0.07883994
-0.05538519 0.142088 -0.0763536 -0.064045236 -0.04345062 0.004198165 -0.119907945 0.22877039
-0.11546665 -0.10763315 0.17024861 0.13284437 0.18761475 0.057233777 0.12289687 0.036674764
0.080751486 -0.054943353 0.41201288 -0.45316556 -0.36273834 0.45102477 -0.561857 -0.08567027
-0.15646414 0.12913561 0.23815781 0.02310624 0.10273805 0.0024450785 -0.6030003 -0.6236404
-0.66680497 -0.06161518 -0.53865814 -0.3671983 -0.35903183 -0.42846742 -0.95424867 0.4569301
-0.0429253 -0.116124704 -0.17933555 -0.44905964 -0.08243131 -0.27081117 -0.019873258 0.13386364
0.004927294 0.009939065 0.03753755 0.08323764 0.08195078 0.4581357 -0.012714793 0.009227353
0.052262537 -0.1535117 0.18115991 0.7225094 0.2689886 -0.06823114 0.29885337 -0.19436654
-0.47399354 -0.11219964 -0.055661898 0.14524059 -0.2425665 -0.01681613 -0.25424108 -0.22394234
0.14228237 -0.017184265 0.08478182 0.2634258 0.14105445 0.27317896 0.105436146 0.2074208
0.164569 -0.021537954 -0.32376856 0.10354944 -0.068499364 -0.15388009 -0.059865486 1.0132841
-0.08344412 0.0687223 -0.16353653 0.43575355 0.46274987 -0.0019445721 0.20122786 -0.057285506
-0.14420114 0.021220017 -0.0017206979 0.10398952 -0.2573807 0.1383644 0.0065330705 0.0339249
0.051968314 0.025878856 0.039269462 0.020096652 0.086510085 0.10860605 1.6421922 -0.22321709
0.23910889 -0.099887386 -0.07064191 0.01726367 0.1973653 0.050940864 -0.029661644 0.12126778
-0.08342451 0.17030317 -0.23231511 0.1962861 -0.032797348 0.1342466 -0.42983696 -0.115517385
0.26519176 0.0077472427 -0.24623172 0.5988464 -0.2966757 -0.31931514 -0.042230304 -0.17170301
-0.13057242 -0.0773112 -0.0906191 0.25841212 -0.07923147 -0.044942662 -0.024245296 -0.2726215
-0.014439637 0.35191244 0.21633483 0.010328036 -0.17196338 0.020837761 0.0486686 0.7816459
0.14004391 -0.013469123 0.1740596 0.4221364 0.20578824 -0.82557124 -0.24099395 0.25697163
-0.060350496 -0.4161351 0.12524728 -0.06273577 -0.10552743 0.013829856 0.17245728 -0.21499729
0.09359567 0.32770532 -0.6112267 0.009565655 -0.682896 0.24525382 0.4621168 -0.15935382
0.70192343 0.274118 -0.263091 0.45248628 0.18431981 0.6270547 0.21746199 0.30312073
-0.03418525 -0.15559219 -0.08101241 -0.043547835 0.030880716 0.07314944 -0.023715744 0.051477496
-0.29765168 -0.3268804 0.35109043 0.040801976 0.16058695 -0.14138007 -0.60069346 0.6619052
00000000: 2448 60bc 159a 9f3e 1527 b5be 12f3 bc3d
00000010: 771a 6d3e d1d4 b2be e35c febc 111b a73d
00000020: 8c39 6e3d 6e22 8e3d 28e0 473e 1195 093e
00000030: 59c5 5e3e 0404 7d3d a17b bc3b 7dad babc
00000040: 2256 c1bd 8d40 be3e 8147 fabd 9f01 2dbe
00000050: 8d4d 60be ea2d a13d 5140 a83e db8a f0be
00000060: a507 873e 98b8 d33d ef3d 72be dd5f 4dbe
00000070: e2e1 64be cc88 6d3e 7b7f 573e 14c5 4b3c
00000080: ee40 59bd 55e1 5bbc c98a b5bd 5e9c 1bbe
00000090: 70ae 1fbe 98f8 93be 6b2b d7be b87a 53be
000000a0: 8fbf 403e 2881 2b3e 746c 7ebc 9ef3 b6be
000000b0: 81ac 973d 4a9b 403e 782a 733f 40ca ab3e
000000c0: 2a0b 973e 5146 a73c d955 82bd ac25 e1be
000000d0: db7e 86be 8be2 3bbe 71fc 143d d676 a13d
000000e0: 95db 62bd 847f 113e 475f 9cbd 262a 83bd
000000f0: 47f9 31bd c390 893b 4c92 f5bd c942 6a3e
00000100: c779 ecbd c56e dcbd a755 2e3e 5b08 083e
00000110: 151e 403e f76d 6a3d 5bb1 fb3d 4738 163d
00000120: 0961 a53d 480c 61bd 5af3 d23e 5105 e8be
00000130: d7b8 b9be b8ec e63e dcd5 0fbf e573 afbd
00000140: 2338 20be 203c 043e a4df 733e 4c49 bd3c
00000150: 5468 d23d 9c3d 203b 3a5e 1abf e6a6 1fbf
00000160: bbb3 2abf 3360 7cbd 80e5 09bf 6a01 bcbe
00000170: 05d3 b7be 1560 dbbe a449 74bf bef2 e93e
00000180: 70d2 2fbd cad2 edbd bda3 37be 25eb e5be
00000190: bfd1 a8bd c3a7 8abe 3ecd a2bc 8d13 093e
000001a0: 2375 a13b 76d7 223c f9c0 193d 7f78 aa3d
000001b0: cfd5 a73d c390 ea3e b551 50bc 532e 173c
000001c0: 3e11 563d 2c32 1dbe fc81 393e 60f6 383f
000001d0: e0b8 893e c5bc 8bbd 4f03 993e 0608 47be
000001e0: 48af f2be edc8 e5bd bbfd 63bd f3b9 143e
000001f0: 5a63 78be fbc1 89bc e32b 82be 2451 65be
00000200: 78b2 113e 04c6 8cbc 17a2 ad3d bfdf 863e
00000210: 9470 103e 1dde 8b3e e8ee d73d 1e66 543e
00000220: c784 283e 5d70 b0bc fec4 a5be bb11 d43d
00000230: 6549 8cbd be92 1dbe 8335 75bd 4bb3 813f
00000240: c0e4 aabd 47be 8c3d 1f76 27be 171b df3e
00000250: 8ded ec3e 03e1 feba ad0e 4e3e 35a4 6abd
00000260: 77a9 13be 9ad5 ad3c 0a89 e1ba 75f8 d43d
00000270: 67c7 83be 66af 0d3e 5e13 d63b d6f4 0a3d
00000280: badc 543d e5ff d33c 04d9 203d bca1 a43c
00000290: 332c b13d d96c de3d 5b33 d23f 0593 64be
000002a0: f6d8 743e c291 ccbd b5ac 90bd 8a6c 8d3c
000002b0: 211a 4a3e 5ea7 503d fafc f2bc 3e5b f83d
000002c0: 78da aabd f463 2e3e 03e4 6dbe 39ff 483e
000002d0: 8356 06bd f177 093e 9713 dcbe 6194 ecbd
000002e0: 37c7 873e 95dc fd3b 2b24 7cbe ff4d 193f
000002f0: e1e5 97be 467d a3be aff9 2cbd ead2 2fbe
00000300: c7b4 05be 5655 9ebd 8296 b9bd 984e 843e
00000310: 1c44 a2bd cc15 38bd 129e c6bc 0c95 8bbe
00000320: 3a94 6cbc de2d b43e e186 5d3e ec36 293c
00000330: 2b17 30be f4b3 aa3c ba58 473d f219 483f
00000340: ac67 0f3e 99ad 5cbc ae3c 323e 4322 d83e
00000350: 27ba 523e a358 53bf 1ec7 76be c991 833e
00000360: 1532 77bd a90f d5be d340 003e 9d7b 80bd
00000370: c41e d8bd 9f96 623c a498 303e 4028 5cbe
00000380: 16af bf3d fec8 a73e 5a79 1cbf 44b9 1c3c
00000390: 46d2 2ebf d123 7b3e 939a ec3e a62d 23be
000003a0: 41b1 333f 3259 8c3e ddb3 86be 48ac e73e
000003b0: 55be 3c3e a886 203f 5bae 5e3e a432 9b3e
000003c0: d505 0cbd 8f53 1fbe d6e9 a5bd 375f 32bd
000003d0: 8ef9 fc3c 60cf 953d 8547 c2bc 11da 523d
000003e0: cd65 98be de5c a7be 20c2 b33e f91f 273d
000003f0: e870 243e f0c5 10be 0cc7 19bf 9f72 293f

main.0.bias f4 [64]
-0.1809622 0.018273817 -0.0452499 0.05111962 -0.20816056 0.008770076 -0.0038615842 0.12295904
-0.18710469 -0.0965246 0.2191481 0.07425678 -0.16327341 0.20185636 -0.02178442 -0.09575205
0.02987515 -0.16119473 0.16884887 -0.032221735 0.026106078 -0.16582736 -0.13363661 0.17318006
-0.009753735 -0.045293495 0.06812642 0.026514035 -0.14341111 -0.011244044 0.08898478 -0.14730307
-0.101357155 0.12962985 0.010679058 0.055120796 0.093392074 -0.082313284 0.13887092 0.0026021502
-0.17463876 0.028941652 -0.21340297 -0.20768371 -0.006949089 0.06322981 0.11409417 -0.12470301
0.07194409 0.003758515 0.12061176 0.08155294 0.20423323 0.061215296 0.1503744 -0.1724519
0.12501156 0.045794602 -0.13641262 0.14736798 -0.1732879 0.025186555 0.059974402 0.11012037
00000000: 284e 39be f9b2 953c f657 39bd cf62 513d
00000010: 0b28 55be 5db0 0f3c a212 7dbb f3d1 fb3d
00000020: 5f98 3fbe b1ae c5bd 5c68 603e f013 983d
00000030: 2531 27be 6fb3 4e3e 3d75 b2bc a719 c4bd
00000040: bbbc f43c 3b10 25be b8e6 2c3e f0fa 03bd
00000050: 6adc d53c a6ce 29be 09d8 08be 1d56 313e
00000060: 21ce 1fbc ac85 39bd dd85 8b3d f633 d93c
00000070: 5dda 12be f038 38bc a73d b63d 9ed6 16be
00000080: 5794 cfbd b0bd 043e 37f7 2e3c 58c6 613d
00000090: 5844 bf3d de93 a8bd 2e34 0e3e d688 2a3b
000000a0: 81d4 32be 0b17 ed3c 4f86 5abe 0aab 54be
000000b0: 2fb5 e3bb a17e 813d 34aa e93d 4b64 ffbd
000000c0: 6c57 933d 6b51 763b 4c03 f73d 3a05 a73d
000000d0: 8422 513e e4bc 7a3d bffb 193e 3b97 30be
000000e0: 0803 003e 1f93 3b3d c0af 0bbe a2e7 163e
000000f0: 6272 31be 0954 ce3c b8a7 753d ca86 e13d

main.1.weight f4 [64]
0.13141881 0.52817446 0.3923163 0.87938243 0.614255 0.3028734 0.91523904 0.8564211
0.42242655 0.74956876 0.5152062 0.52962923 0.27655613 0.70284665 0.41242278 0.4340274
0.6561175 0.6860901 0.36391443 0.5768524 0.253976 0.36717042 0.7403702 0.5063043
0.14636971 0.23999096 0.658251 0.79672897 0.8377324 0.53850394 0.42151645 0.72268236
0.44055274 0.8133156 0.85065556 0.6702799 0.6417228 0.3678964 0.36836532 0.74209887
0.91493607 0.37335974 0.8177927 0.27466175 0.93827206 1.1126802 0.40214604 0.36486435
0.28121093 0.6988524 0.61626846 0.8772043 0.78995776 0.80202633 0.34698611 0.2977497
0.2935201 0.31034476 0.35699642 0.9555755 0.26896793 0.7086804 0.5747009 0.3968484
00000000: a792 063e 7136 073f afdd c83e 351f 613f
00000010: d13f 1d3f 3912 9b3e 1b4d 6a3f 6a3e 5b3f
00000020: 4b48 d83e bde3 3f3f 8ee4 033f c895 073f
00000030: c498 8d3e c2ed 333f 1429 d33e d738 de3e
00000040: 51f7 273f 9aa3 2f3f fe52 ba3e 99ac 133f
00000050: 2409 823e c3fd bb3e e788 3d3f 299d 013f
00000060: f1e1 153e 31c0 753e 2383 283f 6ef6 4b3f
00000070: a175 563f 65db 093f 01d1 d73e b601 393f
00000080: 2190 e13e 7335 503f 90c4 593f 7797 2b3f
00000090: f247 243f eb5c bc3e 619a bc3e 31fa 3d3f
000000a0: 4039 6a3f 0229 bf3e dd5a 513f 77a0 8c3e
000000b0: 9932 703f 4e6c 8e3f 16e6 cd3e 80cf ba3e
000000c0: e1fa 8f3e fee7 323f c5c3 1d3f 7690 603f
000000d0: ac3a 4a3f 9951 4d3f 2aa8 b13e a672 983e
000000e0: 4448 963e 82e5 9e3e 3cc8 b63e 99a0 743f
000000f0: 2ab6 893e 146c 353f 991f 133f b72f cb3e

main.1.bias f4 [64]
-0.011396676 -0.13797162 0.33335477 -0.15889151 -0.15878922 0.2423525 -0.21860707 -0.09970922
-0.004409025 -0.8650349 -0.84875226 -0.43270892 -0.35654485 -0.18162595 0.24324559 0.16750488
-0.26624092 -0.068702 0.08071537 -0.664623 0.26898974 -0.4181308 -0.1113909 -0.040157232
-0.31365877 0.26671383 -0.2789157 -0.5100306 -0.1797451 0.055427637 0.42593482 -0.52941984
-0.48630756 -0.20199385 -0.24827887 -0.380066 -0.6133128 0.03282443 0.20237084 -0.20315793
-0.2627267 -0.7150948 -0.3833049 0.34536967 -0.46791124 -0.4685743 0.16279258 0.35827485
-0.19494237 -0.6281683 -0.10893162 -0.2608308 -0.27548212 -0.14789546 -0.5285112 -0.11482536
0.17909078 0.3627109 0.45893914 -0.323061 0.0859196 -0.056546416 -0.13000196 0.24507484
00000000: 20b9 3abc 6f48 0dbe 7aad aa3e 75b4 22be
00000010: a499 22be 412b 783e 88da 5fbe 5934 ccbd
00000020: 9579 90bb ed72 5dbf d447 59bf 068c ddbe
00000030: 0c8d b6be 27fc 39be 5f15 793e 6686 2b3e
00000040: bb50 88be a2b3 8cbd 1a4e a53d bc24 2abf
00000050: 06b9 893e 3d15 d6be ea20 e4bd e97b 24bd
00000060: e297 a0be b78e 883e 0ace 8ebe 5e91 02bf
00000070: 190f 38be 1708 633d 2114 da3e 0f88 07bf
00000080: 4efd f8be 7ad7 4ebe d13c 7ebe 0398 c2be
00000090: 1102 1dbf e972 063d 4d3a 4f3e a208 50be
000000a0: 1d84 86be 7410 37bf 8a40 c4be 4bd4 b03e
000000b0: 1092 efbe f8e8 efbe 19b3 263e cd6f b73e
000000c0: f99e 47be a3cf 20bf 8b17 dfbd 9d8b 85be
000000d0: fe0b 8dbe e871 17be 834c 07bf 8f29 ebbd
000000e0: 9363 373e 3eb5 b93e 12fa ea3e 4068 a5be
000000f0: 9ef6 af3d 379d 67bd 3c1f 05be e6f4 7a3e

main.1.running_mean f4 [64]
-0.15516745 -0.005999507 -0.08664498 0.024477856 -0.23599768 -0.019476129 0.051961996 0.16119844
-0.24802636 -0.16135299 0.19253448 -0.016975679 -0.23291965 0.13992645 -0.014406173 -0.13523322
0.047083102 -0.06764874 0.1466481 -0.040835626 -0.045859504 -0.20064402 -0.10541117 0.12935229
-0.017535111 -0.06875783 0.1105632 0.053038627 -0.11723365 0.025178252 0.07980838 -0.19920512
-0.062630735 0.15077941 -0.11709353 0.108589634 -0.000508368 -0.1455623 0.120059416 0.0874655
-0.18618445 0.03931473 -0.18441762 -0.24716131 -0.03268896 0.048958294 0.084691055 -0.16957067
0.100195125 -0.019655664 0.219118 0.024967104 0.24645585 0.08956295 0.07454147 -0.20849442
0.093963586 -0.0049375156 -0.18987088 0.14060624 -0.16904584 0.053449553 0.05343605 0.07343324
00000000: 37e4 1ebe 8397 c4bb ec72 b1bd c985 c83c
00000010: 60a9 71be 678c 9fbc 1ad6 543d 3411 253e
00000020: 9ffa 7dbe b839 25be c227 453e 9410 8bbc
00000030: 7d82 6ebe e148 0f3e de07 6cbc 947a 0abe
00000040: 36da 403d 6c8b 8abd eb2a 163e 4243 27bd
00000050: 2dd7 3bbd a075 4dbe d0e1 d7bd ed74 043e
00000060: cba5 8fbc e8d0 8cbd f66e e23d 083f 593d
00000070: 3218 f0bd 9f42 ce3c 9372 a33d 6dfc 4bbe
00000080: 8b44 80bd eb65 1a3e bcce efbd 3e64 de3d
00000090: 0044 05ba 490e 15be b6e1 f53d 1d21 b33d
000000a0: 23a7 3ebe 7b08 213d f9d7 3cbe db17 7dbe
000000b0: dce4 05bd 7e88 483d 8172 ad3d efa3 2dbe
000000c0: 1a33 cd3d ea04 a1bc 7860 603e d087 cc3c
000000d0: ec5e 7c3e c86c b73d 33a9 983d 907f 55be
000000e0: fb6f c03d e2ca a1bb 836d 42be 15fb 0f3e
000000f0: 5a1a 2dbe ebed 5a3d c2df 5a3d 2b64 963d

main.1.running_var f4 [64]
0.7826685 2.3344574 2.244461 3.5842602 2.6548548 2.2012167 2.5703943 2.9691308
1.7250023 3.1418355 3.1756492 1.8462973 1.9429541 7.7480655 3.6177855 1.8892269
1.4428536 6.7301645 2.9746642 2.5843778 3.16156 0.87222844 2.2037253 2.6445456
1.9432874 2.6062975 1.7502512 2.0003593 3.01854 1.9562778 3.4271243 2.2154708
2.8818288 2.20722 12.642751 3.2751858 6.3573804 2.356853 2.3556185 4.2726426
3.4578578 2.1731699 2.8260834 2.3977864 7.4746943 5.928896 1.8211857 2.0579767
1.3863258 1.664646 4.9691358 5.3429675 1.6957153 2.2526197 2.8646283 0.85982865
1.8593335 2.1882887 3.1698394 2.4784248 2.4896975 2.9624481 5.2811723 1.4251819
00000000: f65c 483f c067 1540 40a5 0f40 8564 6540
00000010: 24e9 2940 bce0 0c40 5781 2440 3d06 3e40
00000020: e0cc dc3f d513 4940 d63d 4b40 7853 ec3f
00000030: b8b2 f83f 27f0 f740 cc89 6740 30d2 f13f
00000040: 6daf b83f 825d d740 e660 3e40 7266 2540
00000050: 0057 4a40 5d4a 5f3f d609 0d40 3c40 2940
00000060: a4bd f83f 94cd 2640 3b08 e03f e305 0040
00000070: c22f 4140 5067 fa3f 0156 5b40 46ca 0d40
00000080: e26f 3840 1843 0d40 b548 4a41 a59c 5140
00000090: a96f cb40 aed6 1640 74c2 1640 7db9 8840
000000a0: 8b4d 5d40 3715 0b40 8dde 3440 5575 1940
000000b0: b230 ef40 84b9 bd40 9d1c e93f e4b5 0340
000000c0: 2073 b13f 1f13 d53f 2903 9f40 97f9 aa40
000000d0: 330d d93f ec2a 1040 1256 3740 bb1d 5c3f
000000e0: a4fe ed3f ec0c 0c40 a6de 4a40 839e 1e40
000000f0: 3457 1f40 c098 3d40 5dff a840 5c6c b63f

main.4.weight f4 [32, 64]
-0.043933652 -0.035613507 -0.15586771 0.014413069 -0.210731 -0.07825848 0.04707002 0.34569257
-0.10811175 0.2207259 -0.1872362 -0.01709486 -0.03248115 0.12212204 0.095787674 -0.043838874
0.12798424 0.326829 0.029950151 0.21145649 0.00054179796 -0.020360343 0.11896702 0.07675335
-0.024554182 -0.14905462 0.11788839 0.25542638 0.30942887 -0.10239064 -0.12617347 0.13469219
0.16787137 0.2569933 0.14869598 0.10149929 0.271876 -0.029526103 0.036894362 0.1450398
0.07624019 -0.122872315 0.08245836 -0.07985444 0.24221304 0.15765724 -0.019975042 -0.19680159
0.010615222 -0.2659414 0.20198849 0.13269258 0.2271134 0.2655483 0.04901485 -0.010752658
-0.010103245 -0.059908696 -0.039034788 0.012208638 -0.08557341 0.23712827 -0.029857412 -0.0711361
0.055876873 -0.013128002 -0.033665393 0.20334344 -0.051034622 -0.08669764 0.048797928 -0.01365814
0.15531501 0.23215045 -0.16796201 -0.16742575 0.078106664 0.206049 0.015369665 -0.103991866
0.24672778 0.18989946 2.3907225e-05 0.18397908 -0.18010671 -0.09010219 0.07164016 -0.03984983
-0.044522893 -0.0736991 0.13454789 0.075485006 0.1050205 -0.025692182 -0.047493305 0.1018155
0.09010798 0.08178505 0.23400311 0.14514312 0.21086164 -0.023398506 -0.077253215 0.04837106
0.19818082 -0.07574237 0.15697545 -0.028604377 0.14428334 0.3388358 -0.099645324 -0.20636195
-0.02439775 0.013643028 -0.11075923 0.13982248 -0.0070701083 -0.012544367 -0.0497809 0.0116862655
-0.028878314 -0.126509 0.016492007 0.18169755 -0.07477535 0.12378756 0.014930381 -0.15283069
-0.030596113 0.056930926 -0.20145984 0.23471345 0.09159145 -0.10206691 0.13963652 0.27761358
0.095213816 0.4282422 -0.25562203 -0.023384001 -0.0055576805 0.115881145 -0.11724067 -0.010882548
0.022787273 0.13715287 -0.048129108 0.1756065 -0.22590187 -0.1426247 0.13907391 -0.12299082
-0.028995838 -0.08647777 0.037144087 0.15624332 0.30907077 -0.21851228 -0.21109778 -0.04635497
0.15278016 0.19081628 0.246231 0.05528287 0.05755815 -0.13172442 -0.24534264 0.09530083
0.27303883 0.009743523 -0.027507138 -0.21713418 0.28805417 0.42679685 -0.13813625 -0.28424755
-0.03331383 -0.21867782 0.15696602 0.15722741 0.15892921 0.11320249 -0.084377676 -0.008985882
-0.09941708 -0.28176218 -0.11424938 0.32079262 -0.029945353 0.28320932 -0.028234296 -0.21970442
0.10801138 0.11157645 0.0066134767 0.15720345 -0.10038191 -0.13143902 0.14570408 0.21362813
-0.0662021 0.41917476 -0.29641905 -0.15043552 0.14035533 0.3788017 -0.18132512 -0.060121544
0.08200345 0.368634 -0.22540586 0.15707915 -0.1984243 -0.113732606 0.10933275 -0.10767765
-0.0072949333 -0.05363409 0.2976994 0.081253566 0.032755416 -0.026874362 -0.20582016 0.14775307
-0.03923485 0.20803349 0.2165662 0.065291196 0.16032371 -0.07831882 -0.097837575 0.120381854
0.11665802 -0.22509293 0.29638705 0.05612855 0.26046747 0.22161467 -0.13340695 -0.21422149
-0.22301216 -0.19588974 0.17088722 0.51808155 -0.055078197 0.0931415 -0.058092095 0.13974287
-0.11833439 -0.19528332 -0.12242538 0.13002285 0.021332633 0.14260936 0.13578232 -0.08246384
00000000: c6f3 33bd 78df 11bd c99b 1fbe cb24 6c3c
00000010: dec9 57be fb45 a0bd 7ecc 403d 9efe b03e
00000020: b169 ddbd f805 623e d9ba 3fbe 850a 8cbc
00000030: f40a 05bd 1f1b fa3d 542c c43d 6490 33bd
00000040: 4d0e 033e 2156 a73e 055a f53c 0d88 583e
00000050: 7207 0e3a bcca a6bc fba4 f33d dc30 9d3d
00000060: da25 c9bc c6a1 18be 786f f13d 3fc7 823e
00000070: 766d 9e3e 2fb2 d1bd 9e33 01be c0ec 093e
00000080: 79e6 2b3e a094 833e c243 183e dcde cf3d
00000090: 5533 8b3e bae0 f1bc 8b1e 173d 5085 143e
000000a0: d123 9c3d 7ba4 fbbd eedf a83d ba8a a3bd
000000b0: b206 783e e670 213e b3a2 a3bc 5b86 49be
000000c0: 78eb 2d3c 7929 88be 12d6 4e3e 90e0 073e
000000d0: 6a90 683e f2f5 873e ccc3 483d eb2b 30bc
000000e0: 1588 25bc d262 75bd f1e2 1fbd bd06 483c
000000f0: 1d41 afbd c1d1 723e 8897 f4bc ceaf 91bd
00000100: 26df 643d d516 57bc b9e4 09bd 4339 503e
00000110: ae09 51bd 888e b1bd 56e0 473d 64c6 5fbc
00000120: e60a 1f3e d9b8 6d3e 3cfe 2bbe a871 2bbe
00000130: 63f6 9f3d 82fe 523e 0cd1 7b3c b0f9 d4bd
00000140: 35a6 7c3e 0175 423e 608c c837 0365 3c3e
00000150: e56d 38be 7f87 b8bd 14b8 923d 9339 23bd
00000160: a35d 36bd 8eef 96bd ecc6 093e e297 9a3d
00000170: fd14 d73d 6978 d2bc 5788 42bd a584 d03d
00000180: 888a b83d ec7e a73d 839e 6f3e 66a0 143e
00000190: 1dec 573e 39ae bfbc ef36 9ebd bc20 463d
000001a0: eaef 4a3e d11e 9bbd 2cbe 203e ba53 eabc
000001b0: 03bf 133e e37b ad3e d912 ccbd 8c50 53be
000001c0: cadd c7bc 0287 5f3c bcd5 e2bd a02d 0f3e
000001d0: 5eac e7bb e486 4dbc 0fe7 4bbd c077 3f3c
000001e0: 3792 ecbc 938b 01be 3f1a 873c ec0e 3a3e
000001f0: d223 99bd 5584 fd3d 8f9e 743c a67f 1cbe
00000200: b3a4 fabc 6730 693d 7d4b 4ebe b958 703e
00000210: 4c94 bb3d 7508 d1bd e0fc 0e3e 5e23 8e3e
00000220: 76ff c23d 9042 db3e e4e0 82be ce8f bfbc
00000230: 341d b6bb 1853 ed3d e01b f0bd b74c 32bc
00000240: 60ac ba3c cd71 0c3e 0723 45bd 31d2 333e
00000250: d252 67be 360c 12be 6469 0e3e 9ce2 fbbd
00000260: ae88 edbc 421b b1bd 6624 183d 40fe 1f3e
00000270: 863e 9e3e afc1 5fbe 042a 58be b6de 3dbd
00000280: 6772 1c3e 5865 433e fb23 7c3e 4a70 623d
00000290: 18c2 6b3d c4e2 06be 1a3b 7bbe 152d c33d
000002a0: bfcb 8b3e 4ca3 1f3c a656 e1bc 6c58 5ebe
000002b0: d67b 933e 1e85 da3e 9773 0dbe e588 91be
000002c0: 1574 08bd 14ed 5fbe b3bb 203e 3900 213e
000002d0: 57be 223e b5d6 e73d 34ce acbd 8539 13bc
000002e0: 2f9b cbbd 2243 90be 94fb e9bd ee3e a43e
000002f0: f54f f5bc d000 913e 9c4b e7bc 32fa 60be
00000300: 1235 dd3d 3282 e43d ddb5 d83b f1f9 203e
00000310: 0895 cdbd f397 06be 7333 153e 55c1 5a3e
00000320: f794 87bd 139e d63e 3dc4 97be c50b 1abe
00000330: 4fb9 0f3e 4cf2 c13e 4bad 39be 0242 76bd
00000340: 6df1 a73d 98bd bc3e cbd0 66be 5bd9 203e
00000350: bd2f 4bbe a4ec e8bd d9e9 df3d 1a86 dcbd
00000360: 560a efbb 6baf 5bbd 0e6c 983e 4568 a63d
00000370: 8b2a 063d 9f27 dcbc 85c2 52be 954c 173e
00000380: b9b4 20bd bb06 553e 88c3 5d3e 64b7 853d
00000390: e62b 243e 9e65 a0bd 115f c8bd c38a f63d
000003a0: 66ea ee3d c37e 66be 0bc0 973e 0de7 653d
000003b0: fe5b 853e f5ee 623e d59b 08be e15c 5bbe
000003c0: 4d5d 64be 5297 48be 0ffd 2e3e fea0 043f
000003d0: ad99 61bd f9c0 be3d faf1 6dbd c118 0f3e
000003e0: 4d59 f2bd 5af8 47be 28ba fabd b624 053e
000003f0: c6c1 ae3c 3008 123e 850a 0b3e cde2 a8bd

main.4.bias f4 [32]
-0.50207275 -0.27977243 -0.2567436 -0.5260757 -0.49006593 -0.65149593 0.49564666 0.5815368
0.49266508 -0.5355486 -0.34027037 0.48994407 0.4202911 -0.03770161 0.043798883 -0.041176993
-0.36720636 -0.4080447 -0.5071369 0.746333 -0.45577994 -0.2576774 0.39488292 0.23578423
0.116582274 -0.2857007 -0.27392012 -0.42814857 -0.63183725 0.4681537 -0.5670672 0.47139505
00000000: d787 00bf 553e 8fbe e673 83be e6ac 06bf
00000010: ece9 fabe 70c8 26bf 66c5 fd3e 99df 143f
00000020: 993e fc3e b719 09bf eb37 aebe f3d9 fa3e
00000030: 6530 d73e 016d 1abd 7566 333d 35a9 28bd
00000040: 7902 bcbe 3ceb d0be b9d3 01bf ae0f 3f3f
00000050: fd5b e9be 4bee 83be 182e ca3e 6c71 713e
00000060: b0c2 ee3d 5d47 92be 423f 8cbe 4a36 dbbe
00000070: 16c0 21bf d7b1 ef3e 512b 11bf b15a f13e

main.6.weight f4 [1, 32]
0.09613615 0.035557345 0.0914073 0.05892382 0.04588086 0.079902045 -0.06434395 -0.049525235
-0.024013652 0.04301057 0.057614706 -0.029795991 -0.06787602 0.023157997 -0.023974441 -0.0045628347
0.045685276 0.06153452 0.06794604 -0.058141954 0.059203494 0.03784299 -0.042029504 -0.021516038
0.00081706734 -0.011928621 0.045568686 0.079096586 0.05072526 -0.07099701 0.0664726 0.001736084
00000000: 08e3 c43d 94a4 113d c033 bb3d 1a5a 713d
00000010: 92ed 3b3d afa3 a33d c3c6 83bd f9da 4abd
00000020: 47b8 c4bc da2b 303d 66fd 6b3d b916 f4bc
00000030: 9502 8bbd d7b5 bd3c 0c66 c4bc d583 95bb
00000040: 7c20 3b3d 9f0b 7c3d 4b27 8b3d 4226 6ebd
00000050: 5d7f 723d 4001 1b3d 2127 2cbd 6742 b0bc
00000060: 7630 563a 4370 43bc 3ba6 3a3d 64fd a13d
00000070: 4ac5 4f3d e166 91bd c922 883d 508d e33a
