fl_experiment_20260116_150647/lstm_model.pth (torch, 514997 bytes, 29 tensors)

static_fc.0.weight f4 [32, 5]
00000000: 2bbd 253e 874d 993e 9dae 46bd e05c 213e
00000010: d3cb 77bd 62d7 79be 5255 b13e 6663 913d
00000020: 5296 83bc d2bb 18bd 3f6c 3cbf 7daa 30bf
00000030: 0b23 75be 7583 eb3e a411 2b3c 1835 92bf
00000040: 4e97 4cbe ba90 483d 04c2 91be 3fce 3dbe
00000050: bbfa f8bd ea06 673d c7ff c53d a56a 6cbe
00000060: ac97 0c3f 3ed7 b73e 9848 983d a65f ef3e
00000070: 6aa3 a3be a939 54be 7be0 323e b0c7 1dbe
00000080: ba14 de3e fdd5 3f3e be05 4c3e a0c7 e93c
00000090: 8587 0ebe 22fb adbb be42 a53e 1ef2 4abe
000000a0: 00ae f13e d89e 64be 573a 26be f53f 4fbe
000000b0: 74f3 883c 5077 123f e37a 1f3f 8d4e 4f3d
000000c0: 53b4 edbd 5697 a5bc 25ee 90bf 64b0 d4bc
000000d0: 5d4e 54bd 52d5 c53e bf92 5c3e 7705 b93e
000000e0: 6a2b 82be b590 b43e 3f4a 9a3d 7013 483d
000000f0: c59e fdbe 0931 07be bc68 8b3c 762e 9abe
00000100: c548 a3be bc3a dabe 01a3 113e 063b d1ba
00000110: 2c26 9dbe 9e77 0c3f 895d 83bd b540 abbe
00000120: 9aa6 8dbd 5c9c bc3e 7ff1 a7bd de4b 9f3e
00000130: 653f 7d3e c404 bebe 819a 883e 2097 1d3c
00000140: 7fae cc3e 2f25 ab3c 0c5b b93e 6813 c7be
00000150: f178 7abe 5260 843e 65b2 4a3e 385b bdbd
00000160: d521 b1be a6c4 0c3d b6cc 59bd 809b 6e3f
00000170: 5f08 473e 5999 ad3e 77f8 d23e 1f84 483d
00000180: 76b6 1f3e 70d8 c2bc ee53 43bf 1a1e 083f
00000190: 3663 e5bd 16f4 c9bc 9457 c23d 1d1f b93e
000001a0: 89ac 6d3e e19d 7f3d 493c 2e3e 0873 7e3e
000001b0: 8f88 3cbe c081 a9bd 1240 5e3e 70a8 a8bd
000001c0: 8059 30be 2817 e33d 0314 923d 70cc 203e
000001d0: 5d4b 243b ca7c 61bc 2917 483e 90ce 6a3d
000001e0: 2277 ae3e 78fa 4b3e 01ac 273f 3421 2d3e
000001f0: 3899 b43d eb22 ba3e f452 383f bf1e 873e
00000200: 036f 9c3d 5506 19be 74ae 4e3e 5894 ea3c
00000210: bb1c 053f 462e 8d3b 1430 173e 565b 1d3f
00000220: 42e1 b2bd cd46 9dbd 8c25 10be eb39 b6be
00000230: 3226 56bf a8e7 31bc 3267 ea3c c75e dfbd
00000240: b036 8dbd ee46 a23e 4d2f da3e 64b3 81bd
00000250: 8a0c f73d 4802 d6bd eee3 40bf 2f9c a6bc
00000260: 93ff 0abe a6e7 11be 263c 613f 5dd9 a93e
00000270: b38b 63bd f6a0 b83e d1fe 9abc b758 74be
0.16185443 0.2994196 -0.048506368 0.15758085 -0.060497116 -0.24398568 0.34635407 0.07099037
-0.01606289 -0.037288494 -0.7360267 -0.69010144 -0.23939149 0.4599873 0.010441218 -1.1422453
-0.19979593 0.048966147 -0.28468335 -0.18535708 -0.12157198 0.05640308 0.09667926 -0.23087557
0.5491893 0.35906404 0.07435721 0.4675266 -0.31960613 -0.2072512 0.17468445 -0.15408206
0.43375188 0.18733974 0.19924065 0.028537571 -0.13918884 -0.0053094784 0.32277483 -0.19818923
0.47203064 -0.22326219 -0.16233192 -0.20239241 0.01671765 0.57213306 0.62296885 0.05061202
-0.1160666 -0.020213764 -1.1322676 -0.025963016 -0.051832546 0.38639313 0.21540354 0.36136982
-0.25423747 0.35266653 0.075336926 0.048846662 -0.49535194 -0.13202299 0.017017715 -0.30113572
-0.31891456 -0.42622936 0.14222337 -0.0015963025 -0.30693185 0.5487002 -0.06414325 -0.33447805
-0.06916542 0.36838043 -0.082003586 0.3111257 0.24731214 -0.3711301 0.26680377 0.009618551
0.3997688 0.020891754 0.36202276 -0.38881993 -0.24460198 0.25854737 0.19794615 -0.09245914
-0.34596124 0.034367226 -0.053173743 0.93206024 0.19436787 0.33906057 0.4120519 0.048954125
0.15596947 -0.023784846 -0.7629994 0.5317093 -0.112005636 -0.024652522 0.094893605 0.3615655
0.23210348 0.062406424 0.17015184 0.24848568 -0.18411468 -0.08276701 0.21704128 -0.08235252
-0.17221642 0.11088401 0.07132723 0.15702987 0.0025069334 -0.013762662 0.19540085 0.0573259
0.34075266 0.19919765 0.6549683 0.16907197 0.08818287 0.36354765 0.72001576 0.26390645
0.07638361 -0.14943822 0.20183736 0.028635189 0.51996964 0.0043084947 0.14764434 0.6146749
-0.08734371 -0.0767952 -0.14076823 -0.35591063 -0.8365203 -0.010858454 0.02861366 -0.10906749
-0.068951964 0.3169474 0.42614213 -0.06333044 0.120629385 -0.10449654 -0.75347793 -0.020338146
-0.13574056 -0.14248523 0.87982404 0.33173648 -0.05555315 0.36060303 -0.018920334 -0.23861967

static_fc.0.bias f4 [32]
00000000: 2839 8c3d 08f9 f5bd 47b0 a83e a186 f6bd
00000010: a858 8e3e 6e5a 143c d054 883b edd0 c53e
00000020: f352 13bd e3f0 ce3e 69dd b13e cfa2 01be
00000030: af60 07be dd51 9bbd 3d26 8b3e 0d0c 903d
00000040: 88e5 f8ba 1523 523e 132b d03d 0cd4 b43d
00000050: 25ae 833e 3f8b d33d 5fa9 4d3e cb34 553e
00000060: 9508 b5be 1fa0 913e 25dd 41bd 5892 a03e
00000070: 8f6f 913d 8c94 453e 9f23 88bc d205 e5bd
0.06846839 -0.120103896 0.3294699 -0.12037397 0.27802014 0.009054763 0.004160501 0.3863596
-0.03596778 0.40418157 0.34739235 -0.12659763 -0.13220476 -0.075839736 0.2717761 0.070335485
-0.0018989304 0.20521195 0.10164466 0.08829507 0.257188 0.103292935 0.20084141 0.2082092
-0.3535811 0.28442475 -0.04733004 0.3136165 0.07101356 0.19294947 -0.016618548 -0.11182751

static_fc.1.weight f4 [32]
00000000: 9e19 5a3f 4d58 473f 21ab 593f 7cc5 b33f
00000010: 8fe2 2f3f b353 853f 0f52 943f 3cad 253f
00000020: d102 603f 0cac 943f ea70 7f3f 6b37 8a3f
00000030: cc4f 963f ce84 823f e5cd 3c3f baf0 963f
00000040: 72ac 893f f65f 833f 661c 723f 87d8 7a3f
00000050: bee3 533f e03d 793f ca67 793f a289 4b3f
00000060: fe94 933f ace8 703f e0db 6f3f 8a6c 863f
00000070: 0784 883f 4a50 873f 61a6 9a3f 71fd 5e3f
0.8519534 0.7786911 0.85026747 1.4044642 0.68705076 1.0416168 1.1587542 0.6471746
0.875043 1.1615005 0.9978167 1.0798162 1.1743102 1.0196779 0.7375167 1.1792214
1.0755751 1.026366 0.9457458 0.97986645 0.8276938 0.9736004 0.97423995 0.79506886
1.1529844 0.9410503 0.9369488 1.0501873 1.0665292 1.0571377 1.2082025 0.8710547

static_fc.1.bias f4 [32]
00000000: 468b 58be 72b8 abbe 7714 37bc 8588 03bd
00000010: 38b7 e3bb 8775 17be a7ba 5abe 6b2a 6abe
00000020: 65ca 8dbe 6163 c83d 83ac 393e c85b 19be
00000030: 17b0 d1bc 1ea1 08be d036 a4be 7443 17be
00000040: 581d e4bd dcc8 d8bd f285 16be 2d99 eebb
00000050: 6ffb 88be 7249 01be d372 0dbd f651 1dbe
00000060: e856 9cbe 30f4 a3bd dab5 90be 4e3a e9bc
00000070: 25a2 8b3d 7997 b5bd d2b0 3d3d 12b2 84be
-0.21146879 -0.33539158 -0.011174313 -0.032112617 -0.0069493316 -0.14790927 -0.21360265 -0.22867744
-0.27693477 0.0978458 0.18132214 -0.14976418 -0.025596661 -0.13342711 -0.3207307 -0.14771825
-0.111384094 -0.10585186 -0.14699534 -0.0072814436 -0.2675433 -0.12625673 -0.034533333 -0.15363297
-0.30535054 -0.080055594 -0.28263742 -0.028470185 0.06818036 -0.08866782 0.046311207 -0.25917107

lstm.weight_ih_l0 f4 [256, 3]
00000000: 7a6d 283e cb34 da3d 5c09 8f3d 47f8 523e
00000010: 61a1 ef3c 7343 afbd cb68 5f3e b950 143e
00000020: a2ea 1c3e 8d92 0dbf 5bfb 27be a0cd 1b3f
00000030: c8a0 e33e bc96 b33e 3458 003f e99c 223f
00000040: 8fb5 a13d 23a7 ea3e 8c5f 063d 4eed 1b3e
00000050: 1109 d43e b8a5 9ebe 9048 2e3d 2942 6f3f
00000060: 0a03 04bf f950 713d ad68 37bf c473 8f3e
00000070: 4b11 c13e 7ce5 06bf 8b04 29bf e62e c5be
00000080: 625f 553e 2755 9a3b d34e 603e e629 d5be
00000090: c34a 263f f3fe 9d3e 80c2 313e 3c26 37bf
000000a0: 0575 f8be 12e8 383f d890 123e fbba 0e3e
000000b0: 6988 21bf 1f80 cb3e 0390 363e fedf a83e
000000c0: 614c df3e 9185 5d3e 3675 af3d 66ee 01bf
000000d0: 17a3 a8be 894c 923e 1ce8 653d b680 e23c
000000e0: 08cf 643e 49e9 0a3f f70b 853e 3dc0 8abd
000000f0: c2be c6be 9bab 7e3e d643 e33e b7da c73d
00000100: e8b9 b93d e8d6 9bbe 8227 573d 8639 e03e
00000110: 8b6b 02bf 7528 833e 584a 7a3e 3d16 173f
00000120: 4539 eb3e a92f 613e fb23 073f cad7 383f
00000130: 528c 123e c758 223f bbee a03e 02d7 05bb
00000140: 27e2 db3e a1df ba3e 62bc f13e b994 0bbf
00000150: a819 713d c178 7f3d 143f 2f3f 67ef cabc
00000160: 9634 edbb ef34 1a3f 1b7e 163e 005e 373e
00000170: 686f 07bf f161 2b3d e3a1 b53d fc2a 083e
00000180: ab3f 7f3e 31ff 343e 1fe3 62be 786b 073f
00000190: 23d0 853e 4aaf c0be 7128 05bf 494c 85bc
000001a0: 8bdb 313f 347b 9ebc d09a 223e c644 b63e
000001b0: ac6f f73e cdc0 773e 8056 ec3c e82f fdbd
000001c0: ea60 753d 1721 0dbf c875 8e3e 77a0 ca3e
000001d0: dbdd ecbe 1673 5abf 5b77 18bf 898d f1bd
000001e0: 4067 253d 976b dc3d 014e a93e 2b39 823d
000001f0: b8e7 963e b4d5 c6be 6cfa 0f3e aee3 c53e
00000200: 9fdb 56be 8acd 5f3d 2e31 943e 6f08 dfbd
00000210: 5cf5 0a3f 2516 843c d00a d23b 526b 24be
00000220: 6f1d 7bbd c600 493f 2031 b93e 8217 113e
00000230: f4c4 f63e 90d5 483e a0a6 ff3d cbfd 19be
00000240: 0247 25bf 8821 3bbe 6574 0e3f 4a91 a73e
00000250: 356f a83e 8da8 c5bd 9016 74be b1ac f93d
00000260: 6f0a 3abc 7707 e33e dc4c 803e 9575 23be
00000270: 8fea d8be 0c58 023e cd8a 2a3e 336b 5dbf
00000280: ac29 70bf cb97 5abd 529d 02bf b3ed 31be
00000290: 8bb5 1d3e 9201 b9be d2e9 853e e389 2a3f
000002a0: 2bd0 2c3e 5cbb 1c3e 821e ebbd ae97 853e
000002b0: 5147 a93e 87b1 b23e 4d78 a4be 5c5f 5a3c
000002c0: f7cf 36be 5152 23be f06f d7bd 9f9c 2a3f
000002d0: 901d b7be 47b9 853d b3c6 e4be 1622 81be
000002e0: 7538 21be ce83 453f 0a51 413f e01e bfbc
000002f0: f15b 513e 1d5c 4d3e 2491 063e 2cf6 0abe
00000300: 80bc ed3e d8df 093c 540c 12bf f635 5b3e
00000310: 3132 d1bb 8de4 b53d 5853 d83e ecf2 143e
00000320: edf8 b4bd 4bfe b2be 4200 9bbe 89ed ca3c
00000330: 66cc dc3d 19a5 603e b972 25bd e73b 3f3d
00000340: 2f01 5b3e a620 8dbe fd5e bc3e 93de c63e
00000350: fb20 98bd c380 79be b39c 08be b565 043e
00000360: 986d 9bbe c542 aebc f0a4 3fbe 110c 4c3f
00000370: 4806 3c3e 344e d2be d4b5 33bd f7c7 1fbd
00000380: 607a 503d 607f 663f bbf7 b23e 530e a7be
00000390: d1e8 1a3f 3365 cc3e d528 e3be 6944 f4be
000003a0: 6978 77be eaac 443d b445 2e3f 9315 4c3e
000003b0: 69c1 a8be 9ab7 b63c 3158 2c3e 04f6 1ebf
000003c0: 261a b33e cf93 d13e 02a5 d9be db9e 003e
000003d0: 1040 5fbe 7471 c7be 16b5 93bd 77d1 663d
000003e0: fd2a 17bf 00a9 9a3e b4ab 8d3e e265 b0be
000003f0: e103 a4be e2c7 61be d447 efbd 04c8 c73e
0.16448012 0.10654601 0.06984207 0.20602523 0.029251756 -0.08557787 0.21817319 0.14483918
0.1532388 -0.55301744 -0.16404478 0.60860634 0.44458604 0.3507594 0.5013459 0.63520676
0.07895958 0.4583064 0.032805964 0.15227243 0.41413167 -0.30985808 0.04254967 0.9346033
-0.5156714 0.058915112 -0.716441 0.2801801 0.37708506 -0.52693915 -0.6602256 -0.38512343
0.20837167 0.004709858 0.21905069 -0.41633528 0.6495783 0.30858573 0.17359352 -0.71542716
-0.4852678 0.7222911 0.14313066 0.13938515 -0.6309877 0.39746186 0.17828374 0.32983392
0.4361296 0.21632983 0.08567278 -0.5075439 -0.32936928 0.28574017 0.05612956 0.027649265
0.22344601 0.54262215 0.2598569 -0.06774948 -0.38817412 0.2487015 0.44387692 0.097585134
0.09068662 -0.30437398 0.052527912 0.43793887 -0.5094535 0.25616804 0.24442422 0.5901831
0.4594213 0.21990837 0.52789277 0.7220427 0.1431134 0.63416713 0.31432137 -0.0020422344
0.42945978 0.3649874 0.47214037 -0.5452381 0.05886236 0.06237102 0.68455625 -0.024772359
-0.0072389347 0.6023702 0.14696543 0.17906952 -0.5290437 0.04184145 0.08868768 0.13297647
0.24926631 0.17675473 -0.22156952 0.5289836 0.26135358 -0.37633735 -0.52014834 -0.016271727
0.6947562 -0.019345857 0.15879369 0.35599345 0.48327386 0.24194641 0.02884984 -0.12362653
0.059906878 -0.55128616 0.27824235 0.3957555 -0.46263012 -0.8533186 -0.5955712 -0.11794574
0.04038167 0.10762709 0.33067325 0.0635856 0.29473662 -0.38834918 0.14060372 0.38650268
-0.20982216 0.054639377 0.2894377 -0.108902805 0.5428064 0.01612384 0.0064099804 -0.16056564
-0.061307367 0.78516805 0.36170292 0.14169124 0.48197138 0.19612718 0.12482953 -0.1503822
-0.64561474 -0.1827451 0.55646354 0.32728034 0.32897344 -0.09651289 -0.23836732 0.121911414
-0.011355027 0.44341633 0.2505864 -0.15962823 -0.42366454 0.127289 0.16654511 -0.864917
-0.93813586 -0.053367417 -0.510213 -0.17375831 0.15401284 -0.3613401 0.26154953 0.6661665
0.16876285 0.15305847 -0.11480428 0.26092285 0.33062223 0.34901068 -0.32123032 0.0133283995
-0.1785277 -0.1594937 -0.10519397 0.66645235 -0.35764742 0.065294795 -0.44682845 -0.25221318
-0.15744193 0.77154243 0.7551428 -0.023330152 0.20445229 0.2005467 0.13141304 -0.1357047
0.46432877 0.008415185 -0.5705006 0.21407303 -0.006384157 0.08881483 0.42251086 0.14545792
-0.08836541 -0.34959635 -0.30273634 0.024771469 0.107811734 0.2193798 -0.04039261 0.046687987
0.2138717 -0.2756397 0.3679122 0.38841686 -0.074281655 -0.24365525 -0.13341026 0.12929423
-0.3035705 -0.021272073 -0.18715262 0.7970591 0.18361771 -0.4107529 -0.043874577 -0.03900906
0.050897956 0.9003811 0.34954628 -0.32628116 0.605115 0.3992096 -0.4436709 -0.47708443
-0.24167027 0.048016466 0.6807511 0.19930105 -0.3296006 0.022304345 0.16830517 -0.6209414
0.34980887 0.40933082 -0.42508703 0.12560599 -0.21801782 -0.38953745 -0.07212274 0.056352105
-0.5904997 0.30207062 0.27670062 -0.3445273 -0.3203421 -0.22048905 -0.11683622 0.39019787

lstm.weight_hh_l0 f4 [256, 64]
00000000: c5d3 113e b655 ad3d 89b3 1e3e 67b4 923e
00000010: 37ad 95bd 5764 423e fb91 503e a8a9 eebe
00000020: c40b fdbd 1d1a 253e aee7 ff3e 0fb6 58bd
00000030: 9d70 08be cb40 a1be 28a8 58bd 118e 643e
00000040: 8db9 29be 32df dd3e 49d3 723e f30b 31bd
00000050: faa4 f4be ef72 a73d 7fd7 6a3e 6bf7 503b
00000060: dcfe 0f3e 1a49 3bbd 831c e13d 524d d8bd
00000070: e613 473e 6e9f ba3e dc5c e13d a63e d0bc
00000080: 1e9e d0bc d521 6c3d d59d eabe e54c 4fbd
00000090: bd41 2d3d 1a7d 67be c959 26be 9328 cebd
000000a0: c987 f8bd b66d 8ebe a8fb dc3d bdbc bebb
000000b0: 4d22 273d 89fb 113e 7b2a b6be 058e 67be
000000c0: 7351 09bf b39e 0dbd 91cd b43e b483 b03d
000000d0: cc68 be3e e91b c8bd 3248 1abe 79de 2cbe
000000e0: 998d 993d fc02 e73d f83a bb3e 2b1a 23bf
000000f0: aa59 b53d d415 0bbe f008 1b3e abe6 093d
00000100: 75cf 033e 858f 45be 8bcf 9ebe 9b5f 04be
00000110: de97 bd3e c5e7 bbbe ed5e babe 8809 ab3e
00000120: da4a 0dbe d03d 0bbe 486e e8be 1434 d6bc
00000130: a522 bebe 1893 2b3e 1043 223d e030 15bf
00000140: 1605 9abe ed4a 91be 673b 0abf afba 95be
00000150: 4256 c73c dfe5 eabd c334 643e 4b94 af3e
00000160: f33c efbe fba5 fdbe d023 fb3d 5a6f ab3e
00000170: 72a8 a5be 62aa ddbe 0e31 003e d134 84bd
00000180: c6fa 153d 9f72 02bf 810d ba3e 7684 2b3e
00000190: abfa ff3e cf6f 0cbe 0c31 4bbe d729 a63d
000001a0: af35 ca3e 242a f9bd d5b5 ab3d aa86 b3bd
000001b0: b5c6 2abf 698f 31be 47a8 7bbe 4d4e 48bd
000001c0: 1ddd dc3e 02c4 553e f5c2 a3be ccf9 a5be
000001d0: 67a7 95be 1f3a 183e 1ad5 35bd 2128 773e
000001e0: 1dc1 1e3e cd71 ccbe 3efd 1fbd f02a 703e
000001f0: 37f2 df3c 0996 973e 91cd a83e dee6 25be
00000200: a68d 8cbe 1d53 0c3e 7062 393d ba7a b83c
00000210: 4315 f7bc bd5a 3fbe ae90 8b3d 4e64 a2bd
00000220: fe29 24bc fe9e b5bc d0bd 053d d48f 403c
00000230: baf9 0e3e e1a8 27bd 9e94 42bd 9e32 23be
00000240: 5e3f 66bc 8625 043d 5006 e9bd 8869 43be
00000250: aca3 bb3d 74aa fdbd e103 33be ea1f 2fbe
00000260: 407c 083e 022a 69be 57b8 a7be 3355 1d3e
00000270: c63e 4b3e 948c c2bd 5409 133e d5b3 8f3e
00000280: 4cd6 8abc c832 05be 4373 06be 7460 5ebe
00000290: a570 2dbe e2b3 d03c 05c6 ee3c 5bf2 8b3d
000002a0: fa95 f33c a095 6139 7c79 d93b 36ee e63d
000002b0: a4e0 493d f252 e13d 2be6 203e f5e6 4dbd
000002c0: 80c4 74be bfec 863d 4b82 bf3d 0e79 aa3d
000002d0: 9675 adbc e50e 93bd 252d a03d b24b 193e
000002e0: 070b a3bc 5c91 94bc fa10 353e 5cd6 80be
000002f0: 2a41 553e 8f36 30be 503f ec3d a4cc e3ba
00000300: 17e6 3ebc 4549 383e 4dbd bd3c 80bf f23d
00000310: 6e7c b53d c28c 10be fd35 c4bd 972d 0f3e
00000320: 866c 9dbe c870 4d3e 5979 3dbe c474 f43c
00000330: 4a3b 41be ca72 413e 9a0a 4dbe 76f1 253d
00000340: e6c0 9c3d 3bf3 57be a0d3 fa3c 9d75 2dbd
00000350: 389c bdbc d2aa 823e 77f5 20be 77f3 01bb
00000360: f2ed 33be d600 c0be ba61 a93b 6ece dabc
00000370: be3d eabd 6322 203e 3a7f 953a e32b efbd
00000380: 1ce1 de3d 07b4 3fbe 8a72 dbbc ead5 b8bc
00000390: 7692 093e 8066 8dbe 3ded 98bd 0fcc 0dbd
000003a0: 37a6 06be b952 48be 0e83 39be 02bd d93e
000003b0: 89a7 45be 3837 083c f07c c23c fce6 52bd
000003c0: fb92 533c cc92 c03d a428 eb3c 16e6 72bd
000003d0: 0b90 f0bd cfb4 e2bd 3a62 4bbe 0573 493e
000003e0: b70e 5abd 6f4c 34be 76e0 3a3e 74ef d33c
000003f0: 4dbd 9d3e 2eb5 88be 1e90 7f3e 4d52 b8bc
0.1424094 0.08463614 0.15498175 0.2865326 -0.07308429 0.18983589 0.20368187 -0.46613812
-0.1235576 0.16123243 0.49981445 -0.052908 -0.13324209 -0.31494746 -0.05289474 0.22319819
-0.16574688 0.43334347 0.23713411 -0.043224286 -0.47782117 0.08176219 0.22933768 0.0031885754
0.14062065 -0.045724012 0.10991766 -0.10561623 0.19441184 0.3644976 0.1100404 -0.025420498
-0.025466021 0.057649452 -0.4582354 -0.05061044 0.04229902 -0.22606316 -0.16245188 -0.10066333
-0.12135274 -0.27818078 0.10790187 -0.005820839 0.040804196 0.1425611 -0.35579285 -0.2261277
-0.53639907 -0.034575175 0.35313085 0.086188704 0.3718933 -0.097709484 -0.15066603 -0.16881742
0.07497711 0.11279866 0.36568427 -0.63711804 0.08854993 -0.13582546 0.15140128 0.033667248
0.12872107 -0.1929303 -0.31017718 -0.12927096 0.37029928 -0.36700264 -0.36400548 0.3340571
-0.13798085 -0.13597798 -0.45396638 -0.02614788 -0.37135807 0.1675533 0.039614737 -0.582777
-0.30082005 -0.28377476 -0.5399689 -0.2924399 0.024333123 -0.11469626 0.22285752 0.34292826
-0.46726188 -0.49540696 0.1226269 0.33483392 -0.32355076 -0.43294054 0.12518713 -0.064553864
0.03661611 -0.5095615 0.36338428 0.16749749 0.49995932 -0.13714527 -0.19842929 0.08113449
0.39494082 -0.12166241 0.08384291 -0.087659195 -0.6670945 -0.17339863 -0.24575911 -0.0489028
0.43137446 0.20875552 -0.31984678 -0.32417142 -0.2922928 0.14865921 -0.044392683 0.24136402
0.15503354 -0.39930573 -0.03905987 0.2345388 0.027337177 0.29606655 0.32969335 -0.1620135
-0.2745182 0.1370358 0.045259893 0.022519458 -0.030161506 -0.18686958 0.06814705 -0.07929288
-0.010019777 -0.02217054 0.032651722 0.011753041 0.1396245 -0.04093254 -0.047505014 -0.15937278
-0.014053194 0.032262348 -0.11378157 -0.19083226 0.09162077 -0.12386027 -0.17481948 -0.17102018
0.13328648 -0.22769931 -0.32757828 0.15364532 0.19848165 -0.094994694 0.14359027 0.28066888
-0.016947888 -0.13007653 -0.13129906 -0.21716481 -0.16937502 0.0254764 0.029147157 0.06833335
0.0297346 0.00021513412 0.0066367965 0.11275904 0.0492865 0.11002149 0.15712802 -0.050269086
-0.23903084 0.065881245 0.09351023 0.083238706 -0.021174233 -0.07180575 0.07821111 0.14970282
-0.01990272 -0.018135719 0.17682257 -0.25163543 0.2082564 -0.17208312 0.115355134 -0.0017379713
-0.011651537 0.179967 0.023161555 0.11852932 0.08861624 -0.14116195 -0.0958061 0.13982235
-0.3074686 0.20062554 -0.18503322 0.029840834 -0.18870273 0.18891445 -0.20023575 0.04051348
0.0765398 -0.21088879 0.030618489 -0.042348493 -0.02314578 0.2552095 -0.15718637 -0.0019828954
-0.17571238 -0.37500638 0.0051691206 -0.026709761 -0.11437558 0.15638117 0.0011405714 -0.116782926
0.1088278 -0.18721019 -0.026788015 -0.02256294 0.13434777 -0.27617264 -0.074671246 -0.034618434
-0.13149343 -0.19562806 -0.181164 0.42527014 -0.19302191 0.008313946 0.023741215 -0.051489815
0.012913461 0.09402999 0.028705902 -0.05930146 -0.11746224 -0.11069643 -0.19861689 0.19672783
-0.05323669 -0.17607282 0.18249688 0.025871016 0.30808488 -0.2670073 0.2495732 -0.022500182

lstm.bias_ih_l0 f4 [256]
00000000: 305f 833e 5fdb 353d dae7 95bc 017f 8bbe
00000010: eab4 273e f7f5 ca3e 2ec1 d13d ae30 cebd
00000020: 12de 5abd 7c02 a53e e462 d5bd da47 8e3e
00000030: 2849 983e 4ae4 22be 8a52 a13e bfd9 0d3e
00000040: 2f62 833e 265e 523d 64eb a23e 2e43 693e
00000050: 293c 92be 0eb1 073d eb4a 083e e176 0fbd
00000060: 13e1 1b3e 3de8 ce3e 3e95 243e c219 403e
00000070: ebf7 96be 9160 a03d 1e0b 663e 4052 2f38
00000080: 1e1b 9f3e d62c 633e 93fa 133e bc18 7a3d
00000090: d577 793e 17c0 403e 0ce2 343e d717 0abe
000000a0: 1aa4 e7bd ccd4 d03d ad0b 4c3e b165 c5bc
000000b0: e58f 133f 0fd7 3fbe e32e 45bc 1a17 443e
000000c0: 7d81 283e 784e 763d ea3a 8fbe 0144 b63e
000000d0: 63dd b8be cfa8 083d 3035 c5be 3b9c a4be
000000e0: 0e19 c8bc ac38 fd3d 3fd8 efbe e5b8 ce3c
000000f0: fd61 00be 16af 90be f6d6 653e a51a 943d
00000100: 3359 a03e 9f64 853e a58f 443e 0cf1 03bf
00000110: 0939 7c3e 0e74 b23e 7d88 1b3e 885b b5bb
00000120: 993f f4bd 79ef fc3e 8e9c 9dbd 6f7f 823e
00000130: 63bb b33e 9f95 30be f35e 003f f21a 993e
00000140: 997f c03e b73d 243e 983b ee3e d0c0 e53e
00000150: 898a fd3c 25b3 e23d 5ce2 af3e dc13 be3d
00000160: abf7 443e b4fe fe3e 25df 3b3e f0e3 af3e
00000170: 76f9 26be e1c6 8c3e 1568 d73e 5da2 eb3d
00000180: 7df6 e23e decf 3c3e 623c a83d 0bd1 163e
00000190: 0d0c 5c3d 0908 8c3e 805a 793e b0f3 74be
000001a0: 7059 7d3d a645 4f3e e7ea c03e c23e 08bd
000001b0: bc1c b63e e820 c4bd 31ec b9bc d44c 253e
000001c0: 904e 2c3e 33bf b13e 059d a83d 79c8 423e
000001d0: 9c71 9dbe a9aa a03c 1ec6 dfbe 05a9 05be
000001e0: 1525 833e 5397 2a3e 1ca2 23be e615 1e3d
000001f0: 5a24 233d a9dd c4bd 9e64 903e 7ec8 5c3e
00000200: 60d2 413e bbfc 3abe c395 cabd 530e 0cbe
00000210: 6393 d23d cd8b c5bd 0118 dfbd d16b 7d3d
00000220: d4be 083d 4d36 7dbe 9344 75bd 49b0 41be
00000230: 7939 25be 91b0 df3d 51ff 743e 5644 07be
00000240: e2eb 0cbe 3ab2 96bd f791 34be 680b fbbd
00000250: 5d0c e03d 6f74 6fbe 4b23 6a3e d530 1a3e
00000260: 8ae9 b5bd d23f 05be 9c1b 163e 6f72 183e
00000270: 4ac6 a7bd ca82 10be 4311 5ebe 15a6 f5bd
00000280: c6f2 543e bf25 87bd 6838 1e3e ccb2 7b3e
00000290: af8e eb3d 054f ae3e aad9 e9bd 0f98 9dbd
000002a0: d2ff f23d 4120 753e d301 583e 3b9e 80be
000002b0: cd8e 08be 1ca2 ccbd 8100 07be 8124 693e
000002c0: 35cc a33d dbd9 263e 12fc c5bd ef82 53bd
000002d0: f038 cdbd 104a 813b 6225 ab3d c0ec 9fbb
000002e0: a1db 353e e4ac 02be 40b2 59bd beec f73d
000002f0: e2b9 3cbe f2b5 663d f19c 073e 433d 1fbe
00000300: 323b 813e 04d3 073d 586b 80bc df1e 81be
00000310: 8e0a 423e 097d c63e 9945 943d 1ca5 febd
00000320: 11a0 1ebd 179f ae3e 3c87 2bbd 0ca7 483e
00000330: 914b be3e 6cc3 04be 657a 983e e00f f93d
00000340: 8080 833e 5c3c 633d 7856 a93e e5ee a03e
00000350: dcd2 79be ffb0 c63c d422 253e 8071 a9ba
00000360: e9e0 1c3e 5252 063f e3fb 0a3e e238 683e
00000370: df1e 71be 6ae7 6d3d 66fc 683e 268c 2a3c
00000380: 0252 ae3e f257 923e 0efd a03d 26db fe3c
00000390: cd4e 7f3e e4e8 4b3e 1a70 373e b0ec f9bd
000003a0: 5c2c c2bd 5b74 b63d 2f58 313e e4f3 61bd
000003b0: 20ca 113f 124b 4bbe 309c 443c a92b 093e
000003c0: b3e8 f43d f9bf 5b3d 4b6b 85be 20ba 9c3e
000003d0: 0f50 adbe e59a a33d deb4 c4be 82c9 b7be
000003e0: 3fdc bb3c 4004 0e3e 3300 edbe 19ed a03c
000003f0: 3239 02be d423 9cbe 84ec 9b3e fdc2 e73d
0.2565856 0.04439866 -0.018299032 -0.27245334 0.16377607 0.3964078 0.10241924 -0.10067879
-0.05343444 0.32228458 -0.104192525 0.27789193 0.29743314 -0.15907398 0.31508285 0.13852595
0.25660846 0.05135932 0.31820214 0.22779533 -0.28561524 0.033127837 0.13309829 -0.03502548
0.15222578 0.4041156 0.16072556 0.18759826 -0.2948602 0.078309186 0.22465178 4.1799853e-05
0.31075376 0.22185072 0.14451055 0.061058745 0.24362119 0.18823276 0.17664355 -0.13485657
-0.11310597 0.10196838 0.19926329 -0.024096342 0.5764144 -0.18734382 -0.012035104 0.19149438
0.16455646 0.060133427 -0.27974635 0.35598758 -0.36106405 0.033364113 -0.3851714 -0.32150444
-0.02442601 0.12364325 -0.4684467 0.025234649 -0.1253738 -0.2825858 0.22445282 0.072316445
0.31318054 0.2605333 0.19195421 -0.51539683 0.24631132 0.34854168 0.15188785 -0.005534593
-0.11926193 0.49401453 -0.07695876 0.2548785 0.35103902 -0.17244576 0.5014488 0.2990337
0.3759735 0.16039167 0.4652984 0.44873667 0.030949848 0.11069325 0.34352386 0.092811316
0.19235103 0.49803698 0.18346842 0.3435359 -0.163061 0.27495483 0.42071596 0.11505578
0.4432868 0.1843867 0.08214642 0.14728181 0.05372243 0.2734988 0.2435093 -0.23921084
0.061852872 0.20241413 0.37679216 -0.033262976 0.35568798 -0.09576589 -0.022695633 0.16142589
0.16826844 0.34716186 0.08233074 0.19021787 -0.3075074 0.019612627 -0.4370584 -0.13052757
0.2561423 0.16659288 -0.15979809 0.038595103 0.03982959 -0.09612591 0.28201765 0.21560857
0.18927908 -0.18260472 -0.09891846 -0.1367734 0.10282018 -0.096458055 -0.1089325 0.0618704
0.033385113 -0.24727745 -0.05987985 -0.18914904 -0.16135205 0.10922349 0.2392552 -0.13209662
-0.13761857 -0.07358213 -0.17633806 -0.12258035 0.10939858 -0.2338426 0.22865026 0.1505769
-0.08882435 -0.13012627 0.1465897 0.14887403 -0.081921175 -0.14112392 -0.21686272 -0.11994568
0.20795736 -0.06598996 0.15451205 0.24579924 0.11501824 0.34044662 -0.11418469 -0.076950185
0.118652 0.23938085 0.21094446 -0.2512072 -0.13335724 -0.099918574 -0.13183786 0.22767831
0.07997934 0.16294043 -0.09667219 -0.05163854 -0.100206256 0.0039455965 0.083567396 -0.0048805177
0.17759563 -0.12761265 -0.053148508 0.12105702 -0.18430284 0.05632586 0.13243462 -0.15550713
0.25240475 0.033160225 -0.015676185 -0.25218865 0.18949339 0.3876727 0.07239837 -0.12433836
-0.03872687 0.3410575 -0.041877016 0.19594973 0.37167028 -0.12965173 0.2978088 0.12161231
0.25683975 0.055477485 0.33073783 0.31432262 -0.24396843 0.02425432 0.16126567 -0.0012927502
0.15320171 0.5246936 0.1357265 0.22677949 -0.23546933 0.05808202 0.22752532 0.010409391
0.34046942 0.28582722 0.07860766 0.031110357 0.24932404 0.1991306 0.17913857 -0.12203348
-0.09481117 0.08908912 0.17318796 -0.055164233 0.56949043 -0.19852856 0.012000129 0.13395561
0.11958446 0.053649876 -0.2605842 0.30610752 -0.33850142 0.07988528 -0.3841924 -0.35895926
0.02293217 0.13868809 -0.46289214 0.019644307 -0.12717131 -0.30496085 0.30453885 0.11316488

lstm.bias_hh_l0 f4 [256]
00000000: 305f 833e 5fdb 353d dae7 95bc 017f 8bbe
00000010: eab4 273e f7f5 ca3e 2ec1 d13d ae30 cebd
00000020: 12de 5abd 7c02 a53e e462 d5bd da47 8e3e
00000030: 2849 983e 4ae4 22be 8a52 a13e bfd9 0d3e
00000040: 2f62 833e 265e 523d 64eb a23e 2e43 693e
00000050: 293c 92be 0eb1 073d eb4a 083e e176 0fbd
00000060: 13e1 1b3e 3de8 ce3e 3e95 243e c219 403e
00000070: ebf7 96be 9160 a03d 1e0b 663e 4052 2f38
00000080: 1e1b 9f3e d62c 633e 93fa 133e bc18 7a3d
00000090: d577 793e 17c0 403e 0ce2 343e d717 0abe
000000a0: 1aa4 e7bd ccd4 d03d ad0b 4c3e b165 c5bc
000000b0: e58f 133f 0fd7 3fbe e32e 45bc 1a17 443e
000000c0: 7d81 283e 784e 763d ea3a 8fbe 0144 b63e
000000d0: 63dd b8be cfa8 083d 3035 c5be 3b9c a4be
000000e0: 0e19 c8bc ac38 fd3d 3fd8 efbe e5b8 ce3c
000000f0: fd61 00be 16af 90be f6d6 653e a51a 943d
00000100: 3359 a03e 9f64 853e a58f 443e 0cf1 03bf
00000110: 0939 7c3e 0e74 b23e 7d88 1b3e 885b b5bb
00000120: 993f f4bd 79ef fc3e 8e9c 9dbd 6f7f 823e
00000130: 63bb b33e 9f95 30be f35e 003f f21a 993e
00000140: 997f c03e b73d 243e 983b ee3e d0c0 e53e
00000150: 898a fd3c 25b3 e23d 5ce2 af3e dc13 be3d
00000160: abf7 443e b4fe fe3e 25df 3b3e f0e3 af3e
00000170: 76f9 26be e1c6 8c3e 1568 d73e 5da2 eb3d
00000180: 7df6 e23e decf 3c3e 623c a83d 0bd1 163e
00000190: 0d0c 5c3d 0908 8c3e 805a 793e b0f3 74be
000001a0: 7059 7d3d a645 4f3e e7ea c03e c23e 08bd
000001b0: bc1c b63e e820 c4bd 31ec b9bc d44c 253e
000001c0: 904e 2c3e 33bf b13e 059d a83d 79c8 423e
000001d0: 9c71 9dbe a9aa a03c 1ec6 dfbe 05a9 05be
000001e0: 1525 833e 5397 2a3e 1ca2 23be e615 1e3d
000001f0: 5a24 233d a9dd c4bd 9e64 903e 7ec8 5c3e
00000200: 60d2 413e bbfc 3abe c395 cabd 530e 0cbe
00000210: 6393 d23d cd8b c5bd 0118 dfbd d16b 7d3d
00000220: d4be 083d 4d36 7dbe 9344 75bd 49b0 41be
00000230: 7939 25be 91b0 df3d 51ff 743e 5644 07be
00000240: e2eb 0cbe 3ab2 96bd f791 34be 680b fbbd
00000250: 5d0c e03d 6f74 6fbe 4b23 6a3e d530 1a3e
00000260: 8ae9 b5bd d23f 05be 9c1b 163e 6f72 183e
00000270: 4ac6 a7bd ca82 10be 4311 5ebe 15a6 f5bd
00000280: c6f2 543e bf25 87bd 6838 1e3e ccb2 7b3e
00000290: af8e eb3d 054f ae3e aad9 e9bd 0f98 9dbd
000002a0: d2ff f23d 4120 753e d301 583e 3b9e 80be
000002b0: cd8e 08be 1ca2 ccbd 8100 07be 8124 693e
000002c0: 35cc a33d dbd9 263e 12fc c5bd ef82 53bd
000002d0: f038 cdbd 104a 813b 6225 ab3d c0ec 9fbb
000002e0: a1db 353e e4ac 02be 40b2 59bd beec f73d
000002f0: e2b9 3cbe f2b5 663d f19c 073e 433d 1fbe
00000300: 323b 813e 04d3 073d 586b 80bc df1e 81be
00000310: 8e0a 423e 097d c63e 9945 943d 1ca5 febd
00000320: 11a0 1ebd 179f ae3e 3c87 2bbd 0ca7 483e
00000330: 914b be3e 6cc3 04be 657a 983e e00f f93d
00000340: 8080 833e 5c3c 633d 7856 a93e e5ee a03e
00000350: dcd2 79be ffb0 c63c d422 253e 8071 a9ba
00000360: e9e0 1c3e 5252 063f e3fb 0a3e e238 683e
00000370: df1e 71be 6ae7 6d3d 66fc 683e 268c 2a3c
00000380: 0252 ae3e f257 923e 0efd a03d 26db fe3c
00000390: cd4e 7f3e e4e8 4b3e 1a70 373e b0ec f9bd
000003a0: 5c2c c2bd 5b74 b63d 2f58 313e e4f3 61bd
000003b0: 20ca 113f 124b 4bbe 309c 443c a92b 093e
000003c0: b3e8 f43d f9bf 5b3d 4b6b 85be 20ba 9c3e
000003d0: 0f50 adbe e59a a33d deb4 c4be 82c9 b7be
000003e0: 3fdc bb3c 4004 0e3e 3300 edbe 19ed a03c
000003f0: 3239 02be d423 9cbe 84ec 9b3e fdc2 e73d
0.2565856 0.04439866 -0.018299032 -0.27245334 0.16377607 0.3964078 0.10241924 -0.10067879
-0.05343444 0.32228458 -0.104192525 0.27789193 0.29743314 -0.15907398 0.31508285 0.13852595
0.25660846 0.05135932 0.31820214 0.22779533 -0.28561524 0.033127837 0.13309829 -0.03502548
0.15222578 0.4041156 0.16072556 0.18759826 -0.2948602 0.078309186 0.22465178 4.1799853e-05
0.31075376 0.22185072 0.14451055 0.061058745 0.24362119 0.18823276 0.17664355 -0.13485657
-0.11310597 0.10196838 0.19926329 -0.024096342 0.5764144 -0.18734382 -0.012035104 0.19149438
0.16455646 0.060133427 -0.27974635 0.35598758 -0.36106405 0.033364113 -0.3851714 -0.32150444
-0.02442601 0.12364325 -0.4684467 0.025234649 -0.1253738 -0.2825858 0.22445282 0.072316445
0.31318054 0.2605333 0.19195421 -0.51539683 0.24631132 0.34854168 0.15188785 -0.005534593
-0.11926193 0.49401453 -0.07695876 0.2548785 0.35103902 -0.17244576 0.5014488 0.2990337
0.3759735 0.16039167 0.4652984 0.44873667 0.030949848 0.11069325 0.34352386 0.092811316
0.19235103 0.49803698 0.18346842 0.3435359 -0.163061 0.27495483 0.42071596 0.11505578
0.4432868 0.1843867 0.08214642 0.14728181 0.05372243 0.2734988 0.2435093 -0.23921084
0.061852872 0.20241413 0.37679216 -0.033262976 0.35568798 -0.09576589 -0.022695633 0.16142589
0.16826844 0.34716186 0.08233074 0.19021787 -0.3075074 0.019612627 -0.4370584 -0.13052757
0.2561423 0.16659288 -0.15979809 0.038595103 0.03982959 -0.09612591 0.28201765 0.21560857
0.18927908 -0.18260472 -0.09891846 -0.1367734 0.10282018 -0.096458055 -0.1089325 0.0618704
0.033385113 -0.24727745 -0.05987985 -0.18914904 -0.16135205 0.10922349 0.2392552 -0.13209662
-0.13761857 -0.07358213 -0.17633806 -0.12258035 0.10939858 -0.2338426 0.22865026 0.1505769
-0.08882435 -0.13012627 0.1465897 0.14887403 -0.081921175 -0.14112392 -0.21686272 -0.11994568
0.20795736 -0.06598996 0.15451205 0.24579924 0.11501824 0.34044662 -0.11418469 -0.076950185
0.118652 0.23938085 0.21094446 -0.2512072 -0.13335724 -0.099918574 -0.13183786 0.22767831
0.07997934 0.16294043 -0.09667219 -0.05163854 -0.100206256 0.0039455965 0.083567396 -0.0048805177
0.17759563 -0.12761265 -0.053148508 0.12105702 -0.18430284 0.05632586 0.13243462 -0.15550713
0.25240475 0.033160225 -0.015676185 -0.25218865 0.18949339 0.3876727 0.07239837 -0.12433836
-0.03872687 0.3410575 -0.041877016 0.19594973 0.37167028 -0.12965173 0.2978088 0.12161231
0.25683975 0.055477485 0.33073783 0.31432262 -0.24396843 0.02425432 0.16126567 -0.0012927502
0.15320171 0.5246936 0.1357265 0.22677949 -0.23546933 0.05808202 0.22752532 0.010409391
0.34046942 0.28582722 0.07860766 0.031110357 0.24932404 0.1991306 0.17913857 -0.12203348
-0.09481117 0.08908912 0.17318796 -0.055164233 0.56949043 -0.19852856 0.012000129 0.13395561
0.11958446 0.053649876 -0.2605842 0.30610752 -0.33850142 0.07988528 -0.3841924 -0.35895926
0.02293217 0.13868809 -0.46289214 0.019644307 -0.12717131 -0.30496085 0.30453885 0.11316488

lstm.weight_ih_l1 f4 [256, 64]
00000000: d955 a2be f33f 543d 6b50 9a3e 957e 85be
00000010: 10e5 41bd 9451 753e 195d c23d e67e 12be
00000020: b88c 073f 3ca9 713e 0329 41be ab6d 903e
00000030: 5019 d03d 94f5 823e c679 38be 5d12 2c3e
00000040: b064 573e 55fe dfbd 7794 d43d 49e2 a23e
00000050: 865d 84be da86 653e ece8 72be 3637 863d
00000060: b7f9 c2bc 4ee3 1abe 79d6 84bd 8283 6bbe
00000070: 8ad3 4bbe dc7c 6bbd 1a59 783e defb 683e
00000080: 6840 b2be d596 8f3e a5ad 293e d6d1 883d
00000090: 4fc6 873d 43c6 00be 9a56 e93e 4763 a23e
000000a0: 6278 15be 1c1f 91bd df36 89be 8399 463e
000000b0: 4342 023e 0ddd 183d 6c64 403e 2537 bdbe
000000c0: cb46 c03e 9a68 2abe 1bf2 57be a8a0 febc
000000d0: d942 983e 3c86 c93e 72a4 da3d d797 01be
000000e0: d241 823d 202e a63e c7cf 42be 03ce 223e
000000f0: 4937 7d3e e6ad 563e ab3f d1bd ea9f a53e
00000100: 62bd 6ebe f0d1 0a3f 4854 ae3e 69da 60be
00000110: c35b a3be 0fa4 eebc 081a c83e 4b38 4abe
00000120: 1bed 07bc 7d19 da3e 25eb 473e a761 b53e
00000130: c017 643e 1e02 f23d b02c aebe 64da 0f3e
00000140: cce3 503e 27b6 b03d 9066 7c3e 1899 4f3e
00000150: c30c 35be d49f 303e 5951 17bf be52 a7be
00000160: 8470 053e 18ac 0f3d a222 2bbe c747 a5be
00000170: 50a3 9a3e 591f 283e a3db a43e 0edb 083c
00000180: 5b92 99be 42d8 043e 567a 973d 33a4 05bf
00000190: d020 edbd 4093 75be 5461 103e 59e2 5d3e
000001a0: 1b01 1abe 6bd5 8bbe 67c6 f2be 3651 dc3e
000001b0: 1461 f63d 4455 ad3e 30b6 213e af4b 73be
000001c0: 02ab babb 1577 1ebe ecf4 2b3e a0fc 873e
000001d0: 3899 983e 22b5 2c3e 7a9e 213e 7854 eabd
000001e0: 52df b5be 33b3 123e c2ef 29be c910 5bbe
000001f0: e618 cb3e 39ab 66bd 4c63 02be b202 803e
00000200: 8627 cabe 310f a73e b748 0f3d caec 07be
00000210: 9cb3 9abe acb1 ec3d 7b16 a43c fc80 be3d
00000220: 22c3 31bd 17bc 1b3e 6eb7 67be 164b 663e
00000230: 5b86 8d3e ae0b 9e3e 949d c4be 93a3 1c3d
00000240: ee0e 393e 5848 4fbe a660 793b 31fc 413e
00000250: 4c7b 08be 3db6 cb3e 0704 e7be 196f 9bbe
00000260: 680c 65bd d71a 7c3e eaaa 90be ea60 d7be
00000270: d09e 833e 3878 733e 9598 613e 9f64 ef3d
00000280: 5dfa c5be 67cb 643e ee74 503e 9719 b4be
00000290: fafc 0cbe 6827 b3be 028f ad3e 4cf4 4a3e
000002a0: 3e20 9abe 06b5 b9be 700f 4ebe 8778 7c3e
000002b0: eec6 cd3c 1e40 f03c 3076 aa3e 5869 07bf
000002c0: 547c 513d 029b 42be 529e a23e f21a c93e
000002d0: 48e2 013e e460 963e 7181 013d d1d9 dbbd
000002e0: a8eb cbbe 2714 793d 8544 a0bc da20 1a3e
000002f0: 2de0 b33e 1c6c 6ebe 9cc8 5ebe 6072 fb3e
00000300: e0f2 aabe c645 b73e 0c78 543e 3592 7d3d
00000310: 2cfa a5be c6cf 973e e832 c23d 8c5e d9bb
00000320: 8294 763e 6a73 a33e 7191 a93d 6ef8 3b3e
00000330: b9bd ef3e 244f 58bd b743 9bbe c731 d83e
00000340: 1b29 0f3f 9285 73bd 373e ea3e 7dc1 023f
00000350: 481c 9cbe 5c4c b73e 6759 45be 2978 f3be
00000360: 963f 853d 3861 d03e eaf2 c7be 2c1e 26bf
00000370: b205 853e 50bd de3e 8577 483e eb2f 913e
00000380: a064 f0be 1dd7 c83d 2b6b 8c3d 3a6b 00bf
00000390: 942f aeba 3e2e acbe 8eeb f23e 6af2 f9bd
000003a0: 6ce0 d5be 98a9 27be 15aa f6be c825 563e
000003b0: c8cf 783e 2b85 893e 5c55 503e 1fc3 7abe
000003c0: 9f73 21be cd60 cfbe 458d b73e c75a 803e
000003d0: e19a 353e 2904 08bd c5d3 1f3d fb06 b73d
000003e0: 4756 94be c8f2 5c3d 51d6 5f3e 90bd 41be
000003f0: db96 c53e 4987 823b 6edb 60be 06ba 063e
-0.31706122 0.0518188 0.3013948 -0.26073137 -0.04733759 0.23956901 0.09490413 -0.1430622
0.52949095 0.23599714 -0.18863301 0.2820867 0.10161078 0.25577986 -0.18015203 0.1680388
0.21034503 -0.10937182 0.1037988 0.31813267 -0.25852603 0.22414723 -0.23721665 0.065534994
-0.023800714 -0.15125772 -0.0648622 -0.22999385 -0.19904914 -0.057492122 0.2425274 0.2275233
-0.34814763 0.28044763 0.16570146 0.06680648 0.06629621 -0.12575631 0.45573884 0.31716368
-0.14596704 -0.07086012 -0.26799676 0.19394498 0.1272059 0.037320185 0.18788308 -0.36956134
0.3755401 -0.16641465 -0.2108845 -0.031082466 0.297385 0.39360225 0.10675897 -0.12655579
0.063602105 0.32457066 -0.19024573 0.158989 0.24728121 0.20964774 -0.10217222 0.32348567
-0.23314431 0.5422659 0.34048676 -0.21958317 -0.31905946 -0.029130964 0.3908236 -0.19748037
-0.008296276 0.4259757 0.19523294 0.35426065 0.22274685 0.1181681 -0.3401847 0.14048153
0.20399398 0.08628493 0.246485 0.20273244 -0.1768065 0.1724847 -0.591085 -0.32680315
0.13031203 0.03507623 -0.1671243 -0.32281324 0.30202723 0.16418208 0.3219882 0.008353008
-0.29994473 0.12973121 0.073963806 -0.52203673 -0.11578524 -0.23981953 0.14099628 0.21668376
-0.15039484 -0.27311262 -0.47416994 0.4303071 0.12030235 0.33854115 0.15792155 -0.2375934
-0.0056966553 -0.15475114 0.16792649 0.26559925 0.29804397 0.16865972 0.1578311 -0.114418924
-0.35521942 0.14326172 -0.16595367 -0.21393122 0.39667434 -0.056315634 -0.12733191 0.25002056
-0.3948328 0.32628778 0.034981456 -0.13273922 -0.30215156 0.11557326 0.02003025 0.093019456
-0.043398984 0.1520847 -0.22628567 0.2248958 0.27641568 0.30868286 -0.38401473 0.038241934
0.18072101 -0.2024244 0.0038051992 0.1894386 -0.13328284 0.39787474 -0.4512026 -0.30358198
-0.055920035 0.24619614 -0.28255397 -0.42066127 0.25707102 0.23776329 0.22030862 0.11689114
-0.38667575 0.22343217 0.20357105 -0.35175774 -0.13768378 -0.34991002 0.3389817 0.19819754
-0.30102724 -0.36270922 -0.20123076 0.24655353 0.025119271 0.029327448 0.33293295 -0.52895117
0.05114396 -0.19004443 0.31761414 0.3927837 0.12683976 0.29370797 0.031617586 -0.107349046
-0.3982823 0.060810234 -0.019563923 0.15051594 0.3513197 -0.23283428 -0.21756214 0.491107
-0.33388424 0.3579542 0.20748919 0.061907012 -0.32417428 0.29650706 0.09482366 -0.0066335853
0.24080089 0.3192399 0.08279694 0.18356487 0.46824434 -0.05280985 -0.303251 0.42225477
0.55922097 -0.059453554 0.4575059 0.5107649 -0.30490327 0.35800445 -0.19272386 -0.47552612
0.06506269 0.40699172 -0.39052516 -0.6488979 0.25980908 0.4350381 0.19576843 0.2835687
-0.4695177 0.098066546 0.06856378 -0.50163615 -0.0013289326 -0.3362903 0.4744534 -0.1220444
-0.41772783 -0.16373289 -0.48176637 0.2091285 0.24298012 0.26859412 0.20345062 -0.24488495
-0.15766762 -0.4050354 0.35849968 0.25069258 0.17734863 -0.033207092 0.03902032 0.08936878
-0.28972074 0.05394247 0.21859099 -0.18919969 0.38591656 0.0039834124 -0.21958706 0.131569

lstm.weight_hh_l1 f4 [256, 64]
00000000: e9f7 523d 37f1 5abd 0f35 85bd b9bb 3c3e
00000010: 35e5 d13e c6d9 373c 8201 3c3d 7201 69be
00000020: 4301 243e be1e 623d 4015 fdbd 0425 cabb
00000030: 44c1 fcbd 06c9 f63d 21e6 0bbd 081b bc3e
00000040: 9eb2 b6be 28c8 40be 3ce0 333d 2066 e3bd
00000050: c15f 693d 63bc b43e f213 8c3e 870b de3e
00000060: f492 0a3e c4cd e2bc 9994 a5bb 92f3 4a3e
00000070: 6cac 1abe f919 d3bc 7fce 463e 1c22 edbc
00000080: a37d e3bd b26a 243e ae66 59be 7210 13be
00000090: 33ee 3abe 9f79 693e 4103 87be cd16 933d
000000a0: 3f55 b5be 9d08 8abd 900a fcbc 242e 5a3e
000000b0: 9d4c d83e e468 a23e dc66 20bd 721d 05bd
000000c0: 04df 6c3e 8e6b 67be 738d a3bd 2e51 da3d
000000d0: 8c6e 38bd 6850 13bd 4fdf 3abd de08 dc3d
000000e0: 97b5 a73d b462 90bd ccd2 afbe d23a d63c
000000f0: 1792 b83e 70bc 36be 5c37 ae3e 36cb 333d
00000100: 7a7c 463e ecec 59bd 3dd7 cf3a efd5 823e
00000110: 8d50 4cbe 20c8 7bbd 1101 54bc 645c 593d
00000120: 628e 71bd c14f 7abd a014 bf3c 3a83 6b3e
00000130: 2bb2 a73c da31 09bd 13c0 68bd 7aa1 a8bb
00000140: 74da df3d c2fa 41bc 22d1 3c3e 0432 8abe
00000150: 3b7c 063e a9c5 d83d e228 713d 7b4d d13d
00000160: a720 39bc f86e 88bc f307 ff3d d5cd 503d
00000170: 422c 843e d748 9abe 42b8 0fbe 341f 94be
00000180: 7ed9 2dbd 70b1 33be 0b3e 8abe 5cdd 7c3d
00000190: 59f9 e03d 6a7b 15be 61e8 3ebe d09c f33d
000001a0: 409f 85bc f1ba d4bd 7e75 afbe 8a0f 933e
000001b0: 3fa3 37be fa0d bcbc 1851 143b 60db 2ebe
000001c0: c48d c53c 27d5 fb3c 6815 233e f972 41be
000001d0: cbb7 9cbe dcdb a93e eac9 143e 5af4 e93c
000001e0: 36ce 923e 5804 abbe 1f4c 15be b55f 18bd
000001f0: bc30 b93e b3be a3bc 8aca 793d 57f3 893e
00000200: 1f64 3f3e 4a6b 693c 073c 433e b181 9abd
00000210: 77fe 92bc 67b6 a7be b433 febc 2a08 bfbc
00000220: fe5e 30be 9ebf b1be c11a 07be ebbe a03e
00000230: cc81 ed3d 46ea 41be 9450 65bd 062e 5abe
00000240: 3fce 753e 9239 09be 7d0a 9c3e cabb 73bd
00000250: 83bd 1a3e f0f2 643e bae2 6bbd 8b51 063e
00000260: 0849 b1bd ede2 433d 607e 21be 7d7e a53e
00000270: 9aca 513d 46cc 58be 3996 06be 5105 29be
00000280: 8850 a53e ef6d fcbd 3658 3ebe 726b e13c
00000290: e8de 943e 43a1 1dbe d46c bbbe 6afa f03d
000002a0: e6e6 963e f22f 0fbe 0087 2abd 95c1 8b3e
000002b0: 4b62 b03c 879b 9dbd c68f 64be 785a bbbe
000002c0: 4840 cbbd 85f5 063e aa7f e1bb bf97 86be
000002d0: 6bba 11bd 0360 b13e a799 143e 9328 83bd
000002e0: 7891 9b3e 7371 d4be 81ae 7fbe cfc9 ddbd
000002f0: 8f3d bd3e 35dc e1be b246 0ebe ba9b 1f3e
00000300: 3d2d 6c3e 0533 873c d225 183c 609d 603e
00000310: 35c9 12be 7f9d 4bbc 8bfa e3bd fb86 513e
00000320: 035f 4dbe 1b25 91be 8130 263e 4295 a23d
00000330: 781b 363e 3d7d 68bd 1aa1 97be 75de 173e
00000340: 6759 4a3d d05c 863e 9928 5e3c c31e 9bbc
00000350: 396e 053e a598 683e 6818 013e e38c c8bd
00000360: af21 26be 9a28 84be e830 12be 7d61 64bd
00000370: 1ba7 093e 9805 2bbe aa6f 4cbe a66e 0abe
00000380: 0ccb 23be 5c63 50be f497 91be 315f 893e
00000390: 50f1 a93d f03d 9d3d dcc3 d0bd f7b2 753d
000003a0: 7b14 003e e812 8dbe 5271 2b3e ab04 703d
000003b0: 40d8 21bc 4e74 1fbe f877 4fbe 0c85 c8bd
000003c0: c372 15bd 6e58 3d3e 6161 b4bd 178f 2bbe
000003d0: d81e 24be 31f2 a23d dd87 8d3e 5aaa 313d
000003e0: f51f 17bd 42cb 0cbc daa4 23bd 586d 893e
000003f0: acdd f93d 4b2a 563d 3b4f 1e3e 5ff2 673e
0.051505957 -0.053452697 -0.06504261 0.18430986 0.40995184 0.011221355 0.045899875 -0.22754458
0.16016106 0.0552051 -0.12357569 -0.0061689634 -0.1234155 0.12050061 -0.034155015 0.36739373
-0.3568315 -0.18826354 0.04391502 -0.11103463 0.056976084 0.35299978 0.27358967 0.4336817
0.1353262 -0.027686007 -0.0050531146 0.19819477 -0.15104836 -0.02576922 0.1941471 -0.028946929
-0.11107948 0.16056326 -0.21230575 -0.14361742 -0.18254928 0.22800301 -0.2636967 0.07182083
-0.354166 -0.06739924 -0.030766755 0.21306664 0.4224595 0.3172065 -0.039160594 -0.032498784
0.23131949 -0.22599623 -0.07985964 0.10660015 -0.0450273 -0.035965353 -0.04562312 0.10743879
0.081889324 -0.07050076 -0.34340513 0.026151095 0.36048958 -0.1784532 0.3402661 0.04389497
0.19383422 -0.053204462 0.0015856993 0.25553843 -0.19952603 -0.06147015 -0.012939707 0.053066626
-0.058973677 -0.061111216 0.023325264 0.22999278 0.0204707 -0.033494808 -0.0568238 -0.0051462026
0.109303385 -0.0118395705 0.18439153 -0.26991284 0.13133328 0.10584576 0.05887688 0.10219856
-0.011299289 -0.016654477 0.12452688 0.050977547 0.25815016 -0.30133697 -0.14035133 -0.28930056
-0.042443745 -0.17548156 -0.2700046 0.061734542 0.10985059 -0.1459786 -0.18643333 0.11895144
-0.016311288 -0.10387219 -0.34269327 0.28722793 -0.17933367 -0.022955883 0.0022631343 -0.17075872
0.02411545 0.030741287 0.15926135 -0.18891515 -0.30608973 0.33175552 0.14530149 0.028558899
0.2867295 -0.33401752 -0.14579819 -0.03720065 0.36169994 -0.019988393 0.060984172 0.26943466
0.18690537 0.014246771 0.19065867 -0.07544268 -0.017943604 -0.3275635 -0.031030513 -0.023319323
-0.17223737 -0.34716505 -0.131938 0.3139566 0.115970224 -0.18937024 -0.05598505 -0.21306619
0.24004458 -0.13400868 0.30476752 -0.05950526 0.15111355 0.22358298 -0.05758927 0.13117044
-0.08656508 0.047823835 -0.15770864 0.32323065 0.051218607 -0.21171674 -0.13143243 -0.16505934
0.32288003 -0.12325656 -0.18588337 0.027517054 0.29076314 -0.15393548 -0.36606467 0.11766513
0.29473037 -0.13983133 -0.041632652 0.2729613 0.021531245 -0.0769568 -0.2232047 -0.3659246
-0.0992437 0.13179596 -0.006881674 -0.26287648 -0.035578173 0.34643564 0.14511739 -0.06404223
0.3038442 -0.41492805 -0.24968912 -0.108295076 0.36961028 -0.44113317 -0.13894156 0.15586749
0.23064132 0.01650382 0.009286361 0.21935034 -0.14334567 -0.012427687 -0.11131772 0.20461647
-0.20055775 -0.28348622 0.1622944 0.07938625 0.17783916 -0.05676006 -0.29615098 0.14830954
0.049401667 0.26242685 0.013559484 -0.018935567 0.13030328 0.2271448 0.12606966 -0.09792497
-0.16223787 -0.25812227 -0.14276469 -0.055757035 0.13442652 -0.16701353 -0.19964471 -0.13518772
-0.15995425 -0.20350403 -0.28436244 0.26830438 0.0829798 0.07677829 -0.10193607 0.059985127
0.12507813 -0.27553487 0.16742447 0.0585982 -0.009878218 -0.1557171 -0.20260608 -0.09791002
-0.0364864 0.18490764 -0.08807636 -0.16753803 -0.16027391 0.079563506 0.27642718 0.04337535
-0.03689571 -0.008593382 -0.039952137 0.26841235 0.12200484 0.052286427 0.15459912 0.22651051

lstm.bias_ih_l1 f4 [256]
00000000: 42e9 3abe ff7a f0be 62a2 9dbe 7942 9bbe
00000010: 2ad0 9d3e f211 d23d 92da a4be 0b1b ec3b
00000020: 6280 b13d 3ec0 d5bd 9a89 f1be 7f40 26be
00000030: 7ceb 93be a785 1bbe 761d 86be 40c8 903e
00000040: a601 8f3e 490b 4dbe d037 d2bd 8abb acbe
00000050: 386b 99be 62e4 98be 1ef8 cdbe ea7d 94be
00000060: c80a 103d b7fc a2be aeb9 87be 6aaa bdbe
00000070: 8b8b fdbe c720 6ebd c61e 73be 428c e2be
00000080: a23e e0be 1d5b 7abe 56be 2e3e 7136 ce3d
00000090: 7e52 2bbd eff7 c2bd 9002 8dbe e050 7cbe
000000a0: e7b9 bf3e eb78 003e 5772 e5be 3a66 73be
000000b0: 1d94 fbbd 0a53 9fbe db28 9cbe 7a30 05be
000000c0: 9443 30be 69c3 843d e3d4 663c 0355 eabc
000000d0: 3f9d a0be 507c 45be 0d4b a2be 9f70 933e
000000e0: 1c6a bcbe 4c1f e1be 9c19 f8be 5296 1ebf
000000f0: af31 9bbe 0411 b0be f8b7 8bbe 31a8 24bd
00000100: ba75 67be e1c1 aebe 1bf2 fcbd 6445 1d3c
00000110: 9345 b53e 926b 7c3e 866d 2fbe 188c 03bd
00000120: 6499 c03b a71f e0bd 8e5e 4abe 13f1 cfbe
00000130: e50c bebc 9110 a6bd 0223 fabd 8f9a af3e
00000140: 67d1 b43e bd68 49be bded 813e 03f8 b2bc
00000150: 4665 d2bd bc81 3abb 02f1 5a3c 0b2b a03d
00000160: 46c8 4ebd 5eb9 59bd bba7 e4be b765 20be
00000170: f8ac 38be f513 8bbd 7c71 d43c 732e 5abd
00000180: 881c 6bbe 8eb9 10be 391c 9a3e a57f ae3d
00000190: 845f 663e 9cfb 70bb c964 413d 73d2 30be
000001a0: a23c cd3e 12cb 72bd 5ee2 21be b349 1cbe
000001b0: 14bd 14be 955a 55bd 137c 93bc 350f 443e
000001c0: e9cb edbc 1bc9 9e3e 7e1d b3bd e050 3c3d
000001d0: 84d0 02be f45b 8a3c 1632 35be 56fb c73e
000001e0: 2e70 5d3e 1096 52be 1cb7 6bbe c4e9 54be
000001f0: 2476 03bf 8bbc 1cbe 99cb 6fbc acbb 3cba
00000200: bacc 463c 977f 03bd 8fcc 6a3d a9b0 18bd
00000210: b8c1 47bd 2ef8 a6bb 404f c0bd 0685 ab3d
00000220: 0847 29be b074 42bc 0f54 32bd cb43 6abc
00000230: 3a9c 96bb 105f ee3b ee14 14bc 067c a8bd
00000240: dae4 8b3d d5d3 69be 3731 b93b 8c8c 55be
00000250: 4c0d 0b3d 5cc5 003e e08b 8f3d 0491 9d3c
00000260: a348 4cbd b6dc 08be 2588 c2bc 6af5 b23d
00000270: 2e1b 173c 5e56 06bc f2ad 88bc dcba 563d
00000280: e1a5 103e d704 31bc fbf4 aebc b84d 2cbd
00000290: 52cb 293d 08ac 6cbd 3b5f c9bc 6eb7 6d3d
000002a0: e3ac 4e3d 17a9 c1bd e75f f43b d9b8 d93d
000002b0: 535e e8bd 1630 54bd 66b2 a93c 4b94 2c3d
000002c0: 70c4 58bd 5bb2 983d b768 2e3e 0f75 b9bc
000002d0: 82df a8bd 2dc8 48bd 408c 8c3d 1872 72bd
000002e0: 8c3e 85bb be12 54bd 0081 603b 02e2 fdbd
000002f0: 81b2 203d 7cca 8abc be1e 33bc 934b c83d
00000300: 8fb4 0abe f81f 07bf 4b5d b5be 4011 4ebe
00000310: 4da3 a63e 69c1 d33d ced5 a1be b09c 2f3c
00000320: d75a ba3d 74d5 30be f01d edbe a085 17be
00000330: 70db 98be 9773 35be a2c6 91be c93c b23e
00000340: a7ae 2f3e ed9b 56be 24dd 37bc bfb8 adbe
00000350: e8c1 abbe e6df 41be b570 97be e946 4cbe
00000360: 8b8d b53c 6b44 9ebe b22f 90be 82ec c1be
00000370: 7e17 06bf 782a 59bd 37f6 5cbe e4bd b1be
00000380: de32 febe c60f 69be 34ca 253e 2711 3e3d
00000390: f865 98bd 4eea 46be ef7c eabd 2d0e 79be
000003a0: cdd9 8a3e 81d6 0b3e 116e 02bf 3985 74be
000003b0: 347e 2abe 363c 82be dcdf 9dbe bdd4 cdbd
000003c0: 819d 4fbe 4035 053d 1fa7 27bd 1fa1 13bd
000003d0: babf acbe ae4f 43be edbe aabe a552 943e
000003e0: efa2 d2be f8f1 e8be 63a6 babe 33b3 19bf
000003f0: 7186 9bbe 42f0 d9be 7c7e 8ebe 4aae 59bd
-0.18253043 -0.4696884 -0.3078795 -0.30324152 0.3082288 0.10257329 -0.32198006 0.007205372
0.08667065 -0.10437058 -0.47175294 -0.16235541 -0.28890598 -0.15187703 -0.26194352 0.2827778
0.27930945 -0.20023836 -0.10264552 -0.3373683 -0.29964614 -0.29861742 -0.4022836 -0.29002315
0.03516653 -0.3183343 -0.2650885 -0.37044078 -0.49520525 -0.058136728 -0.23742208 -0.44247633
-0.43797785 -0.2444882 0.17064795 0.100689776 -0.041826718 -0.09519946 -0.27541018 -0.24640226
0.3744652 0.12546127 -0.44813797 -0.23769465 -0.1228411 -0.3111804 -0.3049992 -0.13006774
-0.17213279 0.06482584 0.014088842 -0.02860499 -0.3136997 -0.19285703 -0.31697884 0.2879686
-0.36799705 -0.4396919 -0.48457038 -0.6194812 -0.30311343 -0.34387982 -0.27288795 -0.040199462
-0.22603503 -0.34132293 -0.123508655 0.009599064 0.35404643 0.2465041 -0.17131624 -0.032116026
0.0058776606 -0.10943537 -0.19762632 -0.40613613 -0.023199508 -0.081086285 -0.122137085 0.34297606
0.3531601 -0.1966886 0.25376692 -0.021846777 -0.102732226 -0.0028458675 0.013363125 0.0782071
-0.050483964 -0.053155296 -0.44659218 -0.15663801 -0.18034732 -0.06790916 0.02593302 -0.053266954
-0.22960103 -0.14133283 0.30099657 0.0852044 0.22497374 -0.0036771065 0.047215257 -0.1726778
0.40085322 -0.059275694 -0.15809008 -0.15262489 -0.14525253 -0.05208834 -0.0180035 0.19146426
-0.029027896 0.31012806 -0.087458596 0.045975566 -0.12774855 0.01688955 -0.17694888 0.39058942
0.21624824 -0.20565057 -0.2301907 -0.207923 -0.51352143 -0.15306298 -0.014635944 -0.0007199596
0.012133772 -0.0321041 0.05732399 -0.03727785 -0.04876873 -0.0050955033 -0.09390116 0.083749816
-0.16531003 -0.011868641 -0.043537196 -0.01429839 -0.0045962604 0.007274516 -0.009038193 -0.082267806
0.06830759 -0.22834714 0.005651619 -0.20854396 0.033948228 0.12575287 0.07009101 0.019234188
-0.04987396 -0.13365445 -0.02374656 0.08738215 0.009222789 -0.0081993025 -0.016684506 0.052424297
0.14125778 -0.010804377 -0.02135705 -0.042066306 0.041453667 -0.05778125 -0.024581542 0.05803626
0.050457846 -0.094560795 0.0074577215 0.1063096 -0.11346116 -0.05180367 0.02071495 0.04213361
-0.052921712 0.074558936 0.17032133 -0.022638826 -0.08245756 -0.049019028 0.06862688 -0.05919084
-0.004066294 -0.051775686 0.0034256577 -0.12396623 0.039232735 -0.016942255 -0.0109326225 0.0978004
-0.1354544 -0.52783155 -0.3542274 -0.20123768 0.32546464 0.103396244 -0.31608433 0.01071851
0.090993576 -0.17268926 -0.46311903 -0.14797068 -0.29854918 -0.17719875 -0.28471857 0.34812
0.17156468 -0.20957918 -0.011222158 -0.33930013 -0.33546376 -0.18933067 -0.29578176 -0.19948925
0.02216222 -0.30911574 -0.2816139 -0.37875754 -0.52379596 -0.053019017 -0.21578299 -0.34715188
-0.49648184 -0.22759923 0.16190416 0.046403076 -0.07441324 -0.19425318 -0.114496104 -0.24321814
0.27119294 0.13656045 -0.509492 -0.23878945 -0.16649705 -0.25436562 -0.30834854 -0.10050342
-0.20274927 0.032521486 -0.040930863 -0.03604233 -0.33740026 -0.19073364 -0.3334879 0.28969303
-0.41139933 -0.45497108 -0.36455068 -0.6003906 -0.30376008 -0.42566115 -0.27830875 -0.05314473
