fl_experiment_20260116_150647/mlp_model.pth (torch, 20068 bytes, 9 tensors)

main.0.weight f4 [64, 23]
0.37741172 0.51170045 -0.2572943 0.29080942 -0.45052505 -0.33655077 -0.079910874 0.21958494
0.22807175 -0.3007935 0.22190556 0.036527403 0.089495234 0.080324486 -0.06472161 -0.16766272
0.15601653 0.21901424 0.32602957 0.21239135 -0.14727125 0.17848845 0.16390234 0.591941
-0.058810096 -0.30441484 -0.28758684 0.08256578 -0.21841186 -0.17347208 0.30704883 -0.03453792
0.10229148 -0.08147373 -0.19822337 0.001129166 0.02678228 0.042207927 -0.104151495 -0.057604827
0.63124514 0.5359433 0.39054963 0.5505002 0.09572606 0.13753223 0.52762246 0.25561878
0.51925313 -0.23100054 -0.103596136 -0.25068113 -0.17849478 0.40268436 0.08740432 0.073671445
-0.08710261 -0.009731209 0.19134347 -0.095485754 -0.08505426 -0.22553694 0.0019405801 0.39512745
0.34700122 0.13587184 0.4202725 0.123205855 0.038501717 -0.33291018 0.42790237 0.39127415
0.3064149 -0.0772708 -0.25708506 -0.20603544 -0.27938813 -0.1207469 0.03487092 0.18337248
-0.19701111 -0.22497202 0.1569891 -0.08662035 0.17884316 -0.05304912 0.32971492 0.21390365
0.26105046 0.287194 0.31149694 0.19966163 -0.041753598 -0.024502346 -0.7592398 0.075259216
0.19080153 -0.05681092 0.18516429 -0.074458644 -0.2205529 0.06954843 0.123775005 0.018597491
0.0204425 0.028247306 -0.23173863 -0.18138994 -0.3595637 0.22729109 0.8232726 0.18496126
0.25406492 -0.102131814 0.11287296 -0.18953858 0.35861635 -0.5827573 -0.23104016 -0.3937826
0.068165235 -0.018990729 -0.07443932 -0.17542975 -0.22487839 -0.15084772 -0.12329939 -0.24911024
0.2021887 -0.12133637 0.17307897 0.08040132 0.019202597 0.30614257 0.14697178 0.013554711
0.02466308 -0.12250706 0.47949645 -0.32251707 0.77566963 -0.11229254 0.26928827 -0.24577394
-0.024319679 0.10212654 0.022737432 0.26997405 0.102553636 0.042127237 0.21409653 0.04734024
-0.11102494 -0.14905253 0.23319498 0.34712654 0.2607452 -0.01964221 0.2646988 0.003166175
0.15946653 0.3273081 0.054470256 -0.9040201 0.16419587 0.09604977 -0.23363394 0.15815318
0.023111591 -0.020382829 -0.2677085 -0.016329996 0.247841 0.040492833 0.016869366 -0.16054349
-0.22506411 0.09416077 0.39557767 0.14853308 -0.047793746 0.2984246 0.0029724636 0.104251675
0.27621216 0.29909617 0.33213118 -0.011397537 0.193562 -0.426401 0.057733215 0.020868484
0.13998003 0.08103859 -0.050271884 -0.11027609 -0.09011039 0.21205397 0.16181017 0.13918318
-0.023231277 0.2103569 1.1036661 0.23270883 0.35181823 0.2256163 0.12350454 -0.10568598
-0.00052104297 -0.057387825 0.2634269 0.06252537 -0.3849249 -0.18542291 0.12796871 0.29403818
-0.13620164 -0.16593756 -0.27430156 -0.20918119 -0.12568727 0.1622108 -0.033681832 0.10815226
-0.5703313 -0.6808603 -0.18956028 0.005739184 -0.27887005 -0.6222163 -0.12615404 0.16271909
-0.025951218 0.19748762 0.2153885 -0.09977048 -0.044526204 -0.23314673 -0.11843524 -0.0640563
0.18443628 -0.2220213 -0.41136998 -0.3222315 -0.19064367 -0.253524 -0.3215866 0.1471165
0.47988924 0.25761825 0.056181185 -0.03427412 -0.13357663 -0.24814841 0.25638348 -0.35646293
00000000: 1c3c c13e cdfe 023f 14bc 83be f9e4 943e
00000010: 38ab e6be 6250 acbe 50a8 a3bd e0da 603e
00000020: a48b 693e 9b01 9abe 363b 633e c29d 153d
00000030: 4749 b73d 2a81 a43d c38c 84bd c7af 2bbe
00000040: ccc2 1f3e 4545 603e 59ed a63e 1e7d 593e
00000050: 46ce 16be adc5 363e 04d6 273e 7289 173f
00000060: dbe2 70bd 43dc 9bbe 953e 93be 3f18 a93d
00000070: 5ca7 5fbe aaa2 31be 8135 9d3e a277 0dbd
00000080: 327e d13d b3db a6bd 11fb 4abe 8600 943a
00000090: 8366 db3c 38e2 2c3d 614d d5bd 0af3 6bbd
000000a0: 4899 213f 9533 093f 1ff6 c73e 95ed 0c3f
000000b0: 060c c43d 40d5 0c3e 4412 073f 77e0 823e
000000c0: c6ed 043f 688b 6cbe 362a d4bd 4759 80be
000000d0: 56c7 36be a52c ce3e 0901 b33d 0ee1 963d
000000e0: da62 b2bd a66f 1fbc 8bef 433e 098e c3bd
000000f0: ee30 aebd 28f3 66be 105b fe3a 254e ca3e
00000100: 25aa b13e fd21 0b3e f52d d73e 5a53 fc3d
00000110: fab3 1d3d 3473 aabe 0516 db3e 1655 c83e
00000120: 6ae2 9c3e 2740 9ebd a7a0 83be f4fa 52be
00000130: f60b 8fbe 274a f7bd cfd4 0e3d ffc5 3b3e
00000140: 48bd 49be 115f 66be c0c1 203e 0366 b1bd
00000150: a922 373e 094a 59bd 65d0 a83e 8f09 5b3e
00000160: 68a8 853e 180b 933e 877c 9f3e 1974 4c3e
00000170: d205 2bbd 25b9 c8bc 8a5d 42bf 8121 9a3d
00000180: 7a61 433e 91b2 68bd b59b 3d3e c67d 98bd
00000190: 9fd8 61be 686f 8e3d c07d fd3d c459 983c
000001a0: 0877 a73c e566 e73c e44c 6dbe 49be 39be
000001b0: bc18 b8be ffbe 683e fec1 523f 7c66 3d3e
000001c0: cc14 823e 7c2a d1bd f029 e73d 6716 42be
000001d0: 909c b73e 952f 15bf cb95 6cbe df9d c9be
000001e0: 379a 8b3d 7292 9bbc a473 98bd dba3 33be
000001f0: 8546 66be d377 1abe 6484 fcbd c116 7fbe
00000200: 8e0a 4f3e 347f f8bd 9d3b 313e 72a9 a43d
00000210: c44e 9d3c b8be 9c3e c57f 163e 9414 5e3c
00000220: 3a0a ca3c fbe4 fabd 8f80 f53e f520 a5be
00000230: 4992 463f a2f9 e5bd 27e0 893e 2aac 7bbe
00000240: 103a c7bc b827 d13d da43 ba3c 0a3a 8a3e
00000250: a407 d23d 9c8d 2c3d 1f3c 5b3e d7e7 413d
00000260: 0b61 e3bd 3aa1 18be aaca 6e3e 92ba b13e
00000270: 6580 853e b3e8 a0bc 9a86 873e 9a7f 4f3b
00000280: 324b 233e ed94 a73e 341c 5f3d dc6d 67bf
00000290: f622 283e beb5 c43d bc3d 6fbe e8f2 213e
000002a0: 8554 bd3c e4f9 a6bc 1711 89be 7cc6 85bc
000002b0: 08ca 7d3e d0db 253d a031 8a3c 8365 24be
000002c0: 3577 66be 5dd7 c03d 2889 ca3e 0e19 183e
000002d0: 60c3 43bd 1ccb 983e aacd 423b e781 d53d
000002e0: ae6b 8d3e 2223 993e 190d aa3e bcbc 3abc
000002f0: 1e35 463e 3b51 dabe aa79 6c3d 62f4 aa3c
00000300: ed56 0f3e 8ff7 a53d e4e9 4dbd 6ed8 e1bd
00000310: cc8b b8bd ad24 593e 91b1 253e 0986 0e3e
00000320: 854f bebc cd67 573e ee44 8d3f 394b 6e3e
00000330: 8521 b43e f607 673e f3ef fc3d e471 d8bd
00000340: 9a96 08ba 7f0f 6bbd e4df 863e 4d0d 803d
00000350: e014 c5be 81df 3dbe 3b0a 033e 2c8c 963e
00000360: 7178 0bbe 89eb 29be 4171 8cbe 9833 56be
00000370: 2ab4 00be 971a 263e f6f5 09bd ef7e dd3d
00000380: 3b01 12bf dc4c 2ebf 171c 42be c40f bc3b
00000390: 0ec8 8ebe 9149 1fbf 862e 01be d59f 263e
000003a0: a697 d4bc 323a 4a3e ce8e 5c3e 7754 ccbd
000003b0: 1c61 36bd 04be 6ebe 2d8e f2bd f32f 83bd
000003c0: dddc 3c3e 8d59 63be 169f d2be 87fb a4be
000003d0: 1838 43be e6cd 81be 00a7 a4be b5a5 163e
000003e0: 0bb4 f53e 8ae6 833e 3e1e 663d 0563 0cbd
000003f0: 50c8 08be 9e1a 7ebe b244 833e 4f82 b6be

main.0.bias f4 [64]
-0.017581938 0.13362932 -0.18546999 0.07831819 -0.034389827 0.100154735 0.00057833287 -0.04047947
-0.0053883893 0.11888393 -0.14903355 -0.13153839 -0.013683445 -0.08605777 0.042947635 0.14256194
-0.026015133 0.18920852 -0.0794578 -0.12642968 -0.103199095 -0.13901617 -0.1306244 -0.18004765
-0.17727602 0.07357163 0.121241376 0.19475362 0.2017152 -0.003948613 0.030308686 -0.11759536
0.08929044 -0.1862524 0.10294971 0.049527995 0.052266944 0.07575973 -0.07227862 0.21156986
0.09538292 0.13444975 0.028810486 0.20256221 0.15737422 0.059081126 0.15262759 -0.04131048
0.12346488 0.029762743 0.10173441 0.18272513 0.083454326 -0.07277138 -0.008300287 0.06585551
0.04552488 -0.06386583 0.16067378 0.14035779 -0.13413277 -0.0034318885 -0.011920974 -0.12022362
00000000: ff07 90bc 20d6 083e d8eb 3dbe 4a65 a03d
00000010: 59dc 0cbd ed1d cd3d 439b 173a cdcd 25bd
00000020: 1691 b0bb 6b79 f33d 409c 18be 00b2 06be
00000030: 8730 60bc 0e3f b0bd dce9 2f3d c2fb 113e
00000040: b01d d5bc e1bf 413e c5ba a2bd c876 01be
00000050: 0c5a d3bd 415a 0ebe 67c2 05be 695e 38be
00000060: d887 35be b9ac 963d 664d f83d 7e6d 473e
00000070: 6e8e 4e3e 5e63 81bb ec49 f83c d6d5 f0bd
00000080: e8dd b63d f3b8 3ebe 4cd7 d23d dedd 4a3d
00000090: dd15 563d eb27 9b3d d006 94bd c5a5 583e
000000a0: 1f58 c33d 32ad 093e f803 ec3c 786c 4f3e
000000b0: b526 213e 0dff 713d 684a 1c3e 2e35 29bd
000000c0: 28db fc3d ffd0 f33c 215a d03d 4c1c 3b3e
000000d0: 1aea aa3d 2909 95bd edfd 07bc 41df 863d
000000e0: 4c78 3a3d 17cc 82bd ab87 243e f4b9 0f3e
000000f0: 1a5a 09be 89e9 60bb 3050 43bc cd37 f6bd

main.1.weight f4 [64]
0.7630273 0.60521793 0.8641477 0.7180316 0.7087219 0.8153333 0.6704504 0.9129556
0.6233229 0.74583864 0.3646166 0.61646944 0.7813815 0.5468407 0.76396644 0.6817237
0.6636108 0.7523387 0.26235968 0.88641095 0.54348683 0.49421018 0.73212117 0.83262134
1.0175244 0.976875 0.6712509 0.53430915 1.0423049 0.8471697 0.8761406 0.51055944
0.8951783 0.7707864 0.320502 0.5583917 0.759417 0.98480844 1.0443588 1.0814204
0.9230936 0.7758501 0.89321256 0.89121157 0.92909175 0.8397572 0.94726545 1.0235188
0.6988207 0.7636665 0.95500696 0.94658005 0.9780636 0.48456877 0.54612637 0.50140077
0.6237475 0.6594644 0.9845154 1.0323159 0.4142967 0.8188813 0.7761252 0.48564464
00000000: c255 433f 90ef 1a3f c938 5d3f ebd0 373f
00000010: cc6e 353f afb9 503f a3a2 2b3f 75b7 693f
00000020: 1792 1f3f 48ef 3e3f 07af ba3e f1d0 1d3f
00000030: 9e08 483f c1fd 0b3f 4e93 433f 7285 2e3f
00000040: 66e2 293f 4599 403f 0254 863e d4eb 623f
00000050: f421 0b3f 1e09 fd3e 4b6c 3b3f ac26 553f
00000060: 3d3e 823f 7b14 7a3f 19d7 2b3f 7cc8 083f
00000070: 3f6a 853f 1de0 583f c04a 603f 06b4 023f
00000080: 682a 653f 4252 453f d718 a43e c2f2 0e3f
00000090: 2769 423f 681c 7c3f 8dad 853f fc6b 8a3f
000000a0: dd4f 6c3f 1d9e 463f 94a9 643f 7126 643f
000000b0: f5d8 6d3f 54fa 563f fd7f 723f aa02 833f
000000c0: eae5 323f a67f 433f 567b 743f 1253 723f
000000d0: 6062 7a3f 6619 f83e f0ce 0b3f cd5b 003f
000000e0: ebad 1f3f a9d2 283f 3409 7c3f ed22 843f
000000f0: b21e d43e 34a2 513f 24b0 463f 6aa6 f83e

main.1.bias f4 [64]
0.22149438 -0.116996 0.18351997 0.22144215 0.19317378 -0.17238145 0.18237184 0.14460884
0.1483269 -0.25912476 -0.3859073 -0.31748027 -0.16302949 -0.52286553 -0.08242283 -0.10133644
-0.047781285 -0.20872541 -0.3292379 -0.27950764 -0.15353791 -0.49603242 -0.022078361 -0.4234634
-0.23024985 -0.47049493 0.024746463 -0.3423153 -0.22579011 -0.3624843 -0.015177352 -0.49261183
-0.08323138 -0.38851905 -0.49242935 -0.47227886 0.118144535 -0.34848145 -0.35699624 -0.41637594
-0.22515367 -0.407956 -0.37570962 -0.38645115 -0.31614864 0.17549463 -0.44258666 -0.39133155
-0.3334708 0.14198741 -0.36932147 -0.4333669 -0.20745343 -0.057215363 0.05942761 -0.47356933
0.16227536 0.05023866 -0.32726973 -0.10055208 -0.5629407 0.26564187 -0.20990221 -0.4561293
00000000: 6ccf 623e 999b efbd a9ec 3b3e bbc1 623e
00000010: 59cf 453e c384 30be afbf 3a3e 5714 143e
00000020: 02e3 173e 00ac 84be a495 c5be c68c a2be
00000030: 34f1 26be 84da 05bf 4dcd a8bd 7b89 cfbd
00000040: 4fb6 43bd 1dbc 55be df91 a8be a01b 8fbe
00000050: 0b39 1dbe f6f7 fdbe aedd b4bc 32d0 d8be
00000060: 9ec6 6bbe b6e4 f0be 18b9 ca3c f343 afbe
00000070: 8635 67be 8b97 b9be 6eaa 78bc 9e37 fcbe
00000080: 3775 aabd f8eb c6be b31f fcbe 89ce f1be
00000090: c3f5 f13d 296c b2be 36c8 b6be 3a2f d5be
000000a0: af8e 66be 9cdf d0be 035d c0be eddc c5be
000000b0: 3cde a1be ddb4 333e b89a e2be 9c5c c8be
000000c0: afbc aabe 2665 113e b417 bdbe 44e2 ddbe
000000d0: ac6e 54be a85a 6abd 5e6a 733d ae77 f2be
000000e0: 832b 263e 0ec7 4d3d e68f a7be 40ee cdbd
000000f0: e21c 10bf 3602 883e 9bf0 56be c889 e9be

main.1.running_mean f4 [64]
-0.020219207 0.18646699 -0.15886208 0.08130711 -0.023824006 0.07817043 0.073716596 -0.035048757
0.052827537 0.031704728 -0.21695176 -0.20809504 -0.065147705 -0.14421654 0.051243264 0.110268615
-0.00034087524 0.15254885 -0.14416412 -0.12195167 -0.11337565 -0.13840379 -0.03850314 -0.16241859
-0.26045778 0.07548533 0.1117436 0.11764662 0.16731708 -0.014181316 0.04852446 -0.15875871
0.12587458 -0.21414793 0.14391892 -0.01459613 0.10250425 0.08705169 -0.07098348 0.21177563
0.07982841 0.10211067 0.0015375668 0.14656775 0.10205208 0.051034465 0.12991221 -0.063551754
0.05542196 0.05990938 0.08790848 0.1575064 0.031107726 -0.012213503 0.005796008 0.062987916
0.09583186 -0.050088514 0.11480035 0.12933628 -0.13971221 0.025924208 -0.07922226 -0.24648686
00000000: c0a2 a5bc 34f1 3e3e beac 22be 5884 a63d
00000010: 902a c3bc d217 a03d baf8 963d 498f 0fbd
00000020: b061 583d d1dc 013d 9a28 5ebe de16 55be
00000030: 296c 85bd 80ad 13be 75e4 513d 83d4 e13d
00000040: 80b7 b2b9 c435 1c3e c29f 13be ccc1 f9bd
00000050: 7e31 e8bd b9b9 0dbe 78b5 1dbd 0f51 26be
00000060: b95a 85be 0d98 9a3d d4d9 e43d b6f0 f03d
00000070: 2b55 2b3e c058 68bc 96c1 463d a591 22be
00000080: 44e5 003e 9849 5bbe 7b5f 133e 9b24 6fbc
00000090: c0ed d13d 2848 b23d c95f 91bd b6db 583e
000000a0: 147d a33d 661f d13d 2e88 c93a db15 163e
000000b0: ae00 d13d 8409 513d b507 053e 6c27 82bd
000000c0: 2302 633d 8a63 753d 5c09 b43d 5c49 213e
000000d0: a1d5 fe3c 251b 48bc 70ec bd3b cfff 803d
000000e0: 7f43 c43d 9d29 4dbd 721c eb3d bb70 043e
000000f0: b810 0fbe 015f d43c 483f a2bd 0d67 7cbe

main.1.running_var f4 [64]
2.0238795 3.5627573 1.6610311 1.7511803 2.0893877 1.2244418 2.0984204 1.9383607
4.2844496 3.6571593 3.2040093 1.1717418 1.0593501 1.4631987 1.1915036 1.3829609
1.8524812 1.9400835 2.804162 2.4644608 1.2805845 1.7250661 3.374247 0.8957683
6.9824715 0.8114786 1.6546899 2.6689477 2.1584716 1.6335981 1.9935367 1.8190233
1.4009559 0.76185036 2.0782797 2.6407096 3.2286143 2.4414198 1.8922015 1.3290828
2.3365011 1.8302538 0.7177697 1.6932102 1.928787 1.3777312 1.4122024 1.7998347
1.8243687 2.4367666 1.7425185 1.6335369 2.8277984 1.2490185 2.741006 1.3244511
2.3687875 2.4766634 2.1230733 1.7403369 1.5556866 1.9916352 5.475054 9.511573
00000000: 3e87 0140 3704 6440 ab9c d43f ad26 e03f
00000010: 87b8 0540 82ba 9c3f 854c 0640 341c f83f
00000020: 361a 8940 e60e 6a40 7d0e 4d40 a3fb 953f
00000030: c998 873f 184a bb3f 3183 983f dd04 b13f
00000040: 1b1e ed3f a854 f83f 6477 3340 bab9 1d40
00000050: 31ea a33f f7ce dc3f aaf3 5740 1251 653f
00000060: 6870 df40 10bd 4f3f e1cc d33f 0ad0 2a40
00000070: 6624 0a40 be19 d13f 362c ff3f c1d5 e83f
00000080: 8652 b33f a008 433f 8902 0540 6301 2940
00000090: 9ea1 4e40 3940 1c40 a933 f23f 631f aa3f
000000a0: 3c89 1540 c245 ea3f c1bf 373f 1dbb d83f
000000b0: 7ee2 f63f 7f59 b03f 0cc3 b43f fc60 e63f
000000c0: ea84 e93f fcf3 1b40 d90a df3f bd17 d13f
000000d0: a6fa 3440 d7df 9f3f a46c 2f40 9d87 a93f
000000e0: 379a 1740 a781 1e40 6fe0 0740 5cc3 de3f
000000f0: bd20 c73f e7ed fe3f a433 af40 672f 1841

main.4.weight f4 [32, 64]
-0.027288921 -0.18910174 -0.032587513 0.002805073 -0.20438983 -0.02980864 -0.01773874 -0.071176685
-0.20597495 0.047155697 -0.061074335 0.23161402 -0.008388241 -0.09497143 0.097566634 0.013808629
-0.11255048 0.13972557 -0.09639217 0.05558244 -0.06684899 -0.38643047 -0.093129076 0.082724765
0.17035216 0.17609186 0.027544511 0.17874557 0.16685778 0.102030605 -0.17249191 0.08018136
-0.22579941 0.10428329 -0.17370102 0.027408343 0.10941941 0.04625556 0.1298931 0.11972178
0.098144785 0.25334358 0.11880838 -0.024179373 0.094302736 0.010571003 -0.050994065 0.20458815
0.062636405 0.047464278 0.090556495 0.15733469 0.09602168 -0.07571797 -0.15588547 0.12427095
-0.019252818 0.004944676 0.21533015 -0.027538188 0.07217931 -0.15368056 0.008644277 -0.074695155
-0.16467445 0.051759027 -0.10700944 8.9028385e-05 -0.09032566 0.07679959 -0.1721072 -0.15904087
0.012665091 0.13992909 0.033142 0.07783256 -0.23168126 0.01594552 0.073517784 -0.068782374
-0.09903723 0.036965773 0.033624567 0.1049529 -0.14228515 -0.087062605 -0.028691925 0.13358259
0.26387084 0.069011174 0.022559503 0.037891492 0.24192052 0.054854397 0.0079566445 -0.25634113
-0.17597988 0.18434782 -0.14379957 -0.05977507 -0.03259333 0.0913219 0.26776364 0.20582339
0.14575443 0.25926155 0.059994593 0.2052212 0.28395894 -0.12481039 0.2687049 0.17677797
0.16432019 -0.123529494 0.18924764 0.24654572 0.22489096 -0.23382376 0.14885625 -0.0927989
0.0013257652 -0.107344665 0.24075256 0.11015238 0.07048591 0.00381702 0.249472 0.14922541
-0.12054154 0.17724574 0.035576187 0.19141802 0.12897089 0.017439798 0.1350861 0.038636535
-0.006065348 -0.096951656 -0.0014740014 -0.11112609 0.103876285 0.060619608 0.13398473 0.10881087
0.107094586 -0.10821581 0.4720686 -0.06450891 -0.015908023 0.12469026 -0.04146692 0.01262423
-0.1106623 -0.049569268 -0.21501954 -0.23022312 0.049804904 0.21981506 -0.021269737 -0.17064919
0.000369603 -0.116043925 0.18222582 -0.076511785 -0.10845369 0.04532446 0.02597507 -0.0836081
-0.07846721 -0.19500609 0.13884088 -0.06731887 -0.24274012 0.08426711 -0.11446626 -0.058745362
-0.19207704 0.0050617335 -0.24306178 -0.13826884 -0.06667841 -0.032181755 -0.0045237206 -0.110927835
-0.07038109 0.01218374 -0.22673748 -0.22312607 0.016227352 -0.070108004 0.0015420387 0.015005696
0.064567946 -0.054706916 -0.09855405 0.060143113 0.06710694 -0.008934443 -0.18581443 -0.06715454
-0.07335833 0.09580265 -0.031660806 0.07202372 -0.027783003 0.26973492 -0.06239315 0.0828118
-0.12791274 0.17757955 0.042801917 0.35750195 -0.066077136 0.0034618624 0.118076034 0.35098332
0.19934905 0.2033076 0.03612437 0.10282702 0.19546583 0.17289062 0.030721607 0.03318136
-0.13329366 0.10005899 -0.09497547 0.013875473 -0.115702614 0.0918404 0.25863957 0.3160045
0.22529858 0.16198371 0.2954062 0.043774307 0.1717147 0.021100182 0.15705574 0.20113297
0.11561137 -0.043715626 0.15728265 0.1636608 0.22728434 -0.12463847 -0.09691554 0.028381873
-0.08394257 -0.071312405 0.33558878 0.21269552 0.017928043 -0.15431598 0.19585985 -0.026391016
00000000: 048d dfbc e3a3 41be 7c7a 05bd 51d5 373b
00000010: 914b 51be 4031 f4bc d650 91bc 15c5 91bd
00000020: 19eb 52be 5526 413d 1529 7abd 3a2c 6d3e
00000030: d56e 09bc 6280 c2bd 04d1 c73d 963d 623c
00000040: de80 e6bd 3814 0f3e 4269 c5bd 6aaa 633d
00000050: 20e8 88bd 37da c5be 75ba bebd 9a6b a93d
00000060: cc70 2e3e 6d51 343e 07a5 e13c 1409 373e
00000070: c4dc 2a3e 6cf5 d03d b8a1 30be 2036 a43d
00000080: f637 67be 7a92 d53d aede 31be 7687 e03c
00000090: 4917 e03d 7876 3d3d b202 053e b130 f53d
000000a0: 2200 c93d 40b6 813e cf51 f33d d213 c6bc
000000b0: cb21 c13d 0032 2d3c 27df 50bd 8e7f 513e
000000c0: 8447 803d e769 423d af75 b93d 581c 213e
000000d0: 04a7 c43d 0612 9bbd 71a0 1fbe c581 fe3d
000000e0: 16b8 9dbc f306 a23b 827f 5c3e c497 e1bc
000000f0: bfd2 933d 705e 1dbe baa0 0d3c c6f9 98bd
00000100: 6ba0 28be 4601 543d c427 dbbd c0b4 ba38
00000110: a9fc b8bd 1a49 9d3d df3c 30be 9cdb 22be
00000120: 3e81 4f3c 9249 0f3e e8bf 073d ad66 9f3d
00000130: da3d 6dbe 2ea0 823c 7e90 963d c6dd 8cbd
00000140: 08d4 cabd 6c69 173d eab9 093d 8cf1 d63d
00000150: 33b3 11be e14d b2bd 540b ebbc e0c9 083e
00000160: 141a 873e bb55 8d3d b5ce b83c 1c34 1b3d
00000170: 03ba 773e 01af 603d 965c 023c 253f 83be
00000180: 1234 34be adc5 3c3e 3240 13be b4d6 74bd
00000190: 9580 05bd fa06 bb3d 5118 893e 5ec3 523e
000001a0: a640 153e eebd 843e e4bc 753d 8225 523e
000001b0: 1163 913e 979c ffbd b093 893e 4905 353e
000001c0: 8d43 283e 08fd fcbd 22ca 413e 7b76 7c3e
000001d0: d149 663e 7f6f 6fbe c66d 183e 5a0d bebd
000001e0: 4cc5 ad3a 85d7 dbbd d787 763e 9297 e13d
000001f0: eb5a 903d f826 7a3b 9775 7f3e 8cce 183e
00000200: 7cde f6bd e87f 353e 56b8 113d 1603 443e
00000210: f210 043e e8dd 8e3c 0354 0a3e 5841 1e3d
00000220: d4bf c6bb 978e c6bd 4833 c1ba 1396 e3bd
00000230: 17bd d43d 444c 783d 4b33 093e 3cd8 de3d
00000240: 6854 db3d 40a0 ddbd fab2 f13e 3f1d 84bd
00000250: 8b51 82bc 9b5d ff3d 38d9 29bd dcd5 4e3c
00000260: eaa2 e2bd 2509 4bbd 152e 5cbe 9cbf 6bbe
00000270: 3a00 4c3d 3317 613e df3d aebc a9be 2ebe
00000280: 46c7 c139 70a8 edbd 6899 3a3e 36b2 9cbd
00000290: f81c debd 24a6 393d acc9 d43c b93a abbd
000002a0: 6bb3 a0bd adaf 47be 4e2c 0e3e 7ade 89bd
000002b0: de90 78be 3c94 ac3d 496d eabd fa9e 70bd
000002c0: d8af 44be e6dc a53b 30e5 78be 5996 0dbe
000002d0: b18e 88bd 04d1 03bd b83b 94bb 222e e3bd
000002e0: f623 90bd 4f9e 473c df2d 68be 297b 64be
000002f0: 39ef 843c c994 8fbd 3c1e ca3a 73da 753c
00000300: 333c 843d 5c14 60bd b5d6 c9bd a058 763d
00000310: 5d6f 893d c561 12bc 2346 3ebe 5288 89bd
00000320: e43c 96bd 2e34 c43d c3ae 01bd 2c81 933d
00000330: 2e99 e3bc b21a 8a3e f68f 7fbd 3c99 a93d
00000340: 8ffb 02be 6ad7 353e 1051 2f3d 7f0a b73e
00000350: 7353 87bd 6ae0 623b d9d1 f13d 16b4 b33e
00000360: 2822 4c3e de2f 503e 26f7 133d f996 d23d
00000370: 3228 483e 3d0a 313e e1ab fb3c 2ee9 073d
00000380: 227e 08be baeb cc3d 8082 c2bd f455 633c
00000390: 7ef5 ecbd d216 bc3d 686c 843e 58cb a13e
000003a0: acb4 663e 0fdf 253e 7b3f 973e b04c 333d
000003b0: fad5 2f3e 4ada ac3c 38d3 203e cdf5 4d3e
000003c0: a7c5 ec3d 280f 33bd b40e 213e b296 273e
000003d0: 3abd 683e 7442 ffbd a87b c6bd 1a81 e83c
000003e0: 15ea abbd 3d0c 92bd 4bd2 ab3e dbcc 593e
000003f0: d5dd 923c 0205 1ebe 7c8f 483e f931 d8bc

main.4.bias f4 [32]
-0.33505452 -0.43342313 0.056434996 -0.4852282 0.31223065 0.058471862 -0.42344385 -0.5451539
-0.46290836 -0.08445721 -0.18155745 0.4325831 0.31852245 -0.03423935 -0.5012634 0.30144313
0.123246625 0.07726019 -0.32775128 -0.037599757 -0.3397161 -0.47360837 0.026471404 -0.43559945
-0.31857148 -0.4604956 0.45595896 0.03608796 -0.055233765 -0.04209876 0.3709914 -0.15462324
00000000: 448c abbe a3e9 ddbe 6228 673d d56f f8be
00000010: b2dc 9f3e 3180 6f3d a2cd d8be 358f 0bbf
00000020: 5302 edbe e7f7 acbd 32ea 39be 887b dd3e
00000030: 6015 a33e 903e 0cbd cc52 00bf c156 9a3e
00000040: ba68 fc3d 973a 9e3d 04cf a7be 3402 1abd
00000050: 45ef adbe cc7c f2be 8fda d83c e406 dfbe
00000060: cd1b a3be 14c6 ebbe 7473 e93e f8d0 133d
00000070: cd3c 62bd c06f 2cbd 96f2 bd3e 8e55 1ebe

main.6.weight f4 [1, 32]
0.02547115 0.059222322 -0.016329514 0.07803297 -0.036616977 0.013048338 0.049895544 0.07441955
0.091057815 -0.032952283 0.033989873 -0.066710755 -0.06240808 0.04649382 0.06363044 -0.033495937
-0.029856902 0.03078547 0.09113372 0.05503409 0.01726358 0.06297587 -0.026795873 0.043920346
0.00882822 0.027827801 -0.044380337 0.022592183 0.009220049 0.01481088 -0.03538748 0.032740522
00000000: e0a8 d03c 1b93 723d 79c5 85bc c0cf 9f3d
00000010: affb 15bd b2c8 553c 455f 4c3d 4769 983d
00000020: 857c ba3d f9f8 06bd f738 0b3d a69f 88bd
00000030: 9d9f 7fbd 4e70 3e3d ad50 823d 0933 09bd
00000040: 7696 f4bc cf31 fc3c 51a4 ba3d 6d6b 613d
00000050: 5a6c 8d3c 7ef9 803d 0583 dbbc d2e5 333d
00000060: 3da4 103c 21f7 e33c 28c8 35bd 3e13 b93c
00000070: b00f 173c 55a9 723c 76f2 10bd ed1a 063d
